baseline/checkpoints/LeNet/P1_USPStoMNIST_2/LeNet_classifier_125.pt (torch_old, 20591 bytes, 2 tensors)

fc2.weight f4 [10, 500]
000000 19 44 19 3c 68 53 6c 3d 7c 2e 8e bd ab 8f 06 3b
       0.009354615 0.05769673 -0.0694246 0.002053241
000010 69 e1 34 3d 9d c4 58 bd fa ae 06 3d 65 e2 f1 3c
       0.04416028 -0.05292188 0.032881714 0.029526899
000020 de 3f 8a 3d fe e7 f6 bd 8c 13 3d 3d bd 4b 21 bd
       0.06750463 -0.12055968 0.04616122 -0.03937887
000030 80 55 6b 3d 7f f5 16 be b1 7a d4 3d c2 98 07 be
       0.057454586 -0.14742087 0.10374964 -0.13241866
000040 aa ca 83 bd 6b 41 69 bd f4 b2 35 3c f6 70 c8 bc
       -0.064351395 -0.056947153 0.011090029 -0.024467926
000050 78 4b 01 be a6 2d 05 bd b1 72 50 3d 34 9d 63 3c
       -0.12626445 -0.032514237 0.05089063 0.013892461
000060 e2 b0 71 3d 73 44 b9 3d fa fc b5 bc e8 a6 c5 bd
       0.05900658 0.09046259 -0.022215355 -0.096509755
000070 25 19 15 bd ba 81 d5 3c cc 31 f9 bc b8 43 15 bd
       -0.036400933 0.026062835 -0.030419253 -0.036441535
000080 a8 bc 2d bd 83 29 52 3d 9e 94 06 be 61 d7 e5 3b
       -0.042416245 0.05130912 -0.1314263 0.0070142006
000090 18 ef 15 bd 53 d6 f4 bc 36 82 29 3d 7b 4a 89 be
       -0.03660497 -0.029887354 0.041383944 -0.26814637
0000a0 0a 92 aa 3d 38 d8 e7 bc d2 3b 34 bd 56 be f0 bd
       0.08328636 -0.028301343 -0.04400236 -0.11755054
0000b0 e5 77 03 3d ed 06 83 3d 88 b5 16 3d c0 52 d0 bd
       0.032096762 0.06397805 0.036794215 -0.10172033
0000c0 8c 7e b2 3d b1 78 fe 3c 41 59 6b 3c cf 0f b0 bc
       0.08715543 0.03106341 0.0143645415 -0.021491913
0000d0 6d a8 bd 3c a5 80 83 bd b7 4b ad bd b6 95 8e 3a
       0.0231516 -0.06421021 -0.08461707 0.0010878358
0000e0 9d 5b 2c 3d d1 ea 18 bc dc 55 d0 bd 1e 6d 81 3d
       0.042079557 -0.009333328 -0.101726264 0.063196406
0000f0 e0 c1 7e bc dd 9b c5 bd 1e 9c 3f bd 83 05 1d bd
       -0.015549153 -0.09648869 -0.046779744 -0.038335335
000100 05 fe d7 bd 65 d3 80 3c b8 18 31 3d da bd 57 3d
       -0.10546497 0.0157258 0.043236464 0.05267129
000110 9d 10 24 bd 80 af f4 bd 5e 04 e8 bd 88 53 78 bd
       -0.040054906 -0.119475365 -0.11328958 -0.060626537
000120 43 9f 16 be 19 3b 93 3d 55 dd 52 3c b1 b0 a1 3c
       -0.14709191 0.07189006 0.0128701525 0.019737573
000130 53 63 e1 bd 6c f5 b7 bd e3 c7 92 3d 57 b5 a3 3d
       -0.11005273 -0.089823574 0.071670316 0.07993572
000140 dc b8 8a bd 14 e2 01 bd f0 92 0e bd 2c 5c aa bc
       -0.067735404 -0.031709746 -0.0348081 -0.020795904
000150 20 2a cb bd 4d a3 53 3d d4 d1 ea bd da d8 71 3d
       -0.09920144 0.051669408 -0.11465803 0.059044696
000160 22 a6 99 bc 15 78 9b 3d 53 8c 04 3d 38 07 f5 bd
       -0.018755976 0.07591263 0.032360386 -0.119642675
000170 3d ed 14 3c 54 bd 8d ba cd 05 be bd ea cd 1c 3d
       0.009089765 -0.001081387 -0.0927845 0.038282312
000180 9f 49 00 3e 8d c1 9d bc c2 9b 85 bd 3e 73 e2 bd
       0.12528084 -0.019257331 -0.06523849 -0.11057137
000190 6e 28 b3 bc 4e ff fc 3c f5 f9 16 be 30 67 5b bd
       -0.021869864 0.030883458 -0.14743789 -0.053565204
0001a0 56 a3 7f 3d 33 cc 35 be 14 98 9f b9 9b 92 05 be
       0.06241163 -0.17753677 -0.0003044015 -0.13044207
0001b0 54 37 ad bd fc 86 6b bd 62 e6 81 bd 02 13 14 3d
       -0.084578186 -0.057501778 -0.0634277 0.03615094
0001c0 73 a6 c0 bc 0a 69 a2 bb 46 96 08 3d 85 c5 df 3d
       -0.02351687 -0.0049563693 0.033346437 0.10926346
0001d0 91 44 eb bc da 09 52 3d 46 82 09 be 4a f2 fa bd
       -0.028719218 0.051278926 -0.13428602 -0.12253244
0001e0 cb 8e 5c bd b5 de 80 3d 1a c2 16 be c7 ce 8b bd
       -0.053847115 0.06292478 -0.14722481 -0.06826549
0001f0 45 83 77 3c 07 bc 17 3b d4 df 37 3d 9e cc 63 3d
       0.015106981 0.0023152845 0.044891194 0.05561506
000200 fd 7c ed bc a6 f5 1e be ac d3 30 bb ae aa 86 bc
       -0.028990263 -0.15523395 -0.0026981635 -0.016438808
000210 e0 a8 87 bd cc 77 c6 bd b1 88 b9 3d 9d 79 44 3d
       -0.06624007 -0.09690818 0.09059275 0.047967542
000220 ba 91 fb 3c ba a0 3e 3d 8e 05 06 be 2a a3 7e 3b
       0.030709136 0.04654 -0.13088056 0.0038854578
000230 c9 06 bf 3c 3f 3e 07 be e1 c4 6d bc a5 ad 6f 3b
       0.023318665 -0.13207339 -0.014512272 0.0036572006
000240 bb 2e e9 3a 16 61 08 be d8 13 fc 3c d2 ab a2 bd
       0.0017790416 -0.13318285 0.030771181 -0.079429284
000250 08 a2 7b bd f3 44 03 be 12 aa 28 be c2 9b 0c 3d
       -0.061433822 -0.12819271 -0.16471127 0.03432823
000260 27 d4 b8 39 f6 0e 85 3b 96 23 3a be 76 70 74 3c
       0.0003525328 0.0040606214 -0.18177637 0.014919391
000270 d6 2e 74 3d 17 ac ae bd 77 5a d0 bd f4 d3 9c bd
       0.05961498 -0.08528917 -0.10173505 -0.07657614
000280 1e 48 70 be 19 8e 75 be 69 a9 ed bd 41 29 97 ba
       -0.2346501 -0.23979987 -0.11604578 -0.001153268
000290 17 c9 0a bd a6 fa f9 bb e6 39 c4 3c a6 b9 af bd
       -0.03388318 -0.0076287566 0.02395339 -0.085803315
0002a0 8d df e4 3a 48 55 32 3c 87 0a 31 bd 6d 60 94 3d
       0.0017461643 0.01088459 -0.04322293 0.07244954
0002b0 aa 00 8f bc 52 c4 40 3d 9b c1 90 3d 31 0d fc bd
       -0.017456371 0.047062226 0.07068177 -0.123072036
0002c0 be db 9b bc 79 8f 25 3d 8b d6 75 3c 3e 05 8d 3d
       -0.01902568 0.04042003 0.015004764 0.068857655
0002d0 e9 a7 23 bd 7e dc b0 3b 78 bf 18 3d 41 2b 74 3c
       -0.039955053 0.0053973785 0.037291974 0.014902891
0002e0 3c 81 fe 3c af f1 ef bd 1e 8c 0c be 07 2c 91 3c
       0.031067483 -0.11716019 -0.13725325 0.01772119
0002f0 83 b3 e8 bb c6 f3 d9 3d db 63 ad bc c6 ad 99 3c
       -0.0071014776 0.10642199 -0.021165779 0.01875962
000300 bd 5d 8e bb e7 f4 80 bc a8 11 8a bd c1 04 35 3d
       -0.0043446706 -0.015741779 -0.06741649 0.044193987
000310 a1 c0 10 bd 48 73 f1 3c 07 a3 cb bd b1 10 99 bd
       -0.035339955 0.029473916 -0.099432044 -0.07473887
000320 ba d7 71 3d 77 00 9b bd 63 6c 33 be 10 fc d0 3c
       0.059043624 -0.07568448 -0.17521815 0.025510818
000330 e3 25 de bc 5c e1 20 bc ad f6 e2 bb fb 1c f8 bd
       -0.027117675 -0.009819355 -0.0069263787 -0.121149026
000340 21 0e bb bc 2e c2 86 bd 86 98 ec bd 23 2a 93 3c
       -0.022833886 -0.065800056 -0.11552529 0.017964428
000350 2f 9b 3d bd ca 1f 31 be 3d 5a 6a 3c 65 85 98 bc
       -0.046290573 -0.17297283 0.014303741 -0.018618295
000360 e3 36 2b be 4d a9 27 bd 9c 28 87 bc 8c 22 ee bd
       -0.16720156 -0.040932942 -0.016498856 -0.11627683
000370 67 90 62 3d 7c 0f 5f 3d 22 9d 71 bd f3 c9 a9 3c
       0.055313494 0.054458126 -0.058987744 0.02072618
000380 37 03 aa 3c c2 47 1b be a1 4f 48 be b4 a7 29 3d
       0.020753486 -0.15164092 -0.19561626 0.0414197
000390 f9 47 57 bd 22 32 31 3d 4c 9a 36 3d 29 93 ab 3c
       -0.052558873 0.0432607 0.044580743 0.020944195
0003a0 93 2f 83 3d 63 4e 55 3d 1e 72 76 3d 61 fe c6 3c
       0.064055584 0.05207671 0.060167424 0.02429122
0003b0 76 87 b5 bd 1d f6 03 3c 2b 4d 8f bd ce b3 e5 3c
       -0.08863728 0.008054283 -0.069971405 0.02803984
0003c0 de a0 44 be 24 d2 97 3c 39 31 3b 3d 01 40 ba bd
       -0.19201991 0.01853282 0.04570124 -0.09094239
0003d0 42 40 ad ba ae b9 07 be a0 be d9 bd e6 d6 4d bd
       -0.0013218003 -0.13254425 -0.10632062 -0.05025377
0003e0 98 6d cb bc c4 8e 8b 3d 20 76 96 3d 53 bb ca 3c
       -0.024832532 0.0681434 0.07346749 0.024747526
0003f0 39 d4 4b 3c 66 66 01 3d 9d 39 84 bd c5 18 91 bd
       0.012440735 0.031591795 -0.06456301 -0.070848025

fc2.bias f4 [10]
000000 ac 94 9c 3c 96 8d 08 bd a8 f6 4c bd 7f 45 ff 3c
       0.019113861 -0.033338152 -0.050039917 0.031161068
000010 c4 ad 02 bc 2d 3d 2f bc 06 5d 73 3d c4 d8 e5 3b
       -0.007975999 -0.010695738 0.059414886 0.007014366
000020 b8 e1 07 3d e7 05 43 bb
       0.033174247 -0.0029758157
