baseline/checkpoints/LeNet/P1_USPStoMNIST_2/LeNet_classifier_65.pt (torch_old, 20591 bytes, 2 tensors)

fc2.weight f4 [10, 500]
00000000: 8d2c 963c 8d0c 613d e24e 5cbd 905b cdba
00000010: 0deb 213d ced4 53bd e0ac f43c be30 9f3c
00000020: ae9e 793d c78c c9bd 4aa4 303d bd4b 21bd
00000030: 5bfe 533d 9042 08be c607 a13d ecc5 d3bd
00000040: e3b3 80bd e394 4abd f4b2 353c ea8d e4bc
00000050: ee09 d7bd bdd6 02bd 931b 4b3d f33b 313c
00000060: 3c3e 643d 91bb 9f3d fafc b5bc 254a b5bd
00000070: 2519 15bd db06 053d 7779 d6bc b843 15bd
00000080: a8bc 2dbd befd 353d 3ec9 f3bd 9426 c93b
00000090: 18ef 15bd d701 7fbc dd6f 2c3d fa8e 5cbe
000000a0: 6f74 893d dc80 02bd 91ce 02bd 0720 b3bd
000000b0: 53ec fb3c c0ce 603d 82fa eb3c aa62 7bbd
000000c0: bbb8 913d 5f7a f33c 4a00 723c 93ad a2bc
000000d0: 5bf1 813c f346 57bd 5d85 6dbd 2fba a03b
000000e0: 8fe7 213d d1ea 18bc 8fb0 aabd 4237 643d
000000f0: 9235 6cbc d3c8 8dbd 0cb3 3bbd 0a31 1bbd
00000100: d608 c0bd d71a 24bc 384a 233d b9e7 513d
00000110: 4165 d7bc 9cbe efbd aa8b aabd cd9a 4bbd
00000120: 033f fcbd 24e5 713d c441 183c f9d9 eb3c
00000130: 473e b5bd 3216 a7bd 50b2 833d 1c91 893d
00000140: c3a1 82bd 0759 cbbb f092 0ebd 2c5c aabc
00000150: cbd8 b8bd e998 4a3d 2cc8 b8bd 0722 2c3d
00000160: 22a6 99bc 8d05 7a3d 538c 043d e9d0 9dbd
00000170: 395b 2f3c 8cb8 19bc 3fc8 97bd 5f65 ec3c
00000180: d7e7 a73d 771f a3bc a994 76bd d5a3 b7bd
00000190: ea96 c7bc 9d45 f03c 0db0 04be 8f40 0bbd
000001a0: 3afe 3c3d 791a 12be da37 b8bb d0f1 e5bd
000001b0: 13d2 95bd dd32 74bd 83e4 43bd 0213 143d
000001c0: 73a6 c0bc e168 a2bb f948 1b3d 5e95 9c3d
000001d0: addf e9bc 2340 573d 37be babd 4a08 e2bd
000001e0: 14a7 5bbd db82 713d 201c f8bd b3d6 77bd
000001f0: cf49 6a3c 87f6 69bb 150b 2c3d 0148 443d
00000200: 3402 a8bc 2b44 f6bd acd3 30bb aeaa 86bc
00000210: 03da 64bd bc56 acbd c8d2 2c3d 17e6 2f3d
00000220: 3689 fa3c e812 333d 7f77 c4bd c229 753c
00000230: 73e6 c23c 9b75 c1bd ba9d 03bd ff9b 283c
00000240: bb2e e93a d6b2 f4bd cf2f 303c 50bf 99bd
00000250: be92 ccbc 38a3 ecbd 33c4 01be c52d 1c3d
00000260: 7836 d23a f60e 853b 07de dcbd 7670 743c
00000270: f40f 683d 9516 99bd 9004 b1bd cda7 91bd
00000280: 0d83 18be 0348 2dbe 1dac 94bd 99c2 5aba
00000290: d83a 15bd a6fa f9bb 8c8e b93c 9a21 a0bd
000002a0: 77a7 fe3a 1e6d 573c 934b 6abd d272 833d
000002b0: dc1f 90bc 449f 333d c644 683d 285a bfbd
000002c0: 1aa3 53bc b97f 0e3d f685 2b3c d103 853d
000002d0: e9a7 23bd 8df5 473c d5a6 103d fe0a 513c
000002e0: 917e d13c 59dd d7bd 366a f6bd 12c9 0f3c
000002f0: 0167 44bc 6727 c13d 231a a2bc e789 833c
00000300: b2b6 c5bb e7f4 80bc 820b 56bd 84ec 0d3d
00000310: 889e 3ebd 4873 f13c 0bee c4bd a35f 88bd
00000320: 43b1 543d 04fb 9fbd c75a 18be f60e ee3c
00000330: e325 debc 5ce1 20bc 5b5a e5bb 6db3 d4bd
00000340: 210e bbbc d41d eabc 92a3 d8bd ec73 8c3c
00000350: 2429 14bd 9d57 1bbe f947 d03b 7263 e1bc
00000360: f1ad 0bbe 6088 26bd 9c28 87bc e380 dcbd
00000370: c9c6 3e3d 2463 953c 56f0 1ebd 1ee4 5d3c
00000380: 74bf 893c d4b2 f9bd a04e 2fbe f79b 123d
00000390: c07a 07bd ef6a 233d 4bd6 293d 7c28 ce3c
000003a0: 745e 6c3d cc6f 3b3d 4d27 5d3d 7ba4 883c
000003b0: 2346 8ebd b380 453c 46ad 88bd 0c32 b03c
000003c0: bc6c 1abe 1799 8a3c f0a6 263d 2d9a 9dbd
000003d0: 8620 80ba ad55 e3bd 5980 b8bd c165 24bd
000003e0: 986d cbbc debe 7a3d 3280 653d 1411 3e3c
000003f0: 39d4 4b3c 9a65 153d 5ebe 93bd 6e77 8bbd
0.01833179 0.05494361 -0.053786166 -0.0015667547 0.039530803 -0.05171662 0.02986759 0.019432422
0.060942344 -0.09841304 0.04312543 -0.03937887 0.051756244 -0.13306642 0.07862811 -0.10340485
-0.06284311 -0.049458396 0.011090029 -0.027899701 -0.10499941 -0.03194307 0.049586844 0.010817516
0.055723414 0.07799447 -0.022215355 -0.088520326 -0.036400933 0.03247724 -0.026180966 -0.036441535
-0.042416245 0.04443144 -0.11903618 0.006138632 -0.03660497 -0.0155644035 0.04209887 -0.21538916
0.06711661 -0.03186117 -0.03193528 -0.08746343 0.030752337 0.054884672 0.028805975 -0.06137339
0.07115313 0.029721437 0.014770577 -0.019858157 0.015862158 -0.052557897 -0.057988513 0.0049050073
0.039527472 -0.009333328 -0.08334457 0.05571676 -0.014417069 -0.0692307 -0.04582505 -0.037888564
-0.09376685 -0.010016165 0.039865702 0.05124638 -0.026293399 -0.11706278 -0.0832742 -0.049708176
-0.12316706 0.059056416 0.0092930235 0.02879046 -0.08849769 -0.0815853 0.06430495 0.067171305
-0.0637851 -0.0062056812 -0.0348081 -0.020795904 -0.09025725 0.049462233 -0.09022555 0.04202464
-0.018755976 0.06104045 0.032360386 -0.07705862 0.0107029015 -0.009382378 -0.07411241 0.028856931
0.08198517 -0.019912465 -0.060200367 -0.08966795 -0.024363954 0.02933007 -0.12957783 -0.033997115
0.046140887 -0.14267911 -0.0056218924 -0.11227763 -0.07315459 -0.05961882 -0.047825348 0.03615094
-0.02351687 -0.00495635 0.03791139 0.07645677 -0.02854904 0.0525514 -0.09118312 -0.11036737
-0.053626135 0.058962684 -0.121147394 -0.060507488 0.014299824 -0.003569992 0.042002756 0.04792023
-0.020508863 -0.12024721 -0.0026981635 -0.016438808 -0.055871975 -0.08414981 0.042193204 0.04294404
0.030583005 0.043719202 -0.095931046 0.014963569 0.023791527 -0.094462596 -0.03213284 0.010291099
0.0017790416 -0.11948173 0.010753586 -0.07507193 -0.024972316 -0.11554569 -0.126725 0.038129587
0.0016037961 0.0040606214 -0.10784536 0.014919391 0.05665584 -0.0747501 -0.08643448 -0.071120836
-0.14893742 -0.16922002 -0.072593905 -0.00083450373 -0.03643307 -0.0076287566 0.02265098 -0.07818909
0.001942857 0.013148574 -0.05720098 0.064183846 -0.017593317 0.04385306 0.056706212 -0.09343368
-0.012917304 0.034789775 0.0104689505 0.064948685 -0.039955053 0.01220454 0.035315353 0.012758968
0.025573047 -0.105402656 -0.12031977 0.008775966 -0.011987449 0.094313435 -0.019787854 0.016056968
-0.006033742 -0.015741779 -0.05225707 0.034649387 -0.046537906 0.029473916 -0.096157156 -0.06658866
0.051926862 -0.07811549 -0.14878379 0.029059868 -0.027117675 -0.009819355 -0.0069992966 -0.10385785
-0.022833886 -0.028578676 -0.105780736 0.01714512 -0.036172047 -0.1517014 0.006356236 -0.02751324
-0.13640572 -0.0406574 -0.016498856 -0.10766771 0.046576295 0.01823575 -0.03880342 0.013543157
0.016814925 -0.12192312 -0.17119837 0.03579327 -0.033076048 0.0398969 0.04146413 0.025165789
0.057707265 0.045760915 0.05399256 0.016679993 -0.06946971 0.01205461 -0.06673674 0.02150824
-0.15080541 0.016918702 0.040686548 -0.07695422 -0.0009775318 -0.11100326 -0.090088554 -0.040136103
-0.024832532 0.06121718 0.05603046 0.011600751 0.012440735 0.036473848 -0.07214044 -0.06809889

fc2.bias f4 [10]
00000000: 858f b43c f40a fcbc e2e9 10bd 99bc 0b3d
00000010: 2cea 1bbc d26d 64bb 031b 5e3d 4e8e 9d3a
00000020: 8633 f83c 70f9 de39
0.022041092 -0.030766942 -0.035379298 0.034115408 -0.00951628 -0.0034855497 0.05422498 0.001202056
0.030298006 0.00042528985
