baseline/checkpoints/LeNet/P1_USPStoMNIST_2/LeNet_classifier_195.pt (torch_old, 20591 bytes, 2 tensors)

fc2.weight f4 [10, 500]
000000 88 30 f6 3b 6b 8d 99 3d 6d 7e 8f bd 5d 2e b8 3b
       0.0075131096 0.074976765 -0.07006536 0.0056207613
000010 7c 69 32 3d 56 89 79 bd 7b fa 0e 3d 5b 19 1d 3d
       0.04355763 -0.06092199 0.034906846 0.03835426
000020 a5 9b 93 3d 26 74 33 be 2c 86 3f 3d bd 4b 21 bd
       0.07207421 -0.17524776 0.046758816 -0.03937887
000030 16 d9 7f 3d 98 8f 2d be 2a 73 d9 3d 54 e0 38 be
       0.06246289 -0.16949308 0.10617669 -0.18054324
000040 60 6e 9f bd 6a 65 bc bd f4 b2 35 3c 35 0b c6 bc
       -0.07784724 -0.09199031 0.011090029 -0.024175266
000050 00 b4 2b be a9 38 fb bc 42 57 42 3d 88 72 fb 3c
       -0.16767883 -0.030666666 0.047446497 0.030694261
000060 7a c5 7e 3d d0 b0 93 3d fa fc b5 bc 3e d7 07 be
       0.062200047 0.07211459 -0.022215355 -0.13265702
000070 8e e5 14 bd 52 23 b4 3c ff 4d 4c bd b8 43 15 bd
       -0.036351733 0.021989498 -0.04987907 -0.036441535
000080 a8 bc 2d bd 45 1f 7b 3d 3b 79 0a be f1 53 81 3c
       -0.042416245 0.061309118 -0.13522808 0.015787097
000090 18 ef 15 bd 9e 66 0b bd a3 73 22 3d 35 65 a6 be
       -0.03660497 -0.03403341 0.03966106 -0.3249909
0000a0 d5 55 b5 3d fb bb 0e bd 74 12 3e bd 5a 39 0c be
       0.08854262 -0.03484724 -0.046404317 -0.13693753
0000b0 73 b0 0b 3d 33 31 9e 3d fe 51 28 3d 3b 0d 16 be
       0.034103822 0.07724228 0.04109382 -0.14653485
0000c0 55 23 bb 3d ba be c3 3c d5 5b 99 bb fa 04 47 bd
       0.091375984 0.023894656 -0.0046801367 -0.04858873
0000d0 d8 75 df 3c 19 2d ab bd 22 06 df bd 72 11 e2 ba
       0.027277872 -0.08358211 -0.108898416 -0.0017247631
0000e0 fd 69 2c 3d d1 ea 18 bc 33 66 29 be 33 c8 84 3d
       0.042093266 -0.009333328 -0.16542892 0.064834975
0000f0 57 03 7c bc f9 cb f1 bd 13 f4 59 bd 33 3b 4c bd
       -0.015381656 -0.11806483 -0.053211283 -0.049861144
000100 0a d1 11 be f9 7a 99 3c 41 2b 5e 3d 76 73 73 3d
       -0.14239898 0.018735396 0.05424047 0.059436284
000110 ee d6 e1 bc 04 0e f7 bd 18 fa 21 be 1b 5a 90 bd
       -0.027568307 -0.1206322 -0.1581806 -0.07048436
000120 48 07 2c be 6e 0b a9 3d 56 eb b6 3c a6 be 57 3c
       -0.16799653 0.08254133 0.022329014 0.013168013
000130 3e 18 02 be 86 72 c7 bd 08 62 a0 3d 86 8a af 3d
       -0.1270456 -0.097386405 0.07831198 0.08571343
000140 5f 4c 9a bd 65 87 fe bc f0 92 0e bd 2c 5c aa bc
       -0.07534098 -0.03107042 -0.0348081 -0.020795904
000150 52 7e f0 bd 4a 9b 6c 3d 51 33 02 be a0 9e 90 3d
       -0.11742844 0.057765283 -0.12714888 0.07061505
000160 22 a6 99 bc b4 63 ab 3d 53 8c 04 3d 0f be 1b be
       -0.018755976 0.08368626 0.032360386 -0.1520922
000170 74 a0 85 bb bf ff 47 3d df 9c c8 bd 46 66 d7 3c
       -0.0040779654 0.048827883 -0.09795546 0.026293885
000180 5f 95 01 3e 8d e4 0f bc 86 a0 7a bd 23 42 2e be
       0.12654637 -0.008782518 -0.061188243 -0.17017417
000190 59 a7 25 bd c4 53 10 3d e0 3a 31 be 87 95 6f bd
       -0.0404428 0.035236135 -0.17307615 -0.05849221
0001a0 6c f9 92 3d f3 10 5e be 05 4a 08 3c 30 7e 27 be
       0.0717648 -0.21686153 0.008318429 -0.1635673
0001b0 e9 76 14 be 35 9b 4f bd 2f 0d 77 bd 02 13 14 3d
       -0.14498486 -0.050685126 -0.060315307 0.03615094
0001c0 73 a6 c0 bc 0a 69 a2 bb 92 60 de 3c 6a ef ed 3d
       -0.02351687 -0.0049563693 0.027145658 0.1161793
0001d0 c1 7b 01 bd 57 1d 49 3d 1d f3 38 be 0b 13 00 be
       -0.03161216 0.049100246 -0.1806149 -0.12507264
0001e0 00 3b 7f bd f5 34 81 3d 36 fe 3b be 72 ef b2 bd
       -0.062312126 0.06308929 -0.18358693 -0.08737077
0001f0 2d 0c a8 3c 9a 67 4b 3b f1 28 43 3d 23 ab 85 3d
       0.020513618 0.0031037093 0.047646467 0.06526782
000200 0c 9c e9 bc 39 8a 21 be 0a d5 30 bb ae aa 86 bc
       -0.028516792 -0.15775384 -0.002698245 -0.016438808
000210 51 4c 87 bd ad 20 cf bd 32 c9 a4 3d 17 5e 62 3d
       -0.06606353 -0.10113654 0.080461875 0.055265512
000220 2e e0 bb 3c cc b3 4a 3d 4b a4 22 be 0a f1 05 3b
       0.022934046 0.049487874 -0.15882985 0.002043786
000230 26 8a 89 3c f5 99 26 be 58 1f df bb 33 1d f4 3b
       0.016789507 -0.16269667 -0.0068091564 0.00744977
000240 bb 2e e9 3a c3 e7 0a be bc 38 9f 3c d6 55 a4 bd
       0.0017790416 -0.13564973 0.019436233 -0.080241844
000250 b9 f3 cf bd 17 5a 17 be 7f 30 3b be ee 69 a3 3c
       -0.10153908 -0.1478046 -0.18280219 0.019947972
000260 73 b0 aa b9 f6 0e 85 3b b5 fb 80 be 76 70 74 3c
       -0.00032556392 0.0040606214 -0.25192037 0.014919391
000270 94 36 78 3d 99 74 d3 bd 09 51 14 be e5 68 a0 bd
       0.060598925 -0.103249736 -0.14484037 -0.07832507
000280 f7 4d 95 be ac ee 94 be 0c 92 00 be 65 d8 2d bb
       -0.29161045 -0.29088342 -0.12555712 -0.0026526686
000290 de f1 ef bc a6 fa f9 bb 3d 97 d1 3c 32 aa cf bd
       -0.029290136 -0.0076287566 0.025584811 -0.10139884
0002a0 07 7c 24 3b 7d fe 57 3b 8e b0 53 bd eb a0 9c 3d
       0.002509834 0.0032958083 -0.051682048 0.0764788
0002b0 a3 d5 8f bc ca 98 46 3d 81 37 a2 3d 36 57 16 be
       -0.017557925 0.048485555 0.07920743 -0.14681706
0002c0 ff f4 fa bc 88 3e f6 3c 8b f3 fe 3b 3d 8b 8e 3d
       -0.030634401 0.030059114 0.0077804974 0.06960151
0002d0 e9 a7 23 bd 60 4b 6a bb 2e c0 1f 3d 50 e5 56 3c
       -0.039955053 -0.0035750493 0.039001636 0.013116196
0002e0 2d e7 f8 3c da 9f 26 be c2 32 0a be de 67 b8 3c
       0.03038367 -0.16271916 -0.13495925 0.022510465
0002f0 cd 5f a9 3a 8f 93 e3 3d 4d c4 0b bd 4b 86 9f 3c
       0.0012922228 0.11112129 -0.034122754 0.019473216
000300 74 e0 b3 bb e7 f4 80 bc 31 f5 a7 bd db 44 2f 3d
       -0.0054894034 -0.015741779 -0.082010634 0.042790275
000310 82 5b 1c bd 48 73 f1 3c 59 cb dd bd 70 61 1d bd
       -0.038173206 0.029473916 -0.10829801 -0.038423
000320 ba 29 9f 3d 33 d3 c4 bd 0e 7f 49 be 30 f2 ab 3c
       0.077716306 -0.096105956 -0.19677374 0.020989507
000330 e3 25 de bc 5c e1 20 bc 26 51 e8 3a 3d aa 16 be
       -0.027117675 -0.009819355 0.001772438 -0.14713378
000340 21 0e bb bc 4f a5 a9 bd 5b 0f 11 be c2 1d d1 3c
       -0.022833886 -0.08283483 -0.14166014 0.025526885
000350 70 d5 c6 bd 72 95 5e be 21 00 a3 3c 75 c2 01 bd
       -0.09708679 -0.21736696 0.019897522 -0.03167959
000360 61 41 49 be b3 20 b0 3c 9c 28 87 bc c8 c7 13 be
       -0.19653846 0.021499967 -0.016498856 -0.14431679
000370 81 2d 77 3d 2c 15 49 3d a8 44 85 bd 7c 4c ff 3c
       0.06034613 0.049092457 -0.06507236 0.0311644
000380 53 11 d7 3c 16 ce 68 be 1c cd 76 be 1d 3b 35 3d
       0.026253378 -0.22734866 -0.2410168 0.044245828
000390 3a 8d ab bd 3a e2 3b 3d f5 a2 37 3d 2d fc 0e 3d
       -0.08376546 0.045870043 0.044833142 0.034908462
0003a0 10 2b 93 3d 40 2b 79 3d 31 78 99 3d 49 bc eb 3c
       0.07185948 0.060832262 0.07493628 0.028776305
0003b0 0a 6d d8 bd 7e c5 9b bb a1 6a 90 bd 56 5b 2f 3d
       -0.105676726 -0.0047537675 -0.07051588 0.042811714
0003c0 1f d5 4c be b5 11 b4 3c 40 51 4c 3d 11 e7 b9 bd
       -0.20003174 0.0219811 0.049882174 -0.090772755
0003d0 22 cf 2f bc 71 c8 19 be 54 50 11 be 33 ea 97 bd
       -0.010730537 -0.15017869 -0.14190799 -0.07417717
0003e0 98 6d cb bc 12 26 95 3d 3e 24 78 3d 50 12 01 3d
       -0.024832532 0.07282652 0.06058144 0.031511605
0003f0 39 d4 4b 3c 3d 84 04 3d 35 31 be bd 1c 64 9c bd
       0.012440735 0.032352675 -0.09286729 -0.07636282

fc2.bias f4 [10]
000000 63 7c 4c 3c 2c ff 15 bd dd 0f 4e bd 37 0a ef 3c
       0.012480828 -0.036620304 -0.050308097 0.029179676
000010 2d 3a 0c bc 57 2f 6a bc 7d a2 79 3d a0 4d 9a 3b
       -0.008558792 -0.014293513 0.060945977 0.0047089607
000020 e2 6d ff 3c 6a c2 78 b9
       0.031180326 -0.00023723548
