baseline/checkpoints/LeNet/P1_USPStoMNIST_2/LeNet_classifier_135.pt (torch_old, 20591 bytes, 2 tensors)

fc2.weight f4 [10, 500]
000000 ad a5 cd 3b 9a 97 73 3d 40 13 94 bd 72 6d 0e 3b
       0.0062758536 0.05947075 -0.07230234 0.0021732715
000010 85 eb 38 3d c0 fd 5f bd 15 14 09 3d d6 e9 fb 3c
       0.045146484 -0.054685354 0.033466417 0.03075115
000020 7c 34 8a 3d 5a 31 05 be 49 23 3a 3d bd 4b 21 bd
       0.06748292 -0.13007107 0.045443807 -0.03937887
000030 9b 6c 6d 3d 3a 62 1b be 8a ab d2 3d e9 a1 1a be
       0.057964902 -0.15174189 0.10286625 -0.15100826
000040 09 4a 94 bd bf 63 85 bd f4 b2 35 3c 92 4c be bc
       -0.072406836 -0.06513166 0.011090029 -0.023229871
000050 a6 29 03 be 23 a3 05 bd 5c 1c 50 3d 6e 47 52 3c
       -0.12808856 -0.032626282 0.050808296 0.012834413
000060 11 9d 74 3d e2 f8 96 3d fa fc b5 bc 6f fb dd bd
       0.059720103 0.073716894 -0.022215355 -0.10838973
000070 8e e5 14 bd 71 78 d6 3c 01 ff 02 bd b8 43 15 bd
       -0.036351733 0.026180478 -0.031981472 -0.036441535
000080 a8 bc 2d bd 56 4d 56 3d 3b 50 05 be 2a a5 e1 3b
       -0.042416245 0.052319847 -0.13018887 0.006886144
000090 18 ef 15 bd 3d 0a 2c bd 6c cf 27 3d d3 f6 92 be
       -0.03660497 -0.04200195 0.040969297 -0.28703937
0000a0 26 a1 ac 3d 3f 79 dc bc 73 31 33 bd 56 8d ef bd
       0.08429174 -0.026913283 -0.04374833 -0.116968796
0000b0 22 0a 07 3d df ec 83 3d d0 21 0c 3d 38 02 e1 bd
       0.032968648 0.06441664 0.034211934 -0.10986751
0000c0 67 e4 b2 3d ad d9 f8 3c 35 e2 61 3c 58 44 dd bc
       0.087349705 0.030377233 0.013786842 -0.027010128
0000d0 b8 6d b9 3c 13 3e 87 bd 76 4a cb bd e3 ef 02 ba
       0.022635326 -0.066036366 -0.09926312 -0.00049948524
0000e0 4d a5 2b 3d d1 ea 18 bc ab e0 f4 bd 65 6c 84 3d
       0.04190569 -0.009333328 -0.119569145 0.06465987
0000f0 43 7d 77 bc b7 06 c6 bd 09 7f 3e bd 40 7d 25 bd
       -0.015105548 -0.096692495 -0.04650787 -0.04040265
000100 d7 81 ee bd 90 89 4a 3c 99 4c 33 3d da 1c 58 3d
       -0.11645859 0.012361899 0.04377422 0.05276189
000110 aa 5d 29 bd 4b f5 f0 bd 3b c8 f1 bd b9 a8 73 bd
       -0.04134909 -0.11765536 -0.11805769 -0.05948708
000120 e3 f4 16 be 84 87 93 3d 62 00 65 3c 2c 1b 9f 3c
       -0.14741854 0.07203582 0.013977142 0.019422136
000130 72 26 e2 bd 2c ab b7 bd 0d 28 95 3d 04 e2 a9 3d
       -0.11042489 -0.08968195 0.0728303 0.08295062
000140 6d 01 8d bd eb 93 12 bd f0 92 0e bd 2c 5c aa bc
       -0.068850376 -0.035785597 -0.0348081 -0.020795904
000150 d4 8d c9 bd b3 92 58 3d 3e 37 ee bd 9b 67 77 3d
       -0.09841505 0.05287428 -0.1163163 0.06040154
000160 22 a6 99 bc d5 e7 9f 3d 53 8c 04 3d e4 07 f8 bd
       -0.018755976 0.0780789 0.032360386 -0.1211088
000170 9d 1e d8 3a bb af 35 bc 19 69 bd bd 47 6b 1e 3d
       0.0016488616 -0.011089261 -0.092485614 0.038676526
000180 2b dd fc 3d b2 f7 99 bc b4 51 83 bd c8 25 03 be
       0.12346872 -0.018794868 -0.06412068 -0.12807381
000190 d5 65 0d bd b2 16 01 3d 58 61 1c be 8b 84 5f bd
       -0.034520943 0.031515785 -0.15271509 -0.054569762
0001a0 f7 c0 79 3d ae 1e 45 be 0d 19 af 3a de 25 07 be
       0.06097504 -0.19249985 0.0013358906 -0.13198039
0001b0 1a 1b b3 bd ad 3a 6b bd 41 dc 9f bd 02 13 14 3d
       -0.087454036 -0.057429004 -0.07805682 0.03615094
0001c0 73 a6 c0 bc 0a 69 a2 bb 43 89 0a 3d ca 9b d6 3d
       -0.02351687 -0.0049563693 0.03382231 0.10478933
0001d0 44 a7 ea bc 1a 57 4d 3d f2 3b 0c be 48 35 fa bd
       -0.028644212 0.050131895 -0.13694742 -0.12217194
0001e0 65 81 61 bd 78 37 81 3d ea a3 18 be 4c 0a 8a bd
       -0.05505504 0.06309408 -0.14906278 -0.06740245
0001f0 a8 27 71 3c 1f 14 27 3b 03 a0 37 3d 28 95 68 3d
       0.014718927 0.002549417 0.044830333 0.05678287
000200 89 30 f8 bc 82 97 1e be ac d3 30 bb ae aa 86 bc
       -0.03029658 -0.15487483 -0.0026981635 -0.016438808
000210 f8 5e 89 bd e8 3e c6 bd 25 88 b4 3d 2b 4c 4a 3d
       -0.06707567 -0.09679967 0.0881503 0.049389046
000220 8b f7 f9 3c 85 04 3e 3d 47 2a 0a be 20 ed 3f 3b
       0.030513545 0.04639103 -0.1349269 0.0029285625
000230 82 65 c1 3c c9 e2 0b be c3 ee 67 bc 6c 30 5c 3b
       0.023607973 -0.1366073 -0.014156046 0.0033598198
000240 bb 2e e9 3a 86 bc 07 be d1 14 f9 3c 5f 32 a5 bd
       0.0017790416 -0.1325551 0.030405434 -0.08066248
000250 09 23 98 bd 22 75 04 be 99 64 35 be 2d f4 eb 3c
       -0.074285574 -0.12935308 -0.17714156 0.028802956
000260 9f d3 8b b9 f6 0e 85 3b eb 68 41 be 76 70 74 3c
       -0.00026669816 0.0040606214 -0.1888768 0.014919391
000270 5b 18 70 3d 0c e6 b0 bd 70 16 e7 bd 1c fa 9a bd
       0.058616977 -0.08637628 -0.112835765 -0.07567236
000280 2e 4b 75 be 61 55 84 be e6 bd fe bd ce 1a 11 bb
       -0.2395446 -0.2584639 -0.12438564 -0.002214122
000290 c6 f1 11 bd a6 fa f9 bb a1 a8 c0 3c a8 08 b7 bd
       -0.035630964 -0.0076287566 0.023517909 -0.08937198
0002a0 f7 be 57 ba 2f d4 35 3c 1f 8e 2a bd 6d 48 97 3d
       -0.0008230055 0.011097952 -0.041639443 0.07386861
0002b0 0e 22 90 bc 64 03 3d 3d 5b c5 8c 3d 75 c1 ff bd
       -0.017594364 0.04614581 0.0687358 -0.12488071
0002c0 d6 cc a8 bc 22 05 28 3d c4 7f 09 3c 08 ab 8e 3d
       -0.020605486 0.04102052 0.008392278 0.06966215
0002d0 e9 a7 23 bd bc 3c b5 ba 23 34 1b 3d 5c a7 79 3c
       -0.039955053 -0.0013827304 0.03789152 0.0152376555
0002e0 18 77 05 3d 77 52 02 be 3e 1e 0c be 20 13 83 3c
       0.03258428 -0.1272677 -0.13683411 0.01600033
0002f0 97 73 df bb 94 c0 d9 3d ae 3f 9f bc e4 4f 9b 3c
       -0.0068191993 0.106324345 -0.019439545 0.018958993
000300 32 b4 84 bb e7 f4 80 bc 27 cb 8c bd 3c 28 36 3d
       -0.0040498013 -0.015741779 -0.06874686 0.044471964
000310 78 ff 1f bd 48 73 f1 3c 85 93 cc bd 62 3b 99 bd
       -0.039061993 0.029473916 -0.099890746 -0.074820295
000320 fd 2e 77 3d 65 ff b5 bd c5 d1 32 be 45 31 b3 3c
       0.060347546 -0.08886603 -0.17462833 0.02187408
000330 e3 25 de bc 5c e1 20 bc 91 75 bd bb 0a 5c fc bd
       -0.027117675 -0.009819355 -0.0057818373 -0.123222426
000340 21 0e bb bc f2 04 b2 bd 79 ee fc bd 41 6e 9d 3c
       -0.022833886 -0.086923495 -0.123501725 0.019217612
000350 d9 93 59 bd 99 15 35 be b0 dd 6f 3c 01 cf af bc
       -0.053119514 -0.1768402 0.014640257 -0.021461012
000360 3c a2 36 be 7e b5 2c bd 9c 28 87 bc 5e 46 f0 bd
       -0.17835325 -0.042165272 -0.016498856 -0.117321715
000370 d2 2c 64 3d ca d4 49 3d 11 69 78 bd 56 3f aa 3c
       0.055706806 0.049275197 -0.060647074 0.020782154
000380 a0 8f a2 3c 87 02 2c be 1a 47 55 be 04 40 22 3d
       0.019843876 -0.16797839 -0.20827904 0.03961183
000390 7f 38 59 bd c5 59 2e 3d ef a3 37 3d e6 8c a8 3c
       -0.053032394 0.04256608 0.044834074 0.020574998
0003a0 1f f4 83 3d 3e 6a 57 3d 4a 81 79 3d 5a 6b c5 3c
       0.06443047 0.052591555 0.060914315 0.02409904
0003b0 a5 e7 b4 bd 21 d3 d4 3b d1 5e 91 bd 67 ae ec 3c
       -0.08833245 0.006494895 -0.07098163 0.028891755
0003c0 9a 0e 48 be 28 d2 a1 3c 3f 04 41 3d ff 80 b9 bd
       -0.1953682 0.01975353 0.04712319 -0.09057807
0003d0 1d ff af bb c5 93 08 be 0e dc f0 bd a1 4d 4d bd
       -0.005370988 -0.1333762 -0.11760722 -0.05012286
0003e0 98 6d cb bc 88 50 87 3d e4 a4 95 3d 56 00 cb 3c
       -0.024832532 0.06607157 0.07306841 0.024780434
0003f0 39 d4 4b 3c 8e 0b fa 3c 33 80 96 bd ef 2d 99 bd
       0.012440735 0.030523088 -0.07348671 -0.07479464

fc2.bias f4 [10]
000000 e1 0d 90 3c 38 74 07 bd 7d 52 4a bd c1 0b 02 3d
       0.017584743 -0.03306982 -0.049395073 0.03174949
000010 77 19 e6 bb da e1 44 bc 84 fe 78 3d 81 8a ea 3b
       -0.0070220786 -0.012016738 0.0607896 0.0071576242
000020 bf d6 05 3d c8 67 5c bb
       0.0326755 -0.0033631194
