baseline/checkpoints/LeNet/P1_USPStoMNIST_2/LeNet_classifier_200.pt (torch_old, 20591 bytes, 2 tensors)

fc2.weight f4 [10, 500]
00000000: 735a df3a 995c a23d e18f 8cbd f201 f13b
00000010: aeca 413d ec0a 78bd 0d84 1c3d 9e07 2d3d
00000020: 22aa 9b3d ffd2 30be ae54 3e3d bd4b 21bd
00000030: 0e9c 853d b1c6 2bbe 24da df3d bc56 34be
00000040: 3c94 9bbd 006a c8bd f4b2 353c 3fd2 aabc
00000050: df0d 2cbe d561 e3bc 6a88 523d 42bf 093d
00000060: 6a3b 843d 318f af3d fafc b5bc 00ff 05be
00000070: 8ee5 14bd 973d b93c 1a71 4cbd b843 15bd
00000080: a8bc 2dbd bff9 813d 82b9 09be df88 583c
00000090: 18ef 15bd 6242 07bd 044c 283d f0ab a4be
000000a0: 0ca9 bd3d 77cf fabc fefc 35bd f780 08be
000000b0: 8fa4 193d 4240 a63d 16b5 2b3d 9841 18be
000000c0: 8ede c13d 6969 e63c 37ee acbb 50e8 3fbd
000000d0: deec fc3c 0fdf b4bd e9e1 c5bd fb3e 2bbb
000000e0: dda0 363d d1ea 18bc 26d0 27be f2f0 8c3d
000000f0: 03c0 51bc 5d29 eebd d189 4bbd 53a2 50bd
00000100: 2111 0dbe 97eb b43c dfc3 693d 0ac8 783d
00000110: 07e0 cbbc 5179 f4bd 7717 21be 7501 89bd
00000120: 3770 32be 0ddd ae3d b5c7 d63c 318a 4c3c
00000130: 0f0c fcbd 0c5a c5bd 6383 a83d a655 b83d
00000140: 92e4 96bd 6f5d f6bc f292 0ebd 2c5c aabc
00000150: 53c4 ecbd 2a00 6f3d 656b 05be d7c1 973d
00000160: 22a6 99bc 112d b23d 538c 043d 8305 1fbe
00000170: bf94 8a3a bcbb 823d aac1 c0bd 9113 033d
00000180: 6e7c 073e 8d47 fabb 6923 70bd a720 28be
00000190: dc22 f8bc d809 193d ce8d 2cbe a17f 6fbd
000001a0: 74a2 973d eb5b 62be e6ff 353c 8e23 29be
000001b0: 6589 14be 5828 47bd bb63 7ebd 0213 143d
000001c0: 73a6 c0bc 0a69 a2bb 6924 ef3c b647 f63d
000001d0: e100 07bd 8131 543d c100 3fbe 8867 fabd
000001e0: 856d 70bd cde3 833d fd96 41be ae21 acbd
000001f0: c636 ac3c a11a ef3b 5614 523d bcaf 8c3d
00000200: 4bf9 e0bc 133e 23be 0ad5 30bb aeaa 86bc
00000210: f419 8cbd 3d59 cebd ac69 af3d 6517 6f3d
00000220: 78d5 df3c 72c9 4f3d 4231 25be 0e36 b83a
00000230: e99b a83c 803d 22be d552 46bb 6b6d 183c
00000240: bb2e e93a 7c36 0abe aeec be3c d49e 9fbd
00000250: 9e0e c1bd ebbc 12be f84a 39be fbfe e53c
00000260: 489d 6a3a f60e 853b 7bb5 7ebe 7670 743c
00000270: b6f4 823d 2783 cdbd 42d6 12be b3d9 99bd
00000280: 2760 97be 8fa0 91be 2a5e f2bd 6fe4 95b9
00000290: 8b6c e2bc a6fa f9bb 8a0f db3c f49c d5bd
000002a0: 053b 443b 4af5 e83b 4afb 3ebd c95d a03d
000002b0: b0f8 90bc 3efd 523d 956c a83d 9c43 17be
000002c0: ca57 dbbc 5d5c 0f3d 4f39 4c3c 33ea 953d
000002d0: e9a7 23bd c353 6abb f941 233d 1162 6c3c
000002e0: c301 073d beb0 2ebe c127 0abe c7d4 cb3c
000002f0: 6bf8 403b a2ef e93d b192 03bd 60a2 ae3c
00000300: 19b0 dbba e7f4 80bc 90c7 aabd a006 433d
00000310: 0cfb 09bd 4873 f13c 1112 d2bd e90b e9bc
00000320: 373c a63d ad40 bfbd 88eb 49be 57e6 b63c
00000330: e325 debc 5ce1 20bc 5fe5 573b 5f5b 14be
00000340: 210e bbbc 7d57 90bd 85a0 10be fb31 d53c
00000350: 40ed babd 448d 5cbe 9966 be3c 1b2c e0bc
00000360: f45a 4cbe 1a58 a33c 9c28 87bc 91f1 0ebe
00000370: d09e 823d 9516 583d 9e1a 8abd 3c58 073d
00000380: 4141 df3c e531 65be d4d9 74be 8bcc 403d
00000390: 9b53 a4bd fc0b 473d f5a2 373d 5aac 1b3d
000003a0: a103 993d 56ba 833d cf9b a03d 688b fc3c
000003b0: f00b d8bd 1eb9 cebb 2a28 94bd f07b 3b3d
000003c0: 2f44 4fbe 6fff bc3c 8d4d 5a3d ffd3 b3bd
000003d0: 879a 2abc 8b8d 1dbe 85ab 12be 24da 98bd
000003e0: 986d cbbc 0884 9d3d 64e5 803d a7eb 0e3d
000003f0: 39d4 4b3c 3e2f 153d 81a3 babd 9470 92bd
0.0017040506 0.07927818 -0.0686338 0.007354968 0.04731243 -0.06055729 0.03821187 0.042243592
0.0760081 -0.17267989 0.046467476 -0.03937887 0.06523906 -0.16775014 0.10930279 -0.17611212
-0.07596633 -0.09785843 0.011090029 -0.020852206 -0.16802166 -0.02775661 0.051399626 0.033629663
0.06456645 0.085722335 -0.022215355 -0.13085556 -0.036351733 0.022612376 -0.04991255 -0.036441535
-0.042416245 0.063464634 -0.13449672 0.013216226 -0.03660497 -0.033022292 0.04108812 -0.32162428
0.09260759 -0.030616505 -0.044430725 -0.13330446 0.03751045 0.08117725 0.041920744 -0.14868772
0.09466277 0.028126435 -0.005277421 -0.04685241 0.030874666 -0.088316076 -0.096622296 -0.0026130069
0.044587005 -0.009333328 -0.16387996 0.06881894 -0.012802127 -0.11628983 -0.04969198 -0.050936054
-0.13776065 0.022084994 0.057071563 0.060737647 -0.024887098 -0.11937202 -0.15731607 -0.06689731
-0.17425619 0.08538256 0.026218275 0.012484119 -0.123069875 -0.09636316 0.08228185 0.09000711
-0.07367815 -0.03007385 -0.034808107 -0.020795904 -0.115608834 0.058349766 -0.13029249 0.07410019
-0.018755976 0.08700002 0.032360386 -0.15529446 0.0010572894 0.06383464 -0.094119385 0.03200108
0.1323106 -0.007637924 -0.05862752 -0.16418706 -0.03029006 0.037362903 -0.16850969 -0.058471326
0.07404032 -0.22105376 0.011108374 -0.1651747 -0.14505537 -0.04862246 -0.06210683 0.03615094
-0.02351687 -0.0049563693 0.029192166 0.120253965 -0.032959823 0.051805023 -0.18652631 -0.12226778
-0.058698196 0.06439934 -0.18905254 -0.084048614 0.021022212 0.0072968756 0.051288925 0.06869456
-0.027462622 -0.15941648 -0.002698245 -0.016438808 -0.06840888 -0.100756146 0.08565077 0.05837192
0.02732347 0.050729223 -0.16132072 0.0014054195 0.020582156 -0.15843773 -0.0030261774 0.009303431
0.0017790416 -0.13497347 0.023306217 -0.07793966 -0.09426616 -0.14329879 -0.18095005 0.028075686
0.00089498283 0.0040606214 -0.24873917 0.014919391 0.06394331 -0.10034781 -0.14339545 -0.07512226
-0.29565546 -0.2844281 -0.118343666 -0.0002858969 -0.027639648 -0.0076287566 0.026740808 -0.10430327
0.0029942405 0.007109319 -0.046626367 0.07830388 -0.017696708 0.05151104 0.082238354 -0.14771885
-0.02677526 0.035000194 0.012464835 0.073200606 -0.039955053 -0.0035755492 0.03985784 0.014427678
0.032960664 -0.1705961 -0.13491727 0.024881734 0.0029444944 0.114226595 -0.032122318 0.02131766
-0.0016760855 -0.015741779 -0.08338845 0.04761374 -0.033686683 0.029473916 -0.10257352 -0.028448062
0.08116954 -0.09338508 -0.19718754 0.022326631 -0.027117675 -0.009819355 0.0032943112 -0.1448798
-0.022833886 -0.07047937 -0.14123733 0.02602481 -0.09127283 -0.21538264 0.023242282 -0.027364781
-0.19956571 0.019939471 -0.016498856 -0.13959338 0.06377947 0.05275591 -0.06743358 0.03304313
0.027252795 -0.22382315 -0.2391122 0.047070067 -0.08023759 0.048595414 0.044833142 0.038006164
0.07471395 0.06432025 0.07842218 0.030828193 -0.10549152 -0.006308689 -0.07234223 0.045772493
-0.20240854 0.023071019 0.053296614 -0.087806694 -0.010412819 -0.15386026 -0.14323242 -0.07463482
-0.024832532 0.076911986 0.06293753 0.034892704 0.012440735 0.036422007 -0.09113217 -0.07150379

fc2.bias f4 [10]
00000000: ff2a 783c 7e88 11bd 1f2b 5fbd ed92 f33c
00000010: 70fe 60bc a969 6ebc b77e 7d3d d30d 1f3b
00000020: 571c 013d 9d1e 7ab9
0.01514697 -0.03553056 -0.054484483 0.029733146 -0.013732538 -0.0145515585 0.061888423 0.0024269714
0.031521168 -0.00023853262
