baseline/checkpoints/LeNet/P1_USPStoMNIST_2/LeNet_classifier_100.pt (torch_old, 20591 bytes, 2 tensors)

fc2.weight f4 [10, 500]
0	0x3bb309fb	0.0054638362
1	0x3d6fb546	0.058522485
2	0xbd8ce4de	-0.068795905
3	0x3ab9915d	0.0014157702
4	0x3d30dc39	0.04317877
5	0xbd5a0d22	-0.05323518
6	0x3d03fb72	0.03222222
7	0x3cc2dd8e	0.023787286
8	0x3d87013f	0.065920345
9	0xbdeefdfd	-0.11669538
10	0x3d3b395d	0.045709003
11	0xbd214bbd	-0.03937887
12	0x3d69d869	0.05709115
13	0xbe1a2a83	-0.1505528
14	0x3db6a628	0.089184105
15	0xbe02df3d	-0.12780471
16	0xbd8c2a97	-0.06844061
17	0xbd6cf087	-0.057846572
18	0x3c35b2f4	0.011090029
19	0xbccd348b	-0.025049469
20	0xbe00deb5	-0.12584956
21	0xbd07afd5	-0.03312667
22	0x3d555aba	0.052088477
23	0x3c61e127	0.013786591
24	0x3d70aa3b	0.058756094
25	0x3da5a211	0.08087552
26	0xbcb5fcfa	-0.022215355
27	0xbdc5c3a6	-0.096564576
28	0xbd151925	-0.036400933
29	0x3cdbbe04	0.026824005
30	0xbcd3080b	-0.025760671
31	0xbd1543b8	-0.036441535
32	0xbd2dbca8	-0.042416245
33	0x3d4bfd74	0.04980226
34	0xbdff4012	-0.12463392
35	0x3c16420c	0.00917102
36	0xbd15ef18	-0.03660497
37	0xbabf0eca	-0.0014576551
38	0x3d2bcc76	0.041943036
39	0xbe809b16	-0.2511832
40	0x3d9e51cf	0.077304475
41	0xbcfa9fbc	-0.030593745
42	0xbd2d8d4d	-0.042371083
43	0xbdf09f92	-0.117491856
44	0x3d05525d	0.03254925
45	0x3d8179e4	0.06322077
46	0x3d109e8f	0.035307463
47	0xbdb0987a	-0.086228326
48	0x3da6159b	0.0810959
49	0x3cf41ca8	0.02979882
50	0x3c86ff7d	0.016479248
51	0xbc868c95	-0.016424457
52	0x3cac89ec	0.02106186
53	0xbd890a8c	-0.06691465
54	0xbd8e9f29	-0.06963951
55	0x3ac7ecd7	0.0015253079
56	0x3d2fff52	0.0429681
57	0xbc18ead1	-0.009333328
58	0xbdcef1ef	-0.10104739
59	0x3d7b430f	0.06134325
60	0xbc7cee14	-0.015437622
61	0xbdc3349a	-0.09531517
62	0xbd4542bd	-0.04815935
63	0xbd21d6b2	-0.03951139
64	0xbdd820b1	-0.105531104
65	0x3a8d4b61	0.0010779911
66	0x3d33a4a9	0.043858204
67	0x3d5d4163	0.054017436
68	0xbd05c6fa	-0.032660462
69	0xbdf4bf14	-0.11950508
70	0xbdd0f5b1	-0.10203112
71	0xbd702325	-0.058627266
72	0xbe1429c7	-0.14469062
73	0x3d8d3fb4	0.06896916
74	0x3c4a70ff	0.012356042
75	0x3cc0a64f	0.023516802
76	0xbddc13ea	-0.10745986
77	0xbdbaeea6	-0.0912755
78	0x3d907ecd	0.07055435
79	0x3d9cf7c7	0.07664447
80	0xbd886db9	-0.06661553
81	0xbcf17fc2	-0.029479865
82	0xbd0e92f0	-0.0348081
83	0xbcaa5c2c	-0.020795904
84	0xbdcb4ef7	-0.09927171
85	0x3d55addb	0.052167755
86	0xbde58a0a	-0.112079695
87	0x3d574d57	0.05256399
88	0xbc99a622	-0.018755976
89	0x3d949f51	0.0725695
90	0x3d048c53	0.032360386
91	0xbdee10c3	-0.11624291
92	0x3945712d	0.00018829545
93	0xbb51bdcb	-0.0032003995
94	0xbdbcdfb9	-0.09222359
95	0x3ce8dcda	0.028425623
96	0x3dc961e5	0.09833125
97	0xbc91a984	-0.017781027
98	0xbd86cb42	-0.06581737
99	0xbdd5b26f	-0.10434424
100	0xbcb77b60	-0.022397697
101	0x3d017f75	0.031615693
102	0xbe179ca0	-0.14805841
103	0xbd429ab9	-0.047510836
104	0x3d7473aa	0.05968062
105	0xbe2c67ff	-0.16836546
106	0xb92088ce	-0.00015309753
107	0xbe015bfe	-0.12632748
108	0xbda67b10	-0.08128941
109	0xbd69806f	-0.05700725
110	0xbd817fad	-0.0632318
111	0x3d141302	0.03615094
112	0xbcc0a673	-0.02351687
113	0xbba268e1	-0.00495635
114	0x3d163055	0.036667187
115	0x3dd03b6f	0.10167586
116	0xbcedc417	-0.029024167
117	0x3d59ffa7	0.053222325
118	0xbdfbb10d	-0.12289629
119	0xbdfa44a9	-0.12220127
120	0xbd68c7be	-0.056831114
121	0x3d7fc44a	0.062443055
122	0xbe0d1320	-0.13776827
123	0xbd8ff7b4	-0.070296675
124	0x3c89286f	0.016742913
125	0xb9b8e20b	-0.0003526363
126	0x3d37c08e	0.04486137
127	0x3d52e0c7	0.051483896
128	0xbcf6d072	-0.030128691
129	0xbe1bb9a9	-0.15207542
130	0xbb30d3ac	-0.0026981635
131	0xbc86aaae	-0.016438808
132	0xbd864d96	-0.06557767
133	0xbdc0a377	-0.094061784
134	0x3d6f3850	0.058403313
135	0x3d42a343	0.04751898
136	0x3cd81d7e	0.02638125
137	0x3d3bcc11	0.04584891
138	0xbe01b60b	-0.126671
139	0x3c0adaf2	0.008475052
140	0x3cc5e628	0.024157599
141	0xbdeec9c9	-0.11659581
142	0xbcc5ac70	-0.024130076
143	0x3bfcfbab	0.007720431
144	0x3ae92ebb	0.0017790416
145	0xbe070d28	-0.13188612
146	0x3cb6046f	0.022218911
147	0xbd9e3b80	-0.077261925
148	0xbd74382e	-0.05962389
149	0xbe08e844	-0.13369852
150	0xbe1be143	-0.1522265
151	0x3d1dadda	0.038495876
152	0xb994157d	-0.0002824477
153	0x3b850ef6	0.0040606214
154	0xbe2aa984	-0.16666228
155	0x3c747076	0.014919391
156	0x3d756cf7	0.05991837
157	0xbdb9c9c3	-0.09071686
158	0xbdc4e55e	-0.09614061
159	0xbd9c6983	-0.07637312
160	0xbe58ad85	-0.21159942
161	0xbe628f7e	-0.2212505
162	0xbdd01078	-0.10159391
163	0x3985dd3d	0.00025532572
164	0xbd0c7544	-0.03429152
165	0xbbf9faa6	-0.0076287566
166	0x3ccd3b6a	0.025052745
167	0xbdac72a5	-0.08420304
168	0x3a9e0b5d	0.001205783
169	0x3c88940a	0.016672153
170	0xbd67b0f1	-0.05656523
171	0x3d95441b	0.07288381
172	0xbc91af3f	-0.01778376
173	0x3d43079d	0.047614682
174	0x3d85575a	0.065108016
175	0xbdea5294	-0.11441532
176	0xbc8d00f1	-0.017212363
177	0x3d1fbdd9	0.038999412
178	0x3c0796c2	0.00827569
179	0x3d8ae520	0.067819834
180	0xbd23a7e9	-0.039955053
181	0x3c14fb03	0.009093049
182	0x3d1c4e49	0.038160596
183	0x3c816578	0.015795454
184	0x3ccd8b65	0.025090883
185	0xbdf8903a	-0.12136884
186	0xbe07bb17	-0.13254963
187	0x3c89ba82	0.016812567
188	0xbc0ec40a	-0.008713732
189	0x3dd83c55	0.105583824
190	0xbcc6797d	-0.024227852
191	0x3c92b5a0	0.017908871
192	0xbbac8f31	-0.005266093
193	0xbc80f4e7	-0.015741779
194	0xbd821788	-0.063521445
195	0x3d22fd05	0.03979208
196	0xbd3f60e9	-0.04672328
197	0x3cf17348	0.029473916
198	0xbdd84da9	-0.105616875
199	0xbd87399c	-0.06602785
200	0x3d75f6c4	0.060049787
201	0xbda061f4	-0.07831183
202	0xbe2ed935	-0.17075045
203	0x3ce5efa5	0.028068373
204	0xbcde25e3	-0.027117675
205	0xbc20e15c	-0.009819355
206	0xbbc375ab	-0.005964955
207	0xbdf8ec5f	-0.12154459
208	0xbcbb0e21	-0.022833886
209	0xbd65f1db	-0.056138854
210	0xbdf4c7b7	-0.11952155
211	0x3ca6c557	0.02035777
212	0xbd448185	-0.047975082
213	0xbe2bb867	-0.16769563
214	0x3c4c3587	0.012463934
215	0xbcd1eae4	-0.0256247
216	0xbe285512	-0.16438702
217	0xbd39a84e	-0.045326523
218	0xbc87289c	-0.016498856
219	0xbdea3960	-0.11436725
220	0x3d5ba427	0.053623345
221	0x3d052218	0.032503217
222	0xbd6af0f6	-0.057358705
223	0x3cad87ed	0.021182979
224	0x3c9bed07	0.019033922
225	0xbe14ad40	-0.14519215
226	0xbe46a2d1	-0.19398047
227	0x3d27b85a	0.040947296
228	0xbd5d9186	-0.05409386
229	0x3d32ff92	0.043700762
230	0x3d29d64b	0.04146413
231	0x3cca7d0f	0.024717836
232	0x3d847366	0.06467323
233	0x3d49aeb6	0.049238883
234	0x3d7135d1	0.058889214
235	0x3ca2cf2e	0.019874182
236	0xbdb1d52c	-0.086832374
237	0x3c2bbffc	0.010482784
238	0xbd8c431d	-0.06848738
239	0x3cd987f2	0.026554082
240	0xbe3d5269	-0.18488468
241	0x3c9b9534	0.018992044
242	0x3d3a6dff	0.045515057
243	0xbdb90dae	-0.09035812
244	0xbb7aba8e	-0.0038258168
245	0xbe030f42	-0.12798789
246	0xbdddc73b	-0.10829016
247	0xbd45a895	-0.048256475
248	0xbccb6d98	-0.024832532
249	0x3d846319	0.06464214
250	0x3d6f6b23	0.058451783
251	0x3cd566b5	0.026049951
252	0x3c4bd439	0.012440735
253	0x3d1554d4	0.03645785
254	0xbd9410e6	-0.072297856
255	0xbda7cdae	-0.08193527

fc2.bias f4 [10]
0	0x3ca2cc4d	0.019872809
1	0xbd063019	-0.032760713
2	0xbd3a5b19	-0.045497034
3	0x3d0d9cac	0.034573242
4	0xbc199e6a	-0.009376148
5	0xbc1e538a	-0.009663472
6	0x3d59575f	0.05306184
7	0x3bcb29a5	0.006200033
8	0x3cfccedc	0.030860357
9	0xbb93c395	-0.004509399
