baseline/checkpoints/LeNet/P1_USPStoMNIST_2/LeNet_classifier_140.pt (torch_old, 20591 bytes, 2 tensors)

fc2.weight f4 [10, 500]
000000 ca 50 22 3c 00 ce 80 3d 55 ea 97 bd f4 6e 2a 3b
       0.009906957 0.062892914 -0.07417742 0.0026006075
000010 79 13 3c 3d 24 9a 71 bd 13 50 0b 3d aa c4 09 3d
       0.045917008 -0.05898489 0.03401191 0.03363482
000020 88 fd 8a 3d 07 df 0c be db f9 36 3d bd 4b 21 bd
       0.067866385 -0.13756953 0.044671874 -0.03937887
000030 4d 8c 79 3d ba 84 20 be 1d 5c d0 3d b4 4c 23 be
       0.060924817 -0.15675631 0.10173819 -0.15947229
000040 99 b6 98 bd 51 ad 92 bd f4 b2 35 3c f9 53 c1 bc
       -0.07456703 -0.07161964 0.011090029 -0.023599612
000050 3b c4 0c be ad 72 01 bd 05 6c 58 3d 92 d1 4a 3c
       -0.13746731 -0.031603504 0.05283739 0.012379067
000060 aa 57 76 3d ad 27 8b 3d fa fc b5 bc c4 61 ef bd
       0.060142197 0.06794677 -0.022215355 -0.11688569
000070 8e e5 14 bd 59 fd e7 3c 62 6f 12 bd b8 43 15 bd
       -0.036351733 0.028319048 -0.035750754 -0.036441535
000080 a8 bc 2d bd 49 98 5b 3d eb 98 07 be 76 8b c9 3b
       -0.042416245 0.053612027 -0.13241927 0.0061506582
000090 18 ef 15 bd 58 63 48 bd d2 06 26 3d a7 02 97 be
       -0.03660497 -0.048922867 0.040533848 -0.2949421
0000a0 0d e6 ad 3d e2 e4 03 bd 5c 10 2d bd 51 91 f7 bd
       0.08491144 -0.0322007 -0.04225193 -0.12088264
0000b0 14 a4 11 3d c9 5a 89 3d 7d 74 07 3d 1a 84 f4 bd
       0.035556868 0.06706769 0.033070076 -0.11939259
0000c0 94 5d b2 3d 87 fb f2 3c 3f a8 5d 3c d9 66 0d bd
       0.08709255 0.029660953 0.0135288825 -0.03452191
0000d0 40 8c b8 3c 7d cb 86 bd fb bd da bd 46 96 04 b8
       0.022527814 -0.06581781 -0.10680767 -3.1611205e-05
0000e0 bc ff 29 3d d1 ea 18 bc 0e 8f ff bd 91 a0 85 3d
       0.041503653 -0.009333328 -0.124784574 0.06524766
0000f0 64 e1 5b bc 5e c0 c4 bd f2 0e 39 bd 77 5c 2b bd
       -0.0134204365 -0.09607004 -0.04518027 -0.04183623
000100 f8 5d 01 be b1 02 09 3c 7d e2 33 3d 21 0c 56 3d
       -0.12633502 0.008362458 0.043917168 0.05225766
000110 25 85 33 bd e2 ab ea bd d1 4e 02 be 1d 8e 6b bd
       -0.04382815 -0.11458565 -0.12725379 -0.057508577
000120 16 83 17 be 1e 1b 8f 3d db 35 8e 3c ce 4f 8c 3c
       -0.14796099 0.06987594 0.017359665 0.017127898
000130 08 86 e8 bd cf 01 ba bd e4 aa 97 3d 98 55 ae 3d
       -0.113536894 -0.09082376 0.07405642 0.085124195
000140 15 3d 88 bd c6 63 22 bd f0 92 0e bd 2c 5c aa bc
       -0.066522755 -0.039645933 -0.0348081 -0.020795904
000150 03 fa cf bd c6 00 58 3d 71 23 f1 bd 18 85 7f 3d
       -0.10155108 0.052735113 -0.11774338 0.062382787
000160 22 a6 99 bc 01 ec a0 3d 53 8c 04 3d 63 dd f9 bd
       -0.018755976 0.07857514 0.032360386 -0.12200429
000170 71 26 d0 ba 36 5f 6e bc 30 d6 b4 bd 2b 48 03 3d
       -0.0015880597 -0.014549067 -0.088299155 0.032051247
000180 8d 75 ee 3d d2 0f 9a bc b9 25 82 bd 38 44 0a be
       0.11643515 -0.018806372 -0.06354851 -0.13502586
000190 61 1a 35 bd d4 ee 00 3d cd cf 23 be 7d 0c 58 bd
       -0.04421461 0.031477764 -0.15997238 -0.052746285
0001a0 33 0c 78 3d 56 7c 4e be e2 6a 01 3b 54 7b 0d be
       0.06055851 -0.20164618 0.0019747545 -0.13816577
0001b0 40 8e c9 bd 73 5d 68 bd 2f e0 b4 bd 02 13 14 3d
       -0.09841585 -0.056729745 -0.08831822 0.03615094
0001c0 73 a6 c0 bc 0a 69 a2 bb 61 c1 07 3d 45 86 cf 3d
       -0.02351687 -0.0049563693 0.033143405 0.10133032
0001d0 e6 64 e1 bc c2 fc 43 3d 4a e1 0d be e4 a2 f1 bd
       -0.027513932 0.04784847 -0.13855472 -0.11798647
0001e0 96 d6 59 bd 0d 67 80 3d 67 b5 1d be 6f e8 88 bd
       -0.05318316 0.062696554 -0.15401231 -0.06684958
0001f0 f5 c2 60 3c 10 b8 39 3b a6 b9 39 3d f5 ae 6b 3d
       0.013718356 0.002833847 0.045343064 0.0575399
000200 4e e1 e7 bc e1 cc 1c be ac d3 30 bb ae aa 86 bc
       -0.028305676 -0.1531253 -0.0026981635 -0.016438808
000210 d7 61 8a bd 16 08 c7 bd dc 66 a5 3d 63 5e 4e 3d
       -0.06756943 -0.09718339 0.080762595 0.050382983
000220 97 7c 00 3d de 16 3f 3d 07 19 0b be ab 8c 81 3b
       0.031368818 0.046652667 -0.13583766 0.0039535365
000230 71 f6 d6 3c d7 81 10 be 52 d8 78 bc 29 bd 3f 3b
       0.02624056 -0.1411203 -0.0151882935 0.0029257035
000240 bb 2e e9 3a f9 12 04 be 63 3e cc 3c 63 23 a7 bd
       0.0017790416 -0.12897862 0.024932092 -0.08161046
000250 4a 94 a5 bd a3 92 08 be 76 f5 3c be 48 7e ad 3c
       -0.080849245 -0.13337187 -0.18453011 0.02117838
000260 96 c5 41 39 f6 0e 85 3b 26 37 46 be 76 70 74 3c
       0.00018479521 0.0040606214 -0.19356975 0.014919391
000270 5a 7d 6d 3d 69 68 b1 bd ff c0 ee bd 54 ae 9a bd
       0.057980873 -0.08662493 -0.11657905 -0.07552782
000280 56 e1 7a be 1c 9a 87 be 90 7e 08 be a8 df 48 bb
       -0.24500021 -0.26484764 -0.1332953 -0.0030650888
000290 80 b5 14 bd a6 fa f9 bb 2f aa bd 3c 33 9b bb bd
       -0.036305904 -0.0076287566 0.023152439 -0.09160461
0002a0 e4 cf e6 ba d3 ca 6e 3c dd e2 3e bd ab 4a 97 3d
       -0.0017609564 0.014574724 -0.046603072 0.07387289
0002b0 d0 12 96 bc c6 c4 3a 3d 77 e6 89 3d 78 2d 04 be
       -0.018319517 0.045597814 0.06733411 -0.1290797
0002c0 99 87 a4 bc 51 64 1f 3d ef 40 5a b9 e2 35 8e 3d
       -0.02008419 0.03891403 -0.0002081429 0.06943871
0002d0 e9 a7 23 bd df 3f e7 ba f8 22 1d 3d a3 10 91 3c
       -0.039955053 -0.0017642936 0.038363427 0.017708128
0002e0 5f 4d 0b 3d 22 e1 05 be a1 2d 08 be da cf 75 3c
       0.034009334 -0.13074163 -0.13298656 0.015003169
0002f0 27 cd af bb 3b e3 d9 3d 3f 07 d9 bc 50 7b 9b 3c
       -0.0053650322 0.10639044 -0.026492713 0.018979698
000300 57 e4 84 bb e7 f4 80 bc c8 17 8d bd 71 6d 33 3d
       -0.0040555405 -0.015741779 -0.068893015 0.043805543
000310 03 68 2a bd 48 73 f1 3c 0e c1 d2 bd 3f 68 99 bd
       -0.0416031 0.029473916 -0.102907285 -0.074905865
000320 45 b3 88 3d ec 86 c0 bd 0b 89 31 be 0a 07 9e 3c
       0.06674818 -0.09400734 -0.17337434 0.019290466
000330 e3 25 de bc 5c e1 20 bc a8 fa 8c bb b8 fa fc bd
       -0.027117675 -0.009819355 -0.0043023415 -0.12352508
000340 21 0e bb bc 9c b1 c6 bd d7 a6 06 be 8b 45 b9 3c
       -0.022833886 -0.09701845 -0.13149582 0.022616168
000350 42 71 7c bd a5 09 3d be ea 8c 86 3c c1 23 e8 bc
       -0.06163145 -0.1846071 0.016424615 -0.028337361
000360 08 4e 3e be 6d d6 23 bd 9c 28 87 bc dd 97 fb bd
       -0.18584454 -0.039999414 -0.016498856 -0.12284825
000370 c7 6b 65 3d 84 4c 37 3d 9e 52 7c bd dd 1b a8 3c
       0.056010988 0.044750705 -0.061602227 0.020521099
000380 b9 d0 9d 3c 86 a3 33 be 64 dd 5b be f2 5d 1e 3d
       0.019264566 -0.17542848 -0.21471173 0.038663812
000390 04 d4 7f bd 09 e9 2b 3d f5 a2 37 3d 99 af a6 3c
       -0.062458053 0.041970287 0.044833142 0.020347403
0003a0 6e 95 87 3d a1 cb 5b 3d f6 ef 81 3d e8 fe c4 3c
       0.06620298 0.053660993 0.06344597 0.02404733
0003b0 16 bd b7 bd 44 b0 da 3b 62 d6 92 bd b1 9e f2 3c
       -0.08971612 0.0066738445 -0.071697965 0.029616686
0003c0 fa 47 4b be fc 01 a1 3c 6c 4a 45 3d 23 cd b2 bd
       -0.19851676 0.019654267 0.048166677 -0.08730533
0003d0 e2 22 d1 bb 61 39 07 be cb 9d 02 be f3 5b 51 bd
       -0.006382332 -0.13205482 -0.12755506 -0.05111308
0003e0 98 6d cb bc 34 d5 83 3d 58 e6 89 3d 48 f8 c5 3c
       -0.024832532 0.0643715 0.06733388 0.024166241
0003f0 39 d4 4b 3c ff f1 da 3c f7 8f a1 bd 73 2d 9b bd
       0.012440735 0.02672672 -0.07888787 -0.07577028

fc2.bias f4 [10]
000000 5b 9c 7d 3c af 22 f6 bc 54 96 52 bd ee 53 03 3d
       0.015479173 -0.030045835 -0.051412895 0.032062463
000010 1d 63 d7 bb bf f0 45 bc 0d f6 7c 3d 80 2c d5 3b
       -0.0065730945 -0.012081324 0.06175809 0.006505549
000020 7d 4b 01 3d ac b2 23 bb
       0.03156613 -0.0024978323
