baseline/checkpoints/LeNet/P1_USPStoMNIST_2/LeNet_classifier_70.pt (torch_old, 20591 bytes, 2 tensors)

fc2.weight f4 [10, 500]
000000 47 33 86 3c a0 67 5a 3d 42 67 50 bd c7 21 40 b9
       0.016381873 0.05332148 -0.050879724 -0.0001832313
000010 fb 70 27 3d 55 9a 60 bd ea 7c fc 3c 5a ef 98 3c
       0.04087923 -0.054834682 0.030821282 0.01866882
000020 1b a1 7f 3d 05 34 da bd fb bf 2f 3d bd 4b 21 bd
       0.0624095 -0.10654453 0.042907696 -0.03937887
000030 b5 c2 5d 3d 4e e9 0c be 4e 7b a2 3d fd 6e d8 bd
       0.054140765 -0.13760874 0.07933675 -0.10568044
000040 e1 46 77 bd 57 dc 3f bd f4 b2 35 3c dc 00 ed bc
       -0.06037033 -0.04684099 0.011090029 -0.028931074
000050 90 4a ea bd 1e 44 06 bd c5 bb 54 3d 43 bb 11 3c
       -0.11440003 -0.032779805 0.051936883 0.008894744
000060 57 01 65 3d 05 c3 9d 3d fa fc b5 bc c8 77 be bd
       0.05590948 0.07703213 -0.022215355 -0.0930019
000070 25 19 15 bd 2d e7 e4 3c 83 2f c9 bc b8 43 15 bd
       -0.036400933 0.027942264 -0.024558788 -0.036441535
000080 a8 bc 2d bd 3e a5 3e 3d 24 36 f5 bd a4 71 08 3c
       -0.042416245 0.046544306 -0.11973217 0.008327875
000090 18 ef 15 bd de e6 5c bc 9d 7d 2d 3d 80 9a 64 be
       -0.03660497 -0.013482777 0.042356122 -0.22324562
0000a0 e0 77 92 3d 83 92 03 bd 04 f9 13 bd 11 c2 cf bd
       0.071517706 -0.032122146 -0.03612615 -0.10144437
0000b0 e7 cd ff 3c 80 c3 6d 3d 64 3b 06 3d 21 7f 8c bd
       0.031226112 0.05804777 0.032771483 -0.068601854
0000c0 46 d1 98 3d e5 84 fb 3c 6b c8 92 3c 35 2e 78 bc
       0.07461791 0.030703017 0.017917832 -0.015147735
0000d0 bb 05 9e 3c 67 99 65 bd 0c a5 87 bd 13 e3 f4 3b
       0.019289842 -0.0560545 -0.06623277 0.0074733584
0000e0 e2 e8 2b 3d d1 ea 18 bc c6 2c b5 bd 7c 00 70 3d
       0.04197014 -0.009333328 -0.088464305 0.058594212
0000f0 41 fb 78 bc e3 d1 98 bd 87 69 40 bd ea ba 0d bd
       -0.015196622 -0.07461908 -0.04697564 -0.034602083
000100 03 25 cb bd ba 94 a7 bb c3 76 2b 3d 67 e2 55 3d
       -0.09919169 -0.005114165 0.041861307 0.052217867
000110 bb 43 e9 bc d5 47 f2 bd 10 81 ba bd a6 c3 5d bd
       -0.02847468 -0.11830107 -0.09106648 -0.054141663
000120 bc c3 05 be 80 90 80 3d 68 f0 39 3c c2 97 d1 3c
       -0.13062948 0.06277561 0.011348821 0.02558506
000130 a4 0f cc bd b3 77 b2 bd b1 4c 87 3d b5 5e 90 3d
       -0.09963921 -0.08714237 0.066064246 0.07049314
000140 33 7e 82 bd e9 1a 6e bc f0 92 0e bd 2c 5c aa bc
       -0.06371727 -0.014532783 -0.0348081 -0.020795904
000150 0b b5 c3 bd 7a 46 4c 3d 0b b8 c8 bd 4e 1a 39 3d
       -0.095560156 0.0498719 -0.098007284 0.0451911
000160 22 a6 99 bc c0 d7 82 3d 53 8c 04 3d 9d 1f b1 bd
       -0.018755976 0.06388807 0.032360386 -0.08648608
000170 b2 8b 80 3b 54 07 92 bc 4d 7b a8 bd 39 de d1 3c
       0.003922903 -0.01782576 -0.08226643 0.02561866
000180 a1 c8 ab 3d 7f 54 93 bc a7 7a 80 bd 18 89 c0 bd
       0.08387876 -0.017984627 -0.06273394 -0.094011486
000190 f3 6f e9 bc 07 be f4 3c 48 23 0d be b9 4f 0c bd
       -0.028495764 0.029875768 -0.1378299 -0.034255717
0001a0 79 d1 49 3d b9 ee 19 be ab d7 66 bb 9e f5 ed bd
       0.049272034 -0.15032472 -0.0035223763 -0.116191134
0001b0 db c3 9d bd 84 fa 6b bd b4 b8 5d bd 02 13 14 3d
       -0.07703372 -0.057611957 -0.054131225 0.03615094
0001c0 73 a6 c0 bc e1 68 a2 bb 40 a1 10 3d 43 ab a5 3d
       -0.02351687 -0.00495635 0.03531003 0.08089306
0001d0 32 fd fe bc 5b 44 58 3d 50 d6 ca bd e3 72 ee bd
       -0.031126592 0.052799564 -0.09904158 -0.11643007
0001e0 81 07 67 bd ed 7d 70 3d 30 b6 02 be ac a8 89 bd
       -0.05640364 0.058713842 -0.12764812 -0.06721625
0001f0 6f 53 84 3c 39 9c 24 bb c0 11 32 3d ba a3 48 3d
       0.016153065 -0.002511753 0.04347396 0.048984267
000200 14 89 c8 bc d8 84 ff bd ac d3 30 bb ae aa 86 bc
       -0.024479426 -0.1247651 -0.0026981635 -0.016438808
000210 1e 56 62 bd 2d 7c ab bd 26 f0 2b 3d d5 fd 3b 3d
       -0.05525791 -0.08373294 0.04197707 0.04589637
000220 d0 c3 e6 3c 80 de 2f 3d f5 c3 d1 bd 1a 1f 39 3c
       0.028169543 0.042936802 -0.10242454 0.011298919
000230 89 fa ba 3c e3 e3 c5 bd e4 43 f4 bc 09 63 50 3c
       0.022824543 -0.096626066 -0.029817529 0.012718924
000240 bb 2e e9 3a 29 32 02 be 86 de 5b 3c 0b be 96 bd
       0.0017790416 -0.12714447 0.013419753 -0.073604666
000250 45 ba 01 bd 8c f4 01 be ab 96 09 be de d5 0d 3d
       -0.03167178 -0.12690943 -0.13436382 0.034627788
000260 6b 5d d1 b9 f6 0e 85 3b 18 49 ec bd 76 70 74 3c
       -0.00039933188 0.0040606214 -0.11537379 0.014919391
000270 39 65 72 3d 3f 49 a5 bd e2 02 bf bd 19 5c 98 bd
       0.059178565 -0.08070611 -0.09326722 -0.07439441
000280 74 b6 21 be 03 77 37 be a4 95 9f bd dd 4a fa 3a
       -0.15792257 -0.17916493 -0.077922136 0.0019095797
000290 19 3f 09 bd a6 fa f9 bb 85 2c d1 3c 25 d5 9f bd
       -0.03350744 -0.0076287566 0.025533924 -0.07804326
0002a0 7f 42 4a 3b 1e 7a 95 3c 0b df 6e bd 20 95 87 3d
       0.0030862389 0.018246707 -0.05831818 0.0662024
0002b0 63 0e 8b bc 4e 72 40 3d 7a 73 65 3d ab d4 cd bd
       -0.016974634 0.04698401 0.05601833 -0.10050329
0002c0 bb 84 6e bc 16 5a 0d 3d da d8 99 3b 3f 94 86 3d
       -0.014558013 0.03450974 0.00469504 0.065712444
0002d0 e9 a7 23 bd eb ee 45 3c 8d 88 17 3d e5 74 48 3c
       -0.039955053 0.012080888 0.03699546 0.012234901
0002e0 5a a9 c5 3c ba 1a d8 bd 7f 10 01 be 02 e2 05 3c
       0.024128605 -0.10551973 -0.12603949 0.00817156
0002f0 e8 ca 38 bc a2 df cb 3d df 14 ce bc a8 bb 90 3c
       -0.011278845 0.09954764 -0.025156436 0.017667606
000300 fc 14 b0 bb e7 f4 80 bc 65 24 59 bd 19 3d 16 3d
       -0.0053735953 -0.015741779 -0.053013224 0.03667936
000310 b9 ba 39 bd 48 73 f1 3c 91 c4 d6 bd 95 e4 87 bd
       -0.04534409 0.029473916 -0.10486711 -0.066353954
000320 16 3f 5f 3d c8 57 9f bd 51 5c 24 be a4 2d d0 3c
       0.054503523 -0.07780415 -0.16050841 0.025412388
000330 e3 25 de bc 5c e1 20 bc d1 4a 0c bc 8d e6 e2 bd
       -0.027117675 -0.009819355 -0.0085627595 -0.1107913
000340 21 0e bb bc 0b 49 13 bd c5 0c e1 bd 54 c0 89 3c
       -0.022833886 -0.03595833 -0.10988764 0.016815342
000350 ab b8 25 bd c9 d3 20 be 17 ae 2b 3c e7 b8 f5 bc
       -0.040459316 -0.1570579 0.010478518 -0.029995395
000360 7e 56 0a be 60 03 33 bd 9c 28 87 bc 4a ef e7 bd
       -0.13509557 -0.04370439 -0.016498856 -0.11324938
000370 aa e7 45 3d b3 65 9b 3c 40 62 2b bd f4 59 8a 3c
       0.048316635 0.018969392 -0.041841745 0.016888596
000380 e0 b6 88 3c 16 c3 01 be 2d a4 37 be 90 fd 1b 3d
       0.016688764 -0.12672076 -0.17933722 0.038083613
000390 2b 3b 25 bd b7 86 2b 3d 4b d6 29 3d 3b 1b d6 3c
       -0.04033963 0.04187652 0.04146413 0.026136031
0003a0 f6 2f 7f 3d c5 c5 43 3d 01 56 5d 3d d1 6e 75 3c
       0.0623016 0.04779603 0.054037098 0.014980034
0003b0 4b 41 9e bd c8 49 28 3c 42 6c 86 bd 1c c3 ca 3c
       -0.077272974 0.010271497 -0.06563617 0.024751239
0003c0 f4 88 25 be 6e 94 86 3c d0 08 29 3d a8 d5 a7 bd
       -0.16165525 0.016428199 0.04126817 -0.081950486
0003d0 aa e3 eb ba 87 49 ef bd 8b a8 bc bd 49 c0 3c bd
       -0.0017996926 -0.11683946 -0.092118345 -0.046081815
0003e0 98 6d cb bc 8d 2d 7f 3d bc eb 4f 3d 5a 7e 68 3c
       -0.024832532 0.0622993 0.050761923 0.014190281
0003f0 39 d4 4b 3c 3b 0c 18 3d ee a4 9f bd 56 46 92 bd
       0.012440735 0.03712104 -0.0779513 -0.07142322

fc2.bias f4 [10]
000000 e8 70 b2 3c d7 c3 f9 bc 5e da 17 bd f7 ad 08 3d
       0.021782354 -0.030488892 -0.037073486 0.03336903
000010 2c ce 00 bc 5b 47 eb bb 11 94 5b 3d 08 5a bc 3a
       -0.007861655 -0.007180137 0.053608004 0.0014370093
000020 29 9a f7 3c dc 63 53 ba
       0.030224876 -0.00080638914
