baseline/checkpoints/LeNet/P2_USPStoMNIST/LeNet_classifier_85.pt (torch_old, 20591 bytes, 2 tensors)

fc2.weight f4 [10, 500]
000000 ad e2 3a 3c 7b 42 48 3d 87 12 09 bd 86 03 73 3d
       0.011406583 0.048891526 -0.033464935 0.059329532
000010 ba 49 fc 3d 53 e2 32 be b8 2f 4d 3d c6 92 72 be
       0.1231875 -0.17469148 0.050094336 -0.23688802
000020 5e 42 96 3d ea 54 32 be 70 ed 70 bd b6 d5 85 be
       0.07336877 -0.17415205 -0.058820188 -0.2613961
000030 93 46 89 be 91 d6 3d 3e a1 7c 1f be 1f f2 5e 3d
       -0.26811656 0.18538882 -0.15574886 0.054430123
000040 f8 a3 95 bd db fc 86 3d 80 ea 78 3c d3 61 ac bd
       -0.07306665 0.06591197 0.015192628 -0.08417096
000050 56 ab 3b bd af 8c 33 bd 14 26 ad bd 84 ad 40 bd
       -0.045817696 -0.04383534 -0.084545285 -0.047040477
000060 36 79 3a bd aa c2 89 3d 53 1d 99 bc 64 49 c5 bd
       -0.045525752 0.06726582 -0.01869074 -0.09633139
000070 59 82 52 3d 69 d7 d7 3c 65 a6 d7 bd 58 eb 19 3d
       0.05139384 0.026347833 -0.10529784 0.037577957
000080 ce 64 6e bd 3d 33 90 3d 09 b9 58 be e3 a6 e8 bc
       -0.058201604 0.07041023 -0.21164335 -0.02839989
000090 47 4d 4d bd c8 6f 7d be b1 a5 36 3d 3b 67 8a 3c
       -0.050122526 -0.24749672 0.04459161 0.016894927
0000a0 97 96 45 bc 5b e6 95 be 9c b6 34 bd e5 6f 7a 3c
       -0.012059829 -0.2927731 -0.044119462 0.015285467
0000b0 29 2e 98 bc af 2a 43 3d f7 96 4a 3d a9 74 06 be
       -0.018576698 0.047648128 0.049460378 -0.1313044
0000c0 68 0a 4c bd d4 e4 19 bb 59 dd 7e bd 86 24 f0 bd
       -0.04981461 -0.002348234 -0.062222812 -0.11725716
0000d0 a3 af e8 bc 37 79 f3 3d 1f be 86 3d d9 5e a0 3d
       -0.028404063 0.11888354 0.065792315 0.07830591
0000e0 9a f2 74 be 0c 0e 27 bc 1e 3f 01 bd 51 31 64 bd
       -0.2392067 -0.01019622 -0.031554334 -0.055711094
0000f0 56 81 5d be 7c af d3 3c 6f 94 8d 3d 04 fe 3c be
       -0.21631369 0.025840513 0.06913077 -0.18456274
000100 93 bd 38 bd 8f d7 8a 3d 27 bb 03 bd 6d 3c 46 3d
       -0.045102667 0.06779396 -0.032160904 0.04839747
000110 7e 83 a7 bb 2a cf ba bd f5 5f 97 be ab 99 15 bc
       -0.0051121106 -0.09121545 -0.29565397 -0.009130876
000120 a0 ac 32 be 73 76 26 3d d0 a7 c9 3c fb 02 a3 bc
       -0.17448664 0.040640306 0.024616152 -0.019898882
000130 e9 b7 1a 3d fe bd 51 3d e8 d8 42 bd da b3 bc bc
       0.037773047 0.05120658 -0.04757014 -0.023034979
000140 b1 75 48 3c fa 69 4f bd 6a 7e 9e 3d e1 f1 87 3d
       0.012235091 -0.050638177 0.07738955 0.066379316
000150 97 9b 95 bd e9 ee 12 be e8 32 63 b8 fc b7 2a be
       -0.07305067 -0.1434895 -5.4168428e-05 -0.16671747
000160 0f 56 2b 3d 97 62 0c bc a1 b3 c1 be 95 09 a2 bb
       0.04183012 -0.0085684275 -0.37832358 -0.00494499
000170 fc 79 38 bd 0e b3 01 bd 4c 55 8f be 18 5e 4c be
       -0.04503821 -0.0316649 -0.27994764 -0.19957769
000180 c1 75 9c bd 00 79 94 be a4 76 6b 3d 73 30 18 3d
       -0.07639647 -0.28998566 0.05748619 0.03715558
000190 b9 6a 9c bd 57 e7 b6 3d 50 fe 14 3d 72 ef 69 3d
       -0.07637543 0.08930843 0.036375344 0.05711312
0001a0 27 38 a7 be 68 4a e3 3c db 49 78 3d 9e a4 22 be
       -0.32660028 0.02774544 0.06061731 -0.15883109
0001b0 0e e4 94 bd ac 9b ee 3d 44 af 63 be d9 6c da bd
       -0.072700605 0.11650786 -0.22234827 -0.10665292
0001c0 da dc 89 3d 8a 5b ad bc 83 6b a4 3d fc 0e be bc
       0.06731577 -0.021161813 0.08028319 -0.023200504
0001d0 58 4e d9 3c 1a 0f ca 3c ea 63 34 be 22 cb 02 bd
       0.026526615 0.024665404 -0.17616239 -0.031932004
0001e0 a9 39 70 be 65 7b 49 3d 7d ca bb bc 4f a1 dc bc
       -0.23459496 0.049189944 -0.022923702 -0.026932387
0001f0 c9 fb 28 3d cd 4e 56 be ba 12 9d b8 38 23 08 3d
       0.041255746 -0.20928498 -7.4898315e-05 0.033236712
000200 12 e3 bc bd 7a 77 1d 3d 10 6b 81 3d 06 d8 a3 3d
       -0.09222998 0.03844402 0.06319249 0.080001876
000210 82 5d 60 be d1 48 79 be e0 e4 65 3c c6 92 85 3c
       -0.2191067 -0.24344184 0.014031619 0.016305339
000220 cb ae b5 bd 21 30 7b 3d ad 22 00 bd 05 45 30 be
       -0.0887123 0.061325196 -0.03128307 -0.17213829
000230 e0 22 98 bd 2e c5 91 bd 67 dc 09 be ce e4 72 be
       -0.07428527 -0.07117687 -0.13462983 -0.23720095
000240 e2 16 aa 3d a7 51 82 bd 03 d6 08 3d 21 58 8e bd
       0.08305146 -0.0636323 0.033407222 -0.06950403
000250 d2 22 0a be f1 08 b1 3d fc 0f af 3d 14 28 94 3d
       -0.13489845 0.086442836 0.08547971 0.07234207
000260 17 9b e3 3c df b3 84 bd 95 06 59 bd cf c7 ba 3a
       0.027783914 -0.0647962 -0.052984793 0.0014250221
000270 25 d7 35 3d 72 18 f0 bc e4 5d 55 be ce 68 b9 3a
       0.04439463 -0.029308531 -0.20836598 0.0014145614
000280 e5 99 9a 3d e9 87 44 be 43 8c 58 3d bb 87 25 3d
       0.07548884 -0.1919247 0.05286814 0.040412646
000290 b3 28 62 be 30 99 9b bd 1b bb d4 3d 6a 9a d3 bc
       -0.22085838 -0.075975776 0.1038725 -0.025830466
0002a0 80 5b 43 3d 14 d2 a1 bd 6e 04 c8 bc c2 9e 2b be
       0.047694683 -0.07901397 -0.024416175 -0.1675978
0002b0 25 1b c2 bd 91 21 0d 3e ff c7 c3 be 95 5c 60 be
       -0.09477834 0.13782336 -0.38238522 -0.21910317
0002c0 2f 69 47 3d 09 02 bc bc c8 4a 15 3d 25 ab 4e bc
       0.048684295 -0.02295019 0.03644827 -0.012614046
0002d0 f5 9d 46 3c bd a0 ad 3d 9a 06 d1 bd b8 60 85 be
       0.012122621 0.08477924 -0.10206337 -0.26050353
0002e0 96 fe 45 bc de 58 02 be 5f 54 ca bd 81 c1 ae bd
       -0.012084624 -0.12729213 -0.09879374 -0.08533002
0002f0 6f 04 02 3e bf bd 84 bc 20 40 68 bb 98 87 c2 bc
       0.12697004 -0.01620376 -0.0035438612 -0.023746297
000300 a2 1d 2f be e3 d4 36 bc 12 d3 90 bc 4b 50 c7 bd
       -0.17101148 -0.011159155 -0.017678771 -0.097321115
000310 14 c0 68 bd 82 63 26 be e4 b7 f9 bd ed ee 7c bd
       -0.056823805 -0.16248897 -0.121932775 -0.061751295
000320 1d e8 65 bd e6 1b 93 3c 32 b0 3e 3d bc 8e 16 bd
       -0.056129564 0.017957639 0.04655475 -0.036757216
000330 21 4a 67 bd 33 fe 53 bd 68 13 a3 be 88 81 6b bc
       -0.05646718 -0.051756095 -0.31850743 -0.014374144
000340 8b d9 4c 3b c1 af 6c bd 7d 34 c9 3c 35 66 17 be
       0.0031257595 -0.0577848 0.024561161 -0.14785083
000350 3c a7 90 be 2a f8 7e 3d 3a f4 34 bc f6 ee f5 3c
       -0.2825259 0.062248386 -0.011044556 0.030021172
000360 c9 b3 68 39 55 38 07 bd 6b 39 3f 3d 0d 08 db 3d
       0.0002219222 -0.033012707 0.046685617 0.10694895
000370 be 6c 09 bd 4e 27 6a 3d fe 81 f5 3d 19 62 e1 bb
       -0.03355097 0.05716639 0.11987685 -0.006878149
000380 b8 7d b9 bc 7e 2a 10 3c 8d df 3d 3d e8 e1 09 3d
       -0.022642955 0.008799193 0.046355773 0.033662707
000390 a3 f3 29 be ac 58 f6 3c 91 3f 92 be 56 42 85 3c
       -0.16596846 0.030071579 -0.28564122 0.016266983
0003a0 ae fd 8c 3d 9f 02 03 3d fc 49 3f be be 25 f7 bc
       0.06884323 0.03198492 -0.18680567 -0.030169364
0003b0 1c ea 88 3c c1 df 18 bd e5 b3 24 3d 57 16 07 3d
       0.016713195 -0.037322763 0.040210623 0.03298029
0003c0 c3 9a 95 3c 44 c4 ac 3c a8 1b 0c be fe 2f 78 bc
       0.018262273 0.02108968 -0.13682425 -0.015148161
0003d0 d6 7d 5f 3d f7 0c 3c 3c 1a bd 2a bd 8a 70 28 3d
       0.054563366 0.0114777 -0.041684248 0.04112295
0003e0 5c 21 6b be b8 6b a8 bd ac e0 42 bc 02 b4 bb 3c
       -0.22961944 -0.08223671 -0.011894386 0.022912983
0003f0 b3 4e c4 3d 40 c3 7a 3d 34 da f7 3d 94 5c 22 be
       0.09585323 0.06122136 0.12102166 -0.15855628

fc2.bias f4 [10]
000000 74 06 78 bd ec d2 aa bc 4b 56 14 bd 72 41 1c bb
       -0.06055303 -0.020852529 -0.036215108 -0.002384272
000010 88 3a 36 bd ef 82 f6 bc 12 66 c8 3b c4 3c f0 bc
       -0.044489413 -0.03009173 0.0061156834 -0.02932585
000020 59 38 00 b9 6f 89 02 bd
       -0.00012228022 -0.03186935
