baseline/checkpoints/P2_MNISTtoUSPS_1/LeNet_classifier_5.pt (torch_old, 20591 bytes, 2 tensors)

fc2.weight f4 [10, 500]
0	0xbd7f2ad1	-0.062296692
1	0xbd0a7489	-0.033802543
2	0x3da5ac55	0.0808951
3	0xbdd5006e	-0.104004726
4	0xbe80b26e	-0.2513613
5	0x3bcbcf59	0.006219786
6	0x3d5f81f2	0.054567285
7	0xbe1dba97	-0.1540321
8	0xbdf3546e	-0.11881338
9	0xbcc85216	-0.024453204
10	0xbd3fb7e0	-0.046806216
11	0x3d9bcd12	0.076074734
12	0xbdb3ce58	-0.08779591
13	0xbda4bfc5	-0.0804439
14	0xbbdee25c	-0.0068018865
15	0x3cb92931	0.02260265
16	0x3d8a83d3	0.06763425
17	0xbdc1fb97	-0.09471815
18	0xbd80a00e	-0.06280528
19	0xbde8d88d	-0.11369429
20	0x3d4ee3e6	0.05051031
21	0x3cfba9b1	0.030720564
22	0xbd1b399e	-0.037896745
23	0x3d2dfc6e	0.042477064
24	0x3cf57a86	0.02996565
25	0xbde022f8	-0.1094417
26	0xbd99f7cc	-0.07517967
27	0xbd42ec9d	-0.047588933
28	0xbc14fe16	-0.009093782
29	0xbe24b046	-0.16082868
30	0xbd4468d2	-0.047951527
31	0xbc48a93b	-0.012247379
32	0x3ce9bde4	0.02853293
33	0xbdf8a243	-0.12140324
34	0xbb2a0703	-0.002594412
35	0x3d8bff9b	0.06835862
36	0xbd10db9f	-0.035365697
37	0xbe175547	-0.14778624
38	0x3c9df2f5	0.01928089
39	0xbdf5636b	-0.11981853
40	0xbd8280c9	-0.0637222
41	0xbc09aa63	-0.00840244
42	0x3cb6a3a6	0.02229483
43	0xbe37714d	-0.17914315
44	0xbca71b79	-0.020398842
45	0xbd2a2d3c	-0.041547045
46	0x3d0c6b4d	0.034282017
47	0xbdd44d31	-0.103662856
48	0xbbc72dd6	-0.006078462
49	0xbdbdf1f9	-0.09274668
50	0x3d6fb96d	0.058526445
51	0xbcddf198	-0.02709274
52	0xbc6d7045	-0.014492099
53	0xbe0ec623	-0.1394277
54	0xbe1af83e	-0.1513376
55	0xbe19e6c7	-0.15029441
56	0xbd6fa3ff	-0.05850601
57	0x3d08bc9b	0.033382993
58	0xbd9555c2	-0.07291748
59	0xbd96f1a2	-0.073703066
60	0xbdd3020a	-0.10303123
61	0xbbd1600a	-0.0063896226
62	0x3d321dd2	0.04348547
63	0x3d312ed7	0.04325756
64	0x3d9e2e8d	0.077237226
65	0xbbbeb097	-0.005819391
66	0xbd78b079	-0.060715172
67	0x3dbf37b3	0.09336796
68	0x3da428fe	0.08015631
69	0x3c283207	0.010265834
70	0xbdde4218	-0.1085245
71	0x3c1c5dc5	0.009543841
72	0x3d318a5d	0.043344844
73	0xbdd05224	-0.10171917
74	0xbe1acb44	-0.15116602
75	0x3c7da805	0.0154819535
76	0x3cb09664	0.021556087
77	0xbe42d26f	-0.19025587
78	0xbe200c88	-0.1562978
79	0xbd856da3	-0.06515052
80	0xbdbe2655	-0.09284655
81	0x3d1e646c	0.03866999
82	0x3bee76a2	0.0072773257
83	0xbe2cb768	-0.16866839
84	0x3bc59751	0.006030001
85	0x3d35c6ab	0.044378918
86	0xbd8c0c6d	-0.068383075
87	0x3d3be22e	0.04587
88	0xbdfb3261	-0.122654684
89	0xbdcaf4a3	-0.09909942
90	0xbdafaf3b	-0.085783444
91	0xbd0fc1b2	-0.03509683
92	0x3d36cd38	0.044629306
93	0xbdaeedbb	-0.08541437
94	0xbd5076d1	-0.050894562
95	0xbdf40d5d	-0.11916611
96	0xbd9555a7	-0.072917275
97	0xbe570a6b	-0.21000068
98	0xb9d21d28	-0.00040076044
99	0x3db32a5a	0.08748312
100	0xbdbde4d3	-0.092721604
101	0x3c6282e8	0.013825156
102	0xbe05048d	-0.12990017
103	0xbc189f33	-0.0093153
104	0xbd142985	-0.03617241
105	0x3d51a086	0.051178478
106	0xbcc009ce	-0.023442175
107	0xbd50aa77	-0.050943818
108	0x3d8401b9	0.06445641
109	0x3d3577b5	0.044303615
110	0xbe6215f7	-0.22078691
111	0x3cab5144	0.020912774
112	0x3c9af2ac	0.018914543
113	0xbe006d09	-0.12541594
114	0xbe00d7cd	-0.12582321
115	0x3d2088dd	0.039193023
116	0x3d966c7e	0.07344912
117	0xbded62dc	-0.115911216
118	0x3d86bf22	0.065794244
119	0xbd300f33	-0.042983245
120	0x3dc82a64	0.0977371
121	0xbe2370d5	-0.15961011
122	0x3d8caee0	0.06869292
123	0x3c63defe	0.013908146
124	0x3cc29682	0.023753408
125	0xbd56aa23	-0.05240835
126	0x3d7f015d	0.06225716
127	0x3d0fa90f	0.035073336
128	0x3d55edea	0.052228846
129	0x3d1af481	0.037830833
130	0xbd8b6eda	-0.06808253
131	0x3cbdaddc	0.023154192
132	0x3c739383	0.0148667125
133	0xbd40a4ae	-0.04703205
134	0x3bcdfdde	0.006286367
135	0x3d1522dc	0.036410198
136	0x3d3ffb32	0.046870418
137	0xbc16ad19	-0.009196543
138	0x3cf87357	0.030328436
139	0x3ddaea01	0.10689164
140	0x3d811ec2	0.06304695
141	0xbdcc3960	-0.09971881
142	0xbe0cdf0e	-0.13756964
143	0xbcd40e2a	-0.02588566
144	0x3d29bc77	0.0414395
145	0xbe237187	-0.15961276
146	0xbe023a1a	-0.12717476
147	0xbd8db920	-0.069200754
148	0x3dc87576	0.09788029
149	0x3ce1af82	0.027549509
150	0x3dc20ada	0.09474726
151	0xbe027569	-0.12740101
152	0x3a94a63d	0.0011341047
153	0xbda06f52	-0.07833733
154	0x3d2198cd	0.039452363
155	0xbe2fb5e2	-0.17159227
156	0xbdc53a9a	-0.09630318
157	0xbdfff00c	-0.12496957
158	0xbb26bc20	-0.002544172
159	0xbd3ca03e	-0.046051256
160	0x3dc74218	0.09729403
161	0x3ba39114	0.00499166
162	0x3d1b5961	0.037927035
163	0x3d269d60	0.04067743
164	0xbd5d4206	-0.054018043
165	0xbde4d405	-0.11173252
166	0x3d2e5c7a	0.04256866
167	0xba547e38	-0.0008105966
168	0xbcaab955	-0.020840326
169	0xbe26b0e0	-0.1627841
170	0xbd5b6d82	-0.05357123
171	0x3d4f834b	0.05066232
172	0xbdc3dc2e	-0.0956348
173	0xbd13653f	-0.035985228
174	0xbe160483	-0.14650159
175	0x3d1ce11e	0.038300626
176	0x3d2323bf	0.039829012
177	0x3dbace7b	0.09121414
178	0xbd9d7a94	-0.076893955
179	0x3d675733	0.056479644
180	0xbde7bc4e	-0.11315213
181	0xbe187e6c	-0.14891976
182	0xbdb84b72	-0.08998765
183	0xbddbf44d	-0.10739956
184	0xbe2e6d0d	-0.17033787
185	0x3cc85fc1	0.024459722
186	0xbd4657ba	-0.048423506
187	0x3cebeda1	0.028799834
188	0xbc81ab1e	-0.015828665
189	0xbd9337c8	-0.07188374
190	0x3c45feae	0.012084646
191	0xbdce6185	-0.10077194
192	0x3c212478	0.009835355
193	0x3d464023	0.04840101
194	0xbdb5dc2c	-0.08879885
195	0xbe061fbd	-0.13098045
196	0xbdee8959	-0.11647291
197	0x3d41b04c	0.04728727
198	0xbdbce46e	-0.09223257
199	0x3c9fcaca	0.019505877
200	0xbd00547e	-0.031330578
201	0xbde8909d	-0.11355708
202	0xbe0ada70	-0.1355989
203	0xbd92bb44	-0.07164624
204	0x3c097a83	0.0083910255
205	0xb86c6cb9	-5.636804e-05
206	0xbca17a6f	-0.019711701
207	0xbdd1a6c5	-0.10236887
208	0x3d563cc0	0.05230403
209	0xbe5c955a	-0.21541348
210	0x3d205836	0.039146625
211	0x3c8c4311	0.017121824
212	0x3d560289	0.05224851
213	0x3ca95fd5	0.02067558
214	0xbb5a90b0	-0.00333504
215	0xbc85ad06	-0.016317856
216	0xbd8e07c3	-0.06935074
217	0xbdef317d	-0.11679361
218	0xbda4b138	-0.08041614
219	0x3d4f93cf	0.05067807
220	0xbcb11366	-0.021615695
221	0x3bbb59b1	0.005717479
222	0xbddcd133	-0.10782089
223	0xbe12ad1d	-0.1432385
224	0xbce689d0	-0.028141886
225	0xbe80614b	-0.2507423
226	0x3cab5193	0.020912921
227	0xbcf580a5	-0.029968569
228	0xbde80181	-0.11328412
229	0x3cfedbd4	0.031110682
230	0x3af01419	0.0018316536
231	0xbdb33de7	-0.08752041
232	0x3cfabfab	0.030608973
233	0x3d1b8842	0.037971742
234	0xbdf87bb8	-0.121329725
235	0xbd551c73	-0.052029084
236	0xbe0a2e4a	-0.1349422
237	0x3d005725	0.031333108
238	0x3d0fb0be	0.035080664
239	0xbc87ed8e	-0.016592767
240	0x3d51dbd1	0.051235024
241	0xbe02c9fb	-0.12772362
242	0x3d5427c8	0.05179575
243	0xbddc1ebc	-0.107480496
244	0xbe4a3482	-0.19746593
245	0xbc5da968	-0.013529159
246	0x3d2ce17c	0.042207226
247	0xbd0a3f56	-0.033751808
248	0xbd13dab5	-0.036097247
249	0xbaabf7b4	-0.0013120086
250	0x3bca0871	0.006165557
251	0xbc847f02	-0.016173843
252	0xbdf1847b	-0.11792847
253	0xbd65d9fa	-0.05611608
254	0xbe0e0c84	-0.13871962
255	0x3b37d542	0.0028050696

fc2.bias f4 [10]
0	0x3c4a62f9	0.0123526985
1	0x3d18e1e8	0.037324816
2	0xbd1d4302	-0.03839398
3	0xbcf6fc40	-0.030149579
4	0xbd4322c8	-0.04764059
5	0x3cf7202f	0.030166714
6	0xbcbb6bf4	-0.022878624
7	0xbc491591	-0.012273208
8	0x3d2a095a	0.041512825
9	0xbcac4d03	-0.021032816
