baseline/checkpoints/P2_MNISTtoUSPS_1/LeNet_classifier_55.pt (torch_old, 20591 bytes, 2 tensors)

fc2.weight f4 [10, 500]
-0.09260701 -0.20717494 0.06881767 -0.34885076 -0.93674606 -0.05495933 0.104160555 -0.6064233
-0.29971072 -0.20180453 -0.08957588 0.0042679315 -0.2606599 -0.33545947 -0.14828621 0.02798889
0.08859988 -0.2578143 -0.16069843 -0.51468396 -0.019969948 0.18746968 -0.23634173 0.019964911
0.004257998 -0.45093915 -0.38137475 -0.18746385 -0.041904807 -0.36737317 -0.12904826 -0.09508104
0.15418637 -0.23582083 -0.028495051 0.110860206 -0.01716619 -0.73872364 0.13059136 -0.320466
-0.24450505 -0.00840244 0.0023007283 -0.77665174 -0.19391264 -0.10167433 -0.0018526518 -0.35316586
-0.06028438 -0.36658445 0.08172606 -0.046198152 -0.1495326 -0.47483477 -0.39667913 -0.30099034
-0.102707416 0.06760919 -0.35742366 -0.10423391 -0.18732935 -0.003863126 0.15724334 -0.010765641
0.0791279 -0.1401492 -0.11574838 0.097285114 0.1271087 0.010265834 -0.51740813 -0.018561175
0.028584562 -0.3663169 -0.4283608 -0.023417016 -0.036668688 -0.40786836 -0.4835218 -0.06517214
-0.21285503 0.04734051 -0.19857621 -0.5733725 -0.045681264 0.070858896 -0.24438605 0.013722764
-0.3755528 -0.33645353 -0.34908018 -0.030525226 0.09238845 -0.19713023 -0.1088817 -0.25956815
-0.2424899 -0.45896897 -0.06547832 0.07691272 -0.17358728 -0.04511705 -0.3509044 0.00050218764
-0.08319167 0.12477721 -0.0663991 -0.23250198 0.14819223 0.098679215 -0.45797157 0.011583594
-0.039459348 -0.48786533 -0.6350439 0.1017004 0.15140736 -0.38611472 0.100271955 -0.043836933
0.14716902 -0.3824383 0.04279098 0.025418831 0.07763049 -0.06468343 0.0018441762 0.0460056
0.12174633 0.0027819423 -0.15340848 0.039053015 0.07791983 -0.32520154 0.0070317546 0.05973371
0.11008424 -0.107289374 0.12542345 0.22497259 0.110189475 -0.3094253 -0.40462595 -0.107791096
-0.06013249 -0.55525607 -0.36614215 -0.20162642 0.14191246 0.20046026 0.17831525 -0.44350904
-0.04013705 -0.21305853 0.02273744 -0.43016183 -0.22126791 -0.25521308 -0.09720444 -0.24800128
0.19138363 0.00499166 0.0015199154 0.07553107 -0.47643912 -0.30629805 0.07158875 0.035252545
-0.08302732 -0.60520583 -0.15003501 0.086269855 -0.31469113 -0.1469779 -0.8040843 0.031171925
0.13240857 0.2292665 -0.25386614 0.058178566 -0.31365326 -0.63525337 -0.30248436 -0.23643933
-0.63274336 -0.08002252 -0.061687857 0.08103364 -0.03461087 -0.49256867 -0.05486477 -0.26604456
-0.08927675 0.024053065 -0.39532733 -0.48269624 -0.22933383 0.12403728 -0.44938177 0.059656348
-0.17074758 -0.36454043 -0.38293296 -0.31250384 -0.05169929 -0.030505953 -0.104875185 -0.36259997
-0.016062994 -0.72664654 0.029260006 0.040565435 0.13154183 -0.0067418246 -0.046783425 -0.24303553
-0.10754396 -0.44159976 -0.20571825 0.10461508 -0.11487532 -0.0053756787 -0.36205822 -0.499224
-0.16528158 -0.5614361 -0.04869519 -0.121963486 -0.32124817 0.033141907 -0.116474666 -0.19376113
0.014457471 0.03096926 -0.23215897 -0.4183408 -0.45465317 0.041745845 -0.05552619 -0.19735016
0.0335215 -0.24411206 -0.04390654 -0.27602866 -0.79004484 -0.10987709 0.026109584 0.020635348
-0.1750499 0.044924792 -0.14512688 -0.031930793 -0.24596474 0.09878902 -0.2317153 -0.024535496
00000000: bea8 bdbd ab25 54be 47f0 8c3d 919c b2be
00000010: 97ce 6fbf 091d 61bd 2152 d53d 8f3e 1bbf
00000020: af73 99be d9a5 4ebe 8f73 b7bd 01da 8b3b
00000030: 3775 85be 58c1 abbe 57d8 17be f548 e53c
00000040: db73 b53d 3c00 84be 218e 24be 54c2 03bf
00000050: 0498 a3bc 0df8 3f3e 9103 72be 748d a33c
00000060: ad86 8b3b 7fe1 e6be 8d43 c3be 86f6 3fbe
00000070: 60a4 2bbd 5618 bcbe 3a25 04be d9b9 c2bd
00000080: 08e3 1d3e 047b 71be 746e e9bc ad0a e33d
00000090: 1ca0 8cbc fe1c 3dbf beb9 053e 1f14 a4be
000000a0: 885f 7abe 63aa 09bc d1c7 163b a6d2 46bf
000000b0: 0991 46be a23a d0bd aed4 f2ba 28d2 b4be
000000c0: c1ec 76bd f5b0 bbbe fe5f a73d 463a 3dbd
000000d0: 131f 19be 8b1d f3be 8719 cbbe 681b 9abe
000000e0: 4458 d2bd b076 8a3d 3c00 b7be 9778 d5bd
000000f0: 44d3 3fbe 802c 7dbb 6604 213e 5f62 30bc
00000100: cf0d a23d 4683 0fbe 7d0d edbd 6b3d c73d
00000110: c828 023e 0732 283c dc74 04bf 9b0d 98bc
00000120: 2c2a ea3c e48d bbbe 1b52 dbbe 0bd5 bfbc
00000130: e831 16bd 1fd4 d0be 2b90 f7be f978 85bd
00000140: abf6 59be 1fe8 413d 9057 4bbe 8ac8 12bf
00000150: 471c 3bbd 781e 913d 5640 7abe 72d5 603c
00000160: 7548 c0be a343 acbe a3ba b2be 0a10 fabc
00000170: 2836 bd3d 82dc 49be 5efd debd 1ee6 84be
00000180: 464f 78be fbfd eabe 7f19 86bd 6b84 9d3d
00000190: ddc0 31be a8cc 38bd bea9 b3be 3ea5 033a
000001a0: 6560 aabd 328b ff3d 40fc 87bd 0015 6ebe
000001b0: b4bf 173e 5418 ca3d 407b eabe 1dc9 3d3c
000001c0: 20a0 21bd 7cc9 f9be 3d92 22bf 4d48 d03d
000001d0: 880a 1b3e d4b0 c5be 625b cd3d 5b8e 33bd
000001e0: 7ab3 163e f4ce c3be 9845 2f3d 273b d03c
000001f0: bcfc 9e3d bf78 84bd 49b8 f13a 5e70 3c3d
00000200: 2456 f93d 3f51 363b 1d17 1dbe 0ef6 1f3d
00000210: 6f94 9f3d d180 a6be a26a e63b 56ab 743d
00000220: d973 e13d 88ba dbbd 016f 003e 375f 663e
00000230: 05ab e13d fe6c 9ebe 222b cfbe 94c1 dcbd
00000240: 7c4d 76bd 4325 0ebf fc76 bbbe 2877 4ebe
00000250: 8051 113e 7445 4d3e 4698 363e 9e13 e3be
00000260: bf66 24bd 042c 5abe de43 ba3c 2c3e dcbe
00000270: 0e94 62be 4aab 82be 1f13 c7bd 0cf4 7dbe
00000280: 12fa 433e 1491 a33b e637 c73a 09b0 9a3d
00000290: d4ef f3be 19d3 9cbe 1f9d 923d f964 103d
000002a0: 3a0a aabd c5ee 1abf c7a2 19be 40ae b03d
000002b0: 321f a1be 6081 16be 78d8 4dbf 445c ff3c
000002c0: 1d96 073e d6c4 6a3e befa 81be a64c 6e3d
000002d0: 2997 a0be f79f 22bf 3bdf 9abe 271d 72be
000002e0: 78fb 21bf d9e2 a3bd 68ac 7cbd f7f4 a53d
000002f0: 21c4 0dbd f631 fcbe e2b9 60bd fe36 88be
00000300: bbd6 b6bd ef0a c53c 5868 cabe f623 f7be
00000310: 7dd6 6abe 4207 fe3d 5e15 e6be 375a 743d
00000320: 74d8 2ebe 0ba5 babe ca0f c4be 8100 a0be
00000330: a2c2 53bd 9fe7 f9bc cdc8 d6bd b4a6 b9be
00000340: 8a96 83bc 8205 3abf aeb2 ef3c f127 263d
00000350: e7b2 063e 86ea dcbb fa9f 3fbd 4ede 78be
00000360: 0240 dcbd 5d19 e2be cea7 52be 6e40 d63d
00000370: c043 ebbd 7626 b0bb b25f b9be 4a9a ffbe
00000380: 933f 29be 47ba 0fbf 9c74 47bd fec7 f9bd
00000390: a47a a4be cfbf 073d 458a eebd 5169 46be
000003a0: 07df 6c3c 3fb3 fd3c 15bb 6dbe c430 d6be
000003b0: 4dc8 e8be b1fd 2a3d 6e6f 63bd 2916 4abe
000003c0: d74d 093d 83f8 79be 58d7 33bd a153 8dbe
000003d0: 6140 4abf 3d07 e1bd c4e3 d53c 760b a93c
000003e0: 4840 33be 0f03 383d 249c 14be ddc9 02bd
000003f0: 2ede 7bbe e651 ca3d c746 6dbe aafe c8bc

fc2.bias f4 [10]
-0.055204473 0.07762213 -0.06847309 -0.06405503 -0.06642327 -0.01386321 -0.08446757 -0.053328015
0.035836313 -0.06157012
00000000: 161e 62bd 5af8 9e3d 9f3b 8cbd 492f 83bd
00000010: ec08 88bd 8422 63bc 55fd acbd 7a6e 5abd
00000020: 19c9 123d f330 7cbd
