baseline/checkpoints/LeNet/P2_USPStoMNIST_2/LeNet_classifier_10.pt (torch_old, 20591 bytes, 2 tensors)

fc2.weight f4 [10, 500]
00000000: 410c 873d 51b4 5f3d f2ef 16bd 27d0 d13b
00000010: 90ee 3cbd 9e66 3e3d f840 933c f54d 58bc
00000020: c031 95bc 2ae8 053d 63bc 8ebd a4ff 1d3d
00000030: c11a a53d e941 77bc 7b31 a7bd 6b32 2c3d
00000040: e431 a9bc 6245 9dbc a174 543d 0964 353d
00000050: 3b98 8b3c 195c e8bc 4c86 a5bd be5f abbc
00000060: 1e1a ccbc 059e 89bc 6785 ca3c a461 f1bd
00000070: 5dd6 7d3c 5bcb 183d 1cb0 283d 1eae 92bd
00000080: b748 babd 8114 1b3d 9138 763d 31f4 39bd
00000090: 4191 6abd 3bb5 503d 8d0a 343d 70a9 06bd
000000a0: fb8a 82bc e119 8bbd 26d6 033c 89a4 673d
000000b0: 8dee 4b3d 232b ac3c 21ed edbc 6f89 1e3d
000000c0: 6b76 853d c663 9639 1d9c 76bc 2cec 6fbb
000000d0: 1740 2cbd a2de 403d 5470 5c3d ff45 c5bc
000000e0: 8aad 2d3d 6132 563c dfe1 54bd 486f 97bd
000000f0: 5892 033d 85d8 6c3c e35e 1f3d 609a c9bc
00000100: f7bc 083d 8262 a0bd d632 95bd cd80 143b
00000110: e54b dd3c c9e4 173d 2cd1 87bd 89c9 6a3c
00000120: d6c9 9dbd 3cbd b5bd 7630 66bd d596 d1bc
00000130: 609b 55bd 312b f13b 9b96 fbb9 80fc 10bd
00000140: 26bc b9ba 1210 103d d73f a43c 02db 66bd
00000150: 1c17 8d3c 499b 54bd a900 35bd 5675 b8bc
00000160: bbf1 8abb 7bf4 953b 31ed 97bd 2a54 23bd
00000170: 9c85 173d ede1 40bd c0e1 383d 8b03 f53b
00000180: 2844 e73c 7a60 ea3c 9fdb 49bb d428 b0bd
00000190: 73d6 e13c edee e1bb 87e6 c43c 34b0 8cbd
000001a0: 1304 11bd 037d 47bd 153f 733d 0f60 10bd
000001b0: fc7e 1bbd e9c7 d63b d217 563c e652 ae3c
000001c0: fd26 0a3c 7066 fa3c ca47 49bd 3cd1 19bd
000001d0: 6183 36bb 8f4c b33c 1b51 b4bd 29b3 573d
000001e0: d889 8fbd 7f07 39bd 668b 12bc 73b3 d7bc
000001f0: ae05 223d e2de b3bc f2fc 80bc 7ec7 113d
00000200: f5d3 b0ba 6114 b33d 1ca3 a6bd 0634 023d
00000210: 05bc 263d 798f 91bd 1969 07bd d1ae 333c
00000220: 4f60 d23c 2308 6b3d d14f 6cbc 5d98 1fbd
00000230: 52d0 06bc 2a76 413d b550 97bc d21e 11bd
00000240: ea56 fcbc c1ec 26bd b7c7 593d 3e84 8b3c
00000250: adc4 1d3d a111 c13c 50b8 3dbd 722d 213d
00000260: ea88 07be a1a8 df3b f9dd fdbc df1a e33b
00000270: a479 373d 02cd d8bc 03dc 8bbd d601 a03c
00000280: 7a99 99bc 3b98 92bd 2193 823c 8bf4 3a3c
00000290: 73c6 1e3d 35bf ff3c f448 d63c 01b8 94bc
000002a0: 4fac 94bd 7be9 0c3d 605a d0bc 1521 483d
000002b0: f87c 66bd ed5f cb3c 2841 173d 4dec 2dbd
000002c0: 05f8 97bd e8c1 0c3d 3566 593c 6e7d c8bc
000002d0: 226d 0e3d d699 123d 3096 8e3c fb4d 13bc
000002e0: 68c4 abbb b303 d7bb 07c1 95bc cd22 40bd
000002f0: ff40 9b3b 7974 b8bc 4a8d 22bd 460f 283d
00000300: 6d61 323d c966 99bd bfb0 aabd 5fa6 8bbc
00000310: 750a cc3b 20d6 6d3d 6f20 ecbc 9bec 223d
00000320: 7224 863b 4772 06bd e694 09bc a9de 493d
00000330: 6876 49bd 80c8 753d 0f61 eebc 8179 893c
00000340: d8c7 08bc c307 64bd 21cb ebbc 22d7 aebd
00000350: 6e33 52bc 0a4d b73c 38bb 60bd 9cbc 77bd
00000360: d8cf eb3b f821 1c3a 1c46 a13d a123 483d
00000370: 49ab cbbb 5df2 c83c 9532 abbd 452b 453c
00000380: 013e ee3c 5d55 09bd 1c5d 5f3c e95d 5c3d
00000390: d2a0 4cbd 8718 6f3d 3fb9 acbd e9fb bd3c
000003a0: 53bb 97bc 5998 203d d526 63bb ddd0 e43b
000003b0: 5b6d 103d 0648 213d e372 7fbd ac4b 0e3d
000003c0: d604 40bc 0c2c c2bc 5102 ee3c 41b7 383c
000003d0: 491f 46bd ae27 193c db3a 823d 3349 bebc
000003e0: a037 8cbd 5c59 92bd 8dc6 f73c 435e 6c3c
000003f0: 72b5 b939 58f0 853c 713f 843d 920e 69bd
0.06594134 0.054615323 -0.036849923 0.0064029875 -0.04612595 0.046484582 0.017975315 -0.01320218
-0.0182122 0.032692112 -0.06969526 0.038573876 0.080617435 -0.015091398 -0.081637345 0.04204027
-0.020653673 -0.019198123 0.05186904 0.044284854 0.017040363 -0.028364228 -0.08082256 -0.020919677
-0.024914797 -0.016798982 0.024721814 -0.117862016 0.015493003 0.03730331 0.041183576 -0.071621165
-0.090959005 0.03786135 0.06011254 -0.045398895 -0.05726743 0.050954085 0.043955375 -0.032876432
-0.015935412 -0.067920454 0.008046662 0.056553397 0.049788047 0.021016663 -0.029043736 0.038705286
0.06516727 0.00028684566 -0.015051869 -0.0036609275 -0.04205331 0.04708732 0.053818062 -0.024081228
0.042401828 0.013073535 -0.05197322 -0.07394272 0.032121986 0.014455919 0.03890885 -0.024609745
0.033383336 -0.07831289 -0.07285087 0.002265978 0.027013728 0.03708342 -0.06631693 0.014330276
-0.07704513 -0.08873984 -0.05619856 -0.025584618 -0.05215013 0.007359885 -0.0004798666 -0.035397053
-0.0014170452 0.035171576 0.020049972 -0.056361206 0.017222933 -0.051905904 -0.044190083 -0.022516888
-0.0042402423 0.0045762635 -0.074182875 -0.039875187 0.036992654 -0.04709046 0.045137167 0.007477229
0.028230742 0.028610457 -0.003080107 -0.08601537 0.027568078 -0.0068949373 0.024035705 -0.068695456
-0.035404276 -0.048703205 0.05938633 -0.03524786 -0.0379629 0.006554593 0.013067203 0.021279763
0.008432147 0.030566424 -0.04914073 -0.037553057 -0.0027849304 0.021887092 -0.08804532 0.052661095
-0.070087135 -0.045173164 -0.008944368 -0.026330685 0.039556198 -0.021956865 -0.015745614 0.03559064
-0.0013490902 0.08744121 -0.081365794 0.031787895 0.040706653 -0.07107443 -0.033059213 0.010966972
0.02568069 0.057380807 -0.014423327 -0.038963664 -0.008228378 0.04723183 -0.018471101 -0.035429783
-0.030803163 -0.04075313 0.05316898 0.017030831 0.038517643 0.023567976 -0.046318352 0.03934998
-0.13235822 0.006825522 -0.030989634 0.0069306935 0.04479374 -0.026464943 -0.06829073 0.019532125
-0.018749941 -0.07157942 0.015939297 0.011410843 0.038763475 0.031219104 0.026157834 -0.018154146
-0.07259428 0.03440235 -0.02543372 0.048859674 -0.056271523 0.024826014 0.036927372 -0.042461682
-0.07420353 0.03436461 0.013268997 -0.024473872 0.034772046 0.03579124 0.0174056 -0.00899076
-0.0052419193 -0.0065617203 -0.01828052 -0.04690819 0.0047379727 -0.022516476 -0.039685525 0.04103019
0.043549944 -0.07490308 -0.08334493 -0.017047105 0.0062268325 0.058065534 -0.02882406 0.039776426
0.0040937 -0.032823827 -0.008397317 0.04928461 -0.049185187 0.060005665 -0.029099016 0.01678157
-0.008348428 -0.055671465 -0.028783383 -0.08537127 -0.012829645 0.022375602 -0.054866046 -0.060482606
0.0071964078 0.00059559895 0.078747004 0.048862103 -0.006215487 0.02452963 -0.08359257 0.012034242
0.0290823 -0.033528674 0.013633039 0.053800497 -0.049958058 0.058373 -0.084337704 0.02319141
-0.01852194 0.03920779 -0.0034660597 0.0069829063 0.03526054 0.039375328 -0.062365424 0.034740135
-0.011719903 -0.023702644 0.029053839 0.01127416 -0.04836968 0.009347839 0.06358882 -0.023228263
-0.06846547 -0.0714595 0.030246044 0.014426771 0.00035421137 0.016349956 0.06457413 -0.05689866

fc2.bias f4 [10]
00000000: dff4 80bc eac1 dcbc 7202 23bd d24b 703c
00000010: 8854 d9ba 262e de3c de61 13bd d77f fabc
00000020: f248 4cbc 3755 b0ba
-0.015741764 -0.026947934 -0.039797254 0.0146665145 -0.0016580978 0.027121615 -0.035982005 -0.030578537
-0.012468563 -0.001345313
