baseline/checkpoints/LeNet/P1_MNISTtoUSPS/LeNet_classifier_40.pt (torch_old, 20591 bytes, 2 tensors)

fc2.weight f4 [10, 500]
000000 72 d8 c7 3c 56 e5 41 3b 3d 2d 2e 3d 7b 76 87 bb
       0.024395201 0.0029586158 0.04252361 -0.004133997
000010 f1 37 e5 bc a6 3d 8b 3c 46 e6 26 bd c2 19 07 bb
       -0.027980777 0.01699717 -0.04074695 -0.0020614718
000020 8d 7e 2d bd 2b 3c a1 bc 78 63 86 3b bd 35 48 bd
       -0.042357016 -0.01968201 0.004101213 -0.048879374
000030 ca 28 2a bd bd 47 19 bd 56 62 f4 3c 0b a9 94 bb
       -0.041542806 -0.03742193 0.029832046 -0.004536753
000040 73 d1 bc bc 79 1b b8 bc 70 a9 33 3d 53 2b 1a bc
       -0.023049092 -0.022474037 0.04386276 -0.009409743
000050 9b c4 2c bd 74 70 bb 3c 4e de 79 3b 14 5f c3 3c
       -0.042179685 0.02288077 0.0038126889 0.023849048
000060 17 d1 51 3c 9d f8 a1 bb ea 36 dc 3b 19 8a 5e ba
       0.012806199 -0.004942967 0.0067204135 -0.0008489206
000070 93 0a 31 3c 71 8d b9 bc 6d 8a 82 3c 28 80 1e bd
       0.010805744 -0.022650452 0.015935147 -0.038696438
000080 c5 74 5d bc 19 bc 6b bc 07 9d 1b 3d fa 12 7f bc
       -0.01351661 -0.014388108 0.03799155 -0.015568489
000090 0c 8f 12 bd 4c 6e c3 bc 46 1c 44 bd d2 54 49 3c
       -0.03578095 -0.023856305 -0.047878526 0.012288289
0000a0 37 bf 9d bc 2b 0d ec 3b 92 e0 04 bd 6f 7e 47 bc
       -0.019256217 0.007203718 -0.03244073 -0.01217614
0000b0 39 3c fd bc 54 15 d7 bc 2a bf fa bc 44 67 9b 3b
       -0.030912505 -0.026255287 -0.030608732 0.004742535
0000c0 38 cf 58 bc d5 89 f9 bc 10 d0 c7 3b 7b 86 03 3d
       -0.013232999 -0.030461231 0.006097801 0.032110672
0000d0 6b c9 b8 3c 13 f1 5f 3b 69 12 b7 3c b5 4a 40 3d
       0.022556981 0.003417079 0.022347646 0.046946246
0000e0 88 83 a1 3b 8f 77 b6 3b ec 25 54 3d 62 1a 69 3c
       0.00492901 0.0055684517 0.051793978 0.014227482
0000f0 75 b0 e0 bb 31 31 d9 bc 3a 4a 76 bc 71 2e 24 3d
       -0.006856973 -0.026512714 -0.015032345 0.040083352
000100 b8 0e 37 bd ce 5e 0f 3d bd ff c0 bb 2e 36 94 bc
       -0.04469177 0.035002522 -0.0058898614 -0.018092241
000110 d4 c1 d8 bc d6 82 4a 3d 1a 99 05 bd c8 67 f9 bc
       -0.026459612 0.04944118 -0.032616712 -0.030444995
000120 54 dc 83 bb ed 5c bc bb ac 3a 38 bd bc 35 28 bc
       -0.004024068 -0.0057483823 -0.04497783 -0.0102667175
000130 cb ee c6 bb 97 1c fc ba bb 6b 26 bc b6 1b 2a 3d
       -0.006070947 -0.0019234595 -0.010157521 0.041530333
000140 9b 4e 07 bd 21 a8 80 3c 1d 6f 8c bc ce db 52 3d
       -0.03303395 0.01570517 -0.017142827 0.051479153
000150 bb 82 d8 3c 16 b2 8c 3c 83 20 bb bc 46 a1 f7 bc
       0.026429525 0.017174762 -0.022842651 -0.030228268
000160 4b bf 58 bd 7e 18 04 bd 28 db 56 bd 4b bd 48 bd
       -0.052916806 -0.03224992 -0.052455097 -0.04900865
000170 a0 b0 b7 bc 9a aa c3 bb 00 cb 1c 3d d1 b6 cf bc
       -0.022423089 -0.005971265 0.038279533 -0.025355728
000180 76 80 c3 3c 50 b8 35 3d 1c 67 53 3c 81 cd aa 3c
       0.023864966 0.044365227 0.012903001 0.020849945
000190 ef c1 32 bc 42 2d ac bc 43 6b ed bc 87 cd 4d bd
       -0.010910495 -0.021017674 -0.02898181 -0.050244834
0001a0 7e c6 1c 3d cd 14 48 bd 93 11 b4 bc 3c 65 56 3d
       0.038275234 -0.048847962 -0.021981036 0.05234264
0001b0 1b 3a 3a bc 90 c8 f1 3c 43 33 50 3d bc cb f2 ba
       -0.0113663925 0.029514581 0.050830137 -0.0018523852
0001c0 56 3a 00 3d 96 81 19 bd 71 af a0 3b 2d 95 40 bd
       0.031305633 -0.0374771 0.0049037267 -0.047017265
0001d0 7d 15 18 bb 02 6d 2b 3d 50 d9 30 bd 6e 9f c1 bc
       -0.0023206167 0.041852005 -0.043175995 -0.023635592
0001e0 a2 ba 52 3d 5f 38 2f bd 89 3a 82 3c 9c a4 3e bc
       0.05144752 -0.04277837 0.015897052 -0.011635926
0001f0 ef b6 03 3c 2d 44 60 3d 73 bf cc 3c 9f 93 b6 bc
       0.00803922 0.054752517 0.024993634 -0.022287188
000200 f5 37 ea 3c 31 52 20 bd d1 42 bb 3c 83 cc 31 bd
       0.028591136 -0.039140884 0.022859009 -0.04340793
000210 41 df 9b 3c ad df 93 bc 74 8b 52 bc 36 29 48 3d
       0.019027354 -0.018050993 -0.012850631 0.048867427
000220 8f 16 fe 3c 3e b6 35 3d 50 93 a0 bc 1a 77 c3 bb
       0.031016616 0.044363253 -0.019601494 -0.0059651257
000230 54 26 08 bd 2f 95 1c 3d 36 be be bc c5 8c 9f 3c
       -0.033239678 0.03822821 -0.023284059 0.019476304
000240 3d 21 38 bb 45 6c 23 3d df d0 59 bc 66 90 bb bc
       -0.0028095983 0.039898176 -0.013294428 -0.022896003
000250 20 c5 9e bc c4 c4 23 3d e6 91 4a bd 2a c6 44 bc
       -0.019381106 0.039982572 -0.049455546 -0.012010137
000260 84 45 4b bd cb d8 17 bd a5 1c dd b9 56 b2 fd bc
       -0.049626842 -0.037071984 -0.00042173747 -0.030968826
000270 58 df 39 3d 0d 03 21 3b fe f9 49 bd 23 96 31 bd
       0.045379013 0.0024568469 -0.049310677 -0.043356072
000280 c9 9f 4a bd 05 15 30 3d f1 9c 56 bc 2f bf 5f bc
       -0.04946879 0.042988796 -0.013098941 -0.013656422
000290 4a 10 9b 3c a7 db 00 bd 68 27 6e bc aa fe 46 bc
       0.018928666 -0.031459477 -0.014535762 -0.012145678
0002a0 e7 ed 2b bc 2f 07 3a 3d b1 30 3f bd 28 25 23 3d
       -0.010493732 0.045417007 -0.046677295 0.039830357
0002b0 44 d2 65 3c 9e 76 ae 3c 16 62 14 bd f4 ee 66 3c
       0.014027182 0.021296795 -0.036226355 0.014095057
0002c0 a8 16 c1 3c 5d 02 dc bc ed 78 25 3d 65 85 01 3d
       0.023570374 -0.026856596 0.040398527 0.031621356
0002d0 db 97 36 3d 3a 2f 39 3d 1c 07 18 3d 95 35 ce bc
       0.044578414 0.045211054 0.037116155 -0.025172034
0002e0 d7 bc a5 3c d4 70 de 3c 61 3a c5 bc 0c 25 d9 3c
       0.020231647 0.02715341 -0.024075689 0.026506923
0002f0 2b a7 a1 3b 4d e5 55 3d 89 48 21 3b 1f b5 2d 3d
       0.004933258 0.05222063 0.0024609885 0.04240906
000300 14 d9 f6 3c 82 2e 34 bc 67 52 b9 3c 6a 48 47 bb
       0.030132808 -0.010997416 0.0226223 -0.0030408152
000310 3c 51 94 3c 43 39 3f 3c 59 7a 0c bb 02 56 89 bb
       0.018105142 0.011671367 -0.002143523 -0.004191161
000320 5b 9a e4 3c be 99 ca bc 45 13 26 3d 01 3a ee 3c
       0.027905634 -0.024731513 0.04054572 0.029080393
000330 8c da 12 bd d5 52 8d bc 42 dc 70 3c fc df 10 3d
       -0.035852954 -0.017251411 0.014700951 0.03536986
000340 54 2a 1a 3d 87 a9 a1 bc f0 6b 31 3d 94 bf 60 3d
       0.037638023 -0.019734157 0.043315828 0.054870203
000350 42 e5 2a bc 2f 65 e5 bc 8e 3f 8c b9 98 22 04 bd
       -0.010430636 -0.02800235 -0.00026750233 -0.032259554
000360 b5 eb 18 bd 7f cb 44 bd 94 ea 39 bd b9 a4 1f 3d
       -0.037334163 -0.04804563 -0.045389727 0.03897545
000370 fe 67 21 bb 73 20 2e 3c b0 7c 1d 3a 68 bf 73 bc
       -0.0024628635 0.010627854 0.00060076546 -0.014877178
000380 eb 67 ff bb c5 3d b2 3c 20 58 96 bc 4a d3 76 ba
       -0.0077943704 0.02175797 -0.018352568 -0.000941564
000390 d4 a5 00 3d d4 96 01 bd f4 5d 2e bc 54 a8 4d 3d
       0.031408146 -0.03163798 -0.010642517 0.05020936
0003a0 5d 5d bb 3c 3b fa 30 bd 25 cd f3 3c b2 26 a6 3c
       0.022871668 -0.04320739 0.029760906 0.020282123
0003b0 54 24 7a b9 46 9b 38 bd e0 ab 35 3d 06 d8 c5 3c
       -0.00023855391 -0.045069955 0.044353366 0.02415086
0003c0 23 e7 19 3d 00 4f 24 bd c7 91 53 bb c7 89 13 bd
       0.037573945 -0.040114403 -0.0032282935 -0.036020067
0003d0 84 6a d1 bc 3f 9f a5 bc c7 ed 46 3d 9d 10 0c 3d
       -0.025563486 -0.020217536 0.048566606 0.03419553
0003e0 9c 12 0a ba 6e 66 1e bd 78 f0 3e bd ac 96 06 bd
       -0.0005267055 -0.038671903 -0.046616048 -0.032858536
0003f0 6d a4 37 3c bf 17 71 3c 96 2d f3 bc d8 39 87 3c
       0.011208636 0.014715134 -0.029684823 0.016507074

fc2.bias f4 [10]
000000 71 e9 35 bd 3b 58 da 3b 3b e3 91 3c 1b 2d 8e 3c
       -0.04441208 0.00666335 0.017808547 0.017355492
000010 37 88 97 bc cc fb 71 3c d8 82 00 bd 68 be 99 bc
       -0.01849757 0.014769506 -0.031374782 -0.01876755
000020 69 b0 09 3c 74 13 fc 3b
       0.008403876 0.0076927487
