baseline/checkpoints/LeNet/P1_USPStoMNIST/LeNet_classifier_25.pt (torch_old, 20591 bytes, 2 tensors)

fc2.weight f4 [10, 500]
0.023603855 -0.05496791 -0.0011773156 -0.010692511 0.0032162124 0.051315095 0.0015884566 0.019883273
-0.017937211 0.0054232194 0.043243412 0.018059397 0.016654132 -0.023465421 -0.03403733 -0.027499732
-0.011913226 -0.014416392 0.0010525662 0.021105345 -0.045666497 -0.02948183 0.0072668237 0.038111806
-0.006293943 0.003048424 -0.034133494 0.00839527 -0.016011605 0.024382934 0.047046717 0.049447797
-0.013900041 0.026806897 0.017952783 -0.00038896987 -0.045531515 -0.05888333 0.03377179 0.01579211
0.01715627 0.033259086 0.052883197 0.00210925 -0.010222545 -0.03484511 -0.014269973 -0.012711565
0.053426046 -0.019885302 0.044467818 -0.013790681 -0.03208967 0.042535894 -0.025987025 0.01014159
-0.0036737886 -0.043271136 0.014148538 0.013187709 -0.0006225524 -0.0097534405 0.0017478404 -0.048391256
-0.04210946 -0.015353625 -0.0030796262 0.0028108216 0.03551874 -0.018615529 -0.025744284 -0.040992994
-0.021841561 0.003970887 -0.04966603 0.04952731 0.017904574 0.0027613344 0.04619575 -0.02810338
-0.018669492 0.007594991 0.03130814 0.00079867267 0.043754235 0.0068502636 -0.027403612 -0.033119157
-0.005551469 0.033283792 -0.036048282 0.011200816 -0.03219983 -0.020561801 -7.802629e-05 -0.025275007
0.00838749 0.047251523 0.04469487 0.03142625 0.007747472 -0.024984347 -0.0007069886 0.036548078
-0.024749251 -0.037658628 -0.0112240305 0.033497877 -0.009545717 -0.005869364 -0.012935996 0.0068203793
0.038245324 -0.015907444 0.009807566 0.047588725 -0.04424275 0.011712833 -0.018570194 -0.049483288
0.024404014 -0.03928428 -0.039491117 0.040831883 -0.054299872 0.009045001 0.017602678 -0.028981963
-0.0047468315 0.031533133 0.0020106176 0.005010719 0.0060966522 -0.030609462 -0.012671812 0.043726694
-0.051941376 0.021433357 0.015641332 -0.040505305 -0.04102684 -0.055951588 0.038602643 0.009228874
0.04119491 -0.020682877 -0.007557155 -0.043050308 0.038184896 -0.02641144 -0.041047506 -0.02862045
0.026971418 -0.0055326684 -0.041202977 -0.058344495 -0.020351019 -0.039714877 0.055700574 0.012285254
-0.022449385 -0.04099775 -0.0527951 0.011672926 0.0387771 -0.05508533 -0.021932755 -0.055726513
0.016804079 -0.037437472 0.03453438 -0.010438389 -0.018942926 -0.00900239 0.024955511 -0.035851788
-0.004224967 0.032239545 -0.01508796 -0.041600723 -0.0058553386 -0.0026419305 -0.007477819 -0.0099582765
0.04373329 0.026068274 0.028332211 -0.041479416 0.042890094 0.018590057 0.047249407 -0.0325872
-0.031620435 -0.019384168 -0.017045805 0.029699104 -0.025241101 -0.05616882 -0.038284857 0.040594373
-0.034044802 -0.032604314 0.025056314 -0.03633863 0.018040726 -0.014731819 0.05239676 -0.023657767
0.037414648 0.0035100514 0.0014641237 0.01908132 -0.03559194 0.02588076 0.0036410447 0.02575902
-0.019937567 0.028856272 0.0049472437 -0.026780903 0.04069464 0.036122896 0.028717143 0.009334475
0.019612137 -0.024405409 -0.0075292797 0.0076575927 0.039711893 0.010519734 -0.012720629 -0.02786855
0.03007931 -0.00044362663 0.002348701 0.0026812642 -0.0037513792 0.016587421 -0.022061583 0.028544197
-0.05189545 -0.04786499 0.0347899 0.051377077 -0.056361463 0.03574766 -0.038347874 0.03268525
0.029653998 -0.034575712 -0.01677981 -0.0029564768 -0.0003678292 -0.048723917 0.03532171 -0.025703816
00000000: df5c c13c 0826 61bd 2850 9aba a42f 2fbc
00000010: 17c7 523b c72f 523d c233 d03a 3fe2 a23c
00000020: 0ff1 92bc 43b5 b13b 0120 313d 4df1 933c
00000030: 3f6e 883c 8e3a c0bc ba6a 0bbd 1e47 e1bc
00000040: b12f 43bc bb32 6cbc 43f6 893a 1ee5 ac3c
00000050: cb0c 3bbd e183 f1bc 891e ee3b 201b 1c3d
00000060: 6c3d cebb 11c8 473b 90cf 0bbd 518c 093c
00000070: c52a 83bc b8be c73c 0fb4 403d c689 4a3d
00000080: ffbc 63bc 239a db3c b711 933c a7ee cbb9
00000090: 417f 3abd a62f 71bd 4a54 0a3d 745e 813c
000000a0: 4e8b 8c3c ae3a 083d 0d9c 583d 583b 0a3b
000000b0: 767c 27bc bfb9 0ebd 9bcc 69bc 2b44 50bc
000000c0: 45d5 5a3d 80e6 a2bc e323 363d 4ff2 61bc
000000d0: 7570 03bd 1e3a 2e3d bee2 d4bc e928 263c
000000e0: f2c3 70bb 133d 31bd 45cf 673c 4311 583c
000000f0: c932 23ba e5cc 1fbc cb17 e53a e935 46bd
00000100: f87a 2cbd c58d 7bbc 8ed3 49bb c335 383b
00000110: 197c 113d 987f 98bc ade5 d2bc 45e8 27bd
00000120: 13ed b2bc 371e 823b 9b6e 4bbd 26dd 4a3d
00000130: 9dac 923c 81f7 343b c137 3d3d 0f39 e6bc
00000140: c3f0 98bc 67df f83b f73c 003d 045e 513a
00000150: a437 333d 2d78 e03b 8a7d e0bc f4a7 07bd
00000160: 19e9 b5bb 9654 083d 5da7 13bd a183 373c
00000170: f8e3 03bd 3971 a8bc 0ca2 a3b8 880d cfbc
00000180: af6b 093c d08a 413d f811 373d d0b8 003d
00000190: 81de fd3b f9ab ccbc 3455 39ba 70b3 153d
000001a0: f1be cabc ef3f 1abd ffe4 37bc 1235 093d
000001b0: a465 1cbc cb53 c0bb 80f1 53bc 7d7d df3b
000001c0: 21a7 1c3d 5450 82bc eaaf 203c 65ec 423d
000001d0: e337 35bd 2fe7 3f3c 8520 98bc fdae 4abd
000001e0: edea c73c 8ee8 20bd 70c1 21bd 553f 273d
000001f0: 8b69 5ebd 7c31 143c 7e33 903c 956b edbc
00000200: 4f8b 9bbb e328 013d 91c4 033b f530 a43b
00000210: 6dc6 c73b b2c0 fabc 6f9d 4fbc c31a 333d
00000220: 7bc0 54bd 0295 af3c 4022 803c e4e8 25bd
00000230: c30b 28bd 7e2d 65bd ce1d 1e3d b434 173c
00000240: febb 283d 236f a9bc 03a2 f7bb 8555 30bd
00000250: c467 1c3d ce5c d8bc 6e21 28bd 6f75 eabc
00000260: 2af3 dc3c 634b b5bb 74c4 28bd a3fa 6ebd
00000270: 2eb7 a6bc 11ac 22bd 4926 643d 1748 493c
00000280: c6e7 b7bc 42ed 27bd ad3f 58bd cd3f 3f3c
00000290: bdd4 1e3d 28a1 61bd 52ac b3bc 7c41 64bd
000002a0: b5a8 893c 0958 19bd ec73 0d3d c705 2bbc
000002b0: 322e 9bbc c37e 13bc 806f cc3c 53d9 12bd
000002c0: 9871 8abb 9d0d 043d 7e33 77bc 8565 2abd
000002d0: 24de bfbb 3d24 2dbb 7e08 f5bb 0a28 23bc
000002e0: ae21 333d 228d d53c f418 e83c 52e6 29bd
000002f0: 86ad 2f3d 2d4a 983c 9888 413d 287a 05bd
00000300: 6e84 01bd 8ccb 9ebc a5a3 8bbc 894b f33c
00000310: 6dc6 cebc 4711 66bd 95d0 1cbd 4946 263d
00000320: 9072 0bbd 1a8c 05bd e642 cd3c d1d7 14bd
00000330: 25ca 933c ba5d 71bc fc9d 563d efcd c1bc
00000340: 1a40 193d e408 663b d7e7 bf3a 6e50 9c3c
00000350: dbc8 11bd e303 d43c 989e 6e3b 9504 d33c
00000360: 1c54 a3bc fd63 ec3c 7d1c a23b a063 dbbc
00000370: 6caf 263d 9af5 133d 3740 eb3c a0ef 183c
00000380: a2a9 a03c daed c7bc 2db8 f6bb 8bec fa3b
00000390: f0a8 223d f65a 2c3c 2f6a 50bc 964c e4bc
000003a0: e368 f63c 8f96 e8b9 aaec 193b 26b8 2f3b
000003b0: b3d9 75bb 58e2 873c 7eba b4bc 85d5 e93c
000003c0: 5390 54bd 140e 44bd db7f 0e3d c570 523d
000003d0: 47db 66bd 236c 123d a912 1dbd f8e0 053d
000003e0: f1ec f23c 439f 0dbd d075 89bc 73c1 41bb
000003f0: 33d9 c0b9 bb92 47bd 7fad 103d cf90 d2bc

fc2.bias f4 [10]
-0.036759928 -0.000241304 -0.0029970051 0.0133881625 -0.028626364 -0.00033153713 -0.013651039 -0.0066222297
0.0022505254 -0.0008897453
00000000: 9491 16bd 8d06 7db9 6769 44bb 065a 5b3c
00000010: d681 eabc 29d2 adb9 9ca8 5fbc 4aff d8bb
00000020: 8d7d 133b cc3d 69ba
