baseline/checkpoints/LeNet/P1_USPStoMNIST/LeNet_classifier_45.pt (torch_old, 20591 bytes, 2 tensors)

fc2.weight f4 [10, 500]
0	0x3cc15cdf	0.023603855
1	0xbd79629d	-0.06088506
2	0xbb5737bf	-0.0032839624
3	0xbc52357e	-0.012830136
4	0x3b52c717	0.0032162124
5	0x3d4b66a0	0.049658418
6	0xbb3e7892	-0.0029063565
7	0x3caa6295	0.02079896
8	0xbc8bbc3b	-0.017057529
9	0x3bc151ea	0.0058996575
10	0x3d2e51f4	0.042558625
11	0x3c8c6547	0.017138137
12	0x3c6a19e9	0.014288404
13	0xbcc2d16d	-0.023781503
14	0xbcfcaff5	-0.030845622
15	0xbce79aba	-0.028272022
16	0xbc7f66f4	-0.015588511
17	0xbc9224fe	-0.017839905
18	0x3acbf32e	0.0015560144
19	0x3cabe09f	0.020981131
20	0xbd3a76dc	-0.04552351
21	0xbcf183e1	-0.02948183
22	0x3c313641	0.010816158
23	0x3d1c1b20	0.038111806
24	0xbbce3d6c	-0.006293943
25	0x3bb988a2	0.00566204
26	0xbd0bcf90	-0.034133494
27	0x3c1bb3e7	0.009503341
28	0xbc9c5f09	-0.019088285
29	0x3cc4852a	0.023989279
30	0x3d439178	0.04774615
31	0x3d502a41	0.050821546
32	0xbc3d4c4c	-0.011553835
33	0x3cd299f9	0.025708186
34	0x3c91a938	0.017780885
35	0xbb047eb3	-0.002021712
36	0xbd422e91	-0.04740769
37	0xbd77ecbb	-0.0605285
38	0x3d0a5317	0.033770647
39	0x3c7c1020	0.015384704
40	0x3c8c8b4e	0.01715627
41	0x3d084b9a	0.033275224
42	0x3d549ec1	0.051909212
43	0x3b0115bb	0.001969679
44	0xbc02e66e	-0.007989509
45	0xbd0eb9bf	-0.03484511
46	0xbc69ebef	-0.014277442
47	0xbc5c0f52	-0.013431387
48	0x3d594895	0.053047735
49	0xbca46fcb	-0.020072838
50	0x3d37fe64	0.04492034
51	0xbc61f24f	-0.013790681
52	0xbd0f9151	-0.035050694
53	0x3d349914	0.0440913
54	0xbcd4e2be	-0.025987025
55	0x3ba485d5	0.005020837
56	0xbb5c2951	-0.0033593962
57	0xbd32866d	-0.04358523
58	0x3c67cf45	0.014148538
59	0x3c6cc574	0.014451373
60	0xbb49880e	-0.003075126
61	0xbc1fcce5	-0.0097534405
62	0x3ae517cb	0.0017478404
63	0xbd44e297	-0.048067655
64	0xbd2ee0ba	-0.042694785
65	0xbc7e88ea	-0.015535573
66	0xba148936	-0.0005666198
67	0x3b4e0d51	0.0031441043
68	0x3d117c19	0.03551874
69	0xbcaa2223	-0.02076823
70	0xbcd4da14	-0.025982894
71	0xbd3308e9	-0.04370967
72	0xbcabb229	-0.020958977
73	0x3b34da08	0.0027595777
74	0xbd4d3083	-0.050095093
75	0x3d54f55f	0.051991817
76	0x3c92dc29	0.017927246
77	0xba1c9f9f	-0.0005974713
78	0x3d34ff03	0.04418851
79	0xbd00ea2d	-0.031473327
80	0xbc99e0e7	-0.018784
81	0x3bc34699	0.0059593436
82	0x3d009a86	0.031397365
83	0x39f1fecf	0.0004615695
84	0x3d31d62c	0.04341714
85	0x3bc7d35a	0.006098193
86	0xbcbfec01	-0.023427965
87	0xbd04f83e	-0.032463305
88	0xbb7a52f9	-0.0038196428
89	0x3d07ec9e	0.03318464
90	0xbd13a75d	-0.036048282
91	0x3c138658	0.009004198
92	0xbd03e3f8	-0.03219983
93	0xbcb20c04	-0.021734245
94	0xb8b149f6	-8.453794e-05
95	0xbcc53fbd	-0.024078244
96	0x3c042f78	0.008067958
97	0x3d3e7737	0.04650041
98	0x3d328fe7	0.043594267
99	0x3cf76fb3	0.03020463
100	0x3ba3bb59	0.004996699
101	0xbcccabf9	-0.024984347
102	0xb78b9e79	-1.6643886e-05
103	0x3d12248b	0.03567938
104	0xbcd4aa29	-0.025960045
105	0xbd225f74	-0.039641812
106	0xbc043472	-0.008069145
107	0x3d094fb0	0.03352326
108	0xbc3264ec	-0.010888319
109	0xbbc053cb	-0.005869364
110	0xbc53f180	-0.012935996
111	0x3bdf7d7d	0.0068203793
112	0x3d1e045a	0.03857837
113	0xbc82512a	-0.015907843
114	0x3c0d36b0	0.008618996
115	0x3d4031fd	0.046922673
116	0xbd355a57	-0.044275608
117	0x3c65a461	0.014016242
118	0xbc982085	-0.018570194
119	0xbd59553f	-0.053059813
120	0x3cc7eaed	0.024404014
121	0xbd1f9aeb	-0.0389661
122	0xbd1e56fd	-0.038657177
123	0x3d273f55	0.040831883
124	0xbd63807e	-0.05554246
125	0x3c14317c	0.009045001
126	0x3c90337e	0.017602678
127	0xbd00e8ee	-0.03147214
128	0xbbede1ff	-0.007259607
129	0x3cfc234f	0.030778555
130	0x3b03c491	0.0020106176
131	0x3bf2e85f	0.0074129547
132	0x3b9a3b21	0.0047067557
133	0xbcfac0b2	-0.030609462
134	0xbc5a6a0c	-0.013330948
135	0x3d331ac3	0.043726694
136	0xbd5c4079	-0.053772423
137	0x3cb93603	0.022608763
138	0x3c7b30be	0.015331445
139	0xbd2fe350	-0.04294139
140	0xbd280bc3	-0.04102684
141	0xbd6c114e	-0.05763369
142	0x3d229465	0.0396923
143	0x3c1734b4	0.009228874
144	0x3d28aaa0	0.041178346
145	0xbcb76377	-0.022386296
146	0xbc1d7dae	-0.009612484
147	0xbd26f12f	-0.040757354
148	0x3d1a2446	0.03763225
149	0xbccfb0a7	-0.02535279
150	0xbd3020dc	-0.043000087
151	0xbd0b3716	-0.03398808
152	0x3cd3032f	0.025758354
153	0x3ab097aa	0.0013472934
154	0xbd2e775e	-0.042594306
155	0xbd70cc53	-0.05878861
156	0xbca6b72e	-0.020351019
157	0xbd311c42	-0.04323984
158	0x3d6ac07c	0.057312474
159	0x3c48317b	0.012218828
160	0xbcb7e7c6	-0.022449385
161	0xbd206b0d	-0.03916459
162	0xbd61aa62	-0.05509413
163	0x3c3a79df	0.011381595
164	0x3d20b0df	0.039231177
165	0xbd666423	-0.05624784
166	0xbcc46ee3	-0.023978656
167	0xbd76da82	-0.06026698
168	0x3c82ff38	0.015990838
169	0xbd0f131c	-0.034930333
170	0x3d0bba3f	0.034113165
171	0xbc2b1a23	-0.010443243
172	0xbc9b2e32	-0.018942926
173	0xbc144005	-0.009048467
174	0x3cc89743	0.02448619
175	0xbd04997f	-0.032372948
176	0xbba267fe	-0.0049562445
177	0x3d00d3b6	0.031451903
178	0xbc85dbe5	-0.016340205
179	0xbd2a6585	-0.041600723
180	0xbc17ad8b	-0.009257684
181	0xbb3d36dc	-0.002887181
182	0xbc1ff589	-0.00976313
183	0xbc23280a	-0.0099582765
184	0x3d3321ae	0.04373329
185	0x3cd4d976	0.0259826
186	0x3cd9db7f	0.026593922
187	0xbd1b57c6	-0.037925504
188	0x3d305712	0.043051787
189	0x3c984a2d	0.018590057
190	0x3d3eafbd	0.046554316
191	0xbd057a28	-0.0325872
192	0xbd056464	-0.032566443
193	0xbcb6e1f7	-0.022324545
194	0xbca6879a	-0.020328332
195	0x3cee0b1d	0.029058034
196	0xbcea2895	-0.028583804
197	0xbd713e6a	-0.058897413
198	0xbd19b324	-0.037524357
199	0x3d264649	0.040594373
200	0xbd0b7290	-0.034044802
201	0xbd0dbbb0	-0.03460282
202	0x3cd09566	0.025461864
203	0xbd000738	-0.031256884
204	0x3c8678b1	0.016414972
205	0xbc715dba	-0.014731819
206	0x3d541ac8	0.051783353
207	0xbcd210fc	-0.025642864
208	0x3d1fa411	0.038974825
209	0x3b60cd82	0.003430218
210	0x39cdf01e	0.00039279548
211	0x3c908eb9	0.01764618
212	0xbd199d83	-0.03750373
213	0x3cd403e3	0.02588076
214	0x3a8a4c72	0.0010551347
215	0x3cceac00	0.0252285
216	0xbca3541c	-0.019937567
217	0x3ce716ee	0.028209176
218	0x3b60092a	0.003418515
219	0xbcf1600d	-0.029464746
220	0x3d1eab2a	0.038737454
221	0x3d25e0c0	0.04049754
222	0x3ce161f2	0.027512524
223	0x3c1cbcef	0.00956653
224	0x3c8fd79a	0.017558862
225	0xbd105560	-0.03523767
226	0xbbf6b82d	-0.0075292797
227	0x3bfbd4a7	0.0076852622
228	0x3d22a8f0	0.039711893
229	0x3c2c5af6	0.010519734
230	0xbc82fd3b	-0.01598989
231	0xbd017e28	-0.031614453
232	0x3d04af1b	0.032393556
233	0xb9e8968f	-0.00044362663
234	0x3b0cef0c	0.0021504788
235	0xba200ba0	-0.0006105248
236	0xbb75d9b3	-0.0037513792
237	0x3c668d7e	0.01407182
238	0xbcd73f1b	-0.026275208
239	0x3cf017da	0.029308248
240	0xbd65c213	-0.056093287
241	0xbd4b7a5e	-0.049677245
242	0x3d0e7fdb	0.0347899
243	0x3d500bc7	0.05079248
244	0xbd70467b	-0.058660965
245	0x3cf63304	0.030053623
246	0xbd249893	-0.04018457
247	0x3d0968d4	0.033547238
248	0x3cf2ecf1	0.029653998
249	0xbd0d9f43	-0.034575712
250	0xbc93a34c	-0.018022202
251	0xba4328a7	-0.00074447173
252	0xba6427ee	-0.000870346
253	0xbd5e23d6	-0.054233395
254	0x3d0c1d0b	0.034207385
255	0xbcdb6640	-0.026782155

fc2.bias f4 [10]
0	0xbd1903ab	-0.037357014
1	0xba999bb4	-0.0011719377
2	0xbb58749a	-0.0033028484
3	0x3c5c1870	0.013433561
4	0xbce9894a	-0.028507847
5	0xb9d29199	-0.000401628
6	0xbc68bc4d	-0.014205051
7	0xbbd9fbad	-0.0066523165
8	0x3b32c03f	0.0027275232
9	0xba5cd9f0	-0.0008424809
