baseline/checkpoints/LeNet/P1_USPStoMNIST/LeNet_classifier_15.pt (torch_old, 20591 bytes, 2 tensors)

fc2.weight f4 [10, 500]
0.023603855 -0.051632326 -0.00025283577 -0.00973503 0.0032162124 0.05121095 0.0054838504 0.020332232
-0.015564307 0.005129418 0.042315494 0.020121587 0.01731546 -0.0227467 -0.030024689 -0.02686666
-0.00841174 -0.011588456 0.0011606768 0.020777877 -0.044528533 -0.029481793 0.005506522 0.038111806
-0.006293943 0.0053068968 -0.034133494 0.008875805 -0.013925056 0.023958454 0.045638412 0.04812721
-0.0118066 0.025901377 0.017721353 0.0002850765 -0.043422908 -0.055312723 0.032532617 0.016425656
0.01715627 0.03276326 0.052606918 0.0014790482 -0.009829622 -0.03484511 -0.012629094 -0.01251215
0.052708782 -0.017342096 0.04356801 -0.013790681 -0.028529799 0.04088786 -0.025987025 0.014472224
-0.003829996 -0.040215485 0.014148538 0.013533906 0.0018649668 -0.0097534405 0.0017478404 -0.044929966
-0.04113526 -0.0137389945 -0.00049328245 0.0028108216 0.03551874 -0.017531268 -0.025744284 -0.03826579
-0.020077378 0.004602018 -0.048055876 0.047711454 0.017997285 0.004781633 0.046832655 -0.024195263
-0.018846873 0.008436322 0.030611146 0.00079867267 0.042464316 0.007961821 -0.024997575 -0.03163569
-0.0064024176 0.032367636 -0.036048282 0.011679459 -0.03219983 -0.019853953 -7.802629e-05 -0.023062794
0.0081761135 0.046463825 0.044177055 0.032038733 0.011201466 -0.0249694 -0.0010190326 0.03607109
-0.02278834 -0.034747485 -0.009793667 0.032575205 -0.009618365 -0.005869364 -0.012935996 0.0068203793
0.037656743 -0.015907444 0.0105057 0.04725631 -0.04424275 0.010690385 -0.018570194 -0.047158763
0.024404014 -0.03928428 -0.03707441 0.040831883 -0.05250356 0.009045001 0.017801097 -0.028532317
-0.0043015713 0.03246824 0.0020106176 0.006338842 0.0067357603 -0.030609462 -0.012001614 0.043726694
-0.04805624 0.021889597 0.015062381 -0.03818033 -0.04102684 -0.053707384 0.037633464 0.009228874
0.04119491 -0.0190368 -0.007557155 -0.039902937 0.037758958 -0.025591303 -0.03850158 -0.025433645
0.027013952 -0.0036042824 -0.039600704 -0.054545067 -0.020351019 -0.03662331 0.054319408 0.012203214
-0.022449385 -0.038580365 -0.049001724 0.011328853 0.03769916 -0.053395662 -0.021566588 -0.05259011
0.016576909 -0.034817163 0.033804286 -0.010438389 -0.018942926 -0.009268165 0.02487558 -0.034942098
-0.0040344642 0.031545676 -0.013997347 -0.041600723 -0.0043541105 -0.0026419305 -0.005698846 -0.0099582765
0.04373329 0.026021782 0.029462557 -0.0401824 0.042981487 0.018590057 0.046676975 -0.0325872
-0.030369442 -0.017915627 -0.014509261 0.029415961 -0.021410402 -0.053351894 -0.037889317 0.040594373
-0.034044802 -0.029671164 0.02463995 -0.033842865 0.018909218 -0.014731819 0.051427834 -0.022365047
0.035828322 0.003090029 0.0010450997 0.0187218 -0.034682747 0.02588076 0.005428859 0.024960488
-0.019937567 0.028674614 0.0047980933 -0.024124809 0.038834553 0.034258135 0.028209772 0.009074255
0.01988579 -0.020008393 -0.0075292797 0.0075129936 0.039711893 0.010519734 -0.010416075 -0.024778266
0.029226998 -0.00044362663 0.0020658681 0.004708345 -0.0037513792 0.017129298 -0.018970506 0.02805864
-0.048263956 -0.046937943 0.0347899 0.05037257 -0.054386683 0.0380215 -0.036730718 0.032789923
0.029653998 -0.034575712 -0.015812296 -0.0017577437 -0.000343997 -0.045659356 0.035335127 -0.024614757
00000000: df5c c13c 6b7c 53bd 0b8f 84b9 ad7f 1fbc
00000010: 17c7 523b 93c2 513d dfb1 b33b c88f a63c
00000020: 6f01 7fbc ad14 a83b 0353 2d3d 07d6 a43c
00000030: 27d9 8d3c 4a57 babc 56f6 f5bc 7817 dcbc
00000040: 65d1 09bc 82dd 3dbc da21 983a 5e36 aa3c
00000050: 8d63 36bd cd83 f1bc 0e70 b43b 201b 1c3d
00000060: 6c3d cebb 7ae5 ad3b 90cf 0bbd d36b 113c
00000070: eb25 64bc 8544 c43c 58ef 3a3d 0a21 453d
00000080: 7870 41bc 202f d43c 5f2c 913c 5276 9539
00000090: 38dc 31bd 988f 62bd ec40 053d 198f 863c
000000a0: 4e8b 8c3c c532 063d 5a7a 573d 9fdc c13a
000000b0: 6c0c 21bc bfb9 0ebd 42ea 4ebc c3ff 4cbc
000000c0: 2ae5 573d 0311 8ebc 5f74 323d 4ff2 61bc
000000d0: 53b7 e9bc 077a 273d bee2 d4bc e81c 6d3c
000000e0: ac00 7bbb feb8 24bd 45cf 673c 51bd 5d3c
000000f0: e771 f43a e5cc 1fbc cb17 e53a 7c08 38bd
00000100: 727d 28bd 8519 61bc a04f 01ba c335 383b
00000110: 197c 113d bc9d 8fbc ade5 d2bc 97bc 1cbd
00000120: 5079 a4bc 86cc 963b 3dd6 44bd 166d 433d
00000130: 0b6f 933c 3faf 9c3b 99d3 3f3d 2535 c6bc
00000140: c264 9abc 8038 0a3c 3ac4 fa3c 045e 513a
00000150: 10ef 2d3d 4c72 023c b7c7 ccbc 6d94 01bd
00000160: 5fcb d1bb ed93 043d 5da7 13bd 345b 3f3c
00000170: f8e3 03bd c2a4 a2bc 0ca2 a3b8 2fee bcbc
00000180: 1bf5 053c da50 3e3d 00f3 343d 0c3b 033d
00000190: 5b86 373c a18c ccbc 0f91 85ba 47bf 133d
000001a0: 9dae babc 6153 0ebd 9e75 20bc 946d 053d
000001b0: 5996 1dbc cb53 c0bb 80f1 53bc 7d7d df3b
000001c0: f53d 1a3d 5450 82bc 1920 2c3c d58f 413d
000001d0: e337 35bd b926 2f3c 8520 98bc 8c29 41bd
000001e0: edea c73c 8ee8 20bd 56db 17bd 553f 273d
000001f0: f90d 57bd 7c31 143c 9bd3 913c 9bbc e9bc
00000200: 32f4 8cbb 6bfd 043d 91c4 033b 10b6 cf3b
00000210: a7b7 dc3b b2c0 fabc 6ba2 44bc c31a 333d
00000220: 9fd6 44bd d051 b33c 34c8 763c fa62 1cbd
00000230: c30b 28bd 46fc 5bbd 8c25 1a3d b434 173c
00000240: febb 283d 10f3 9bbc 03a2 f7bb 4371 23bd
00000250: 23a9 1a3d daa4 d1bc d5b3 1dbd 385a d0bc
00000260: 5d4c dd3c d335 6cbb 5934 22bd a66a 5fbd
00000270: 2eb7 a6bc 5302 16bd 077e 5e3d fdef 473c
00000280: c6e7 b7bc 7206 1ebd 08b6 48bd a79c 393c
00000290: 6f6a 1a3d 69b5 5abd 6aac b0bc ba68 57bd
000002a0: 4ccc 873c 719c 0ebd 5d76 0a3d c705 2bbc
000002b0: 322e 9bbc 80d9 17bc dfc7 cb3c 721f 0fbd
000002c0: 8a33 84bb 0a36 013d 2155 65bc 8565 2abd
000002d0: edac 8ebb 3d24 2dbb 63bd babb 0a28 23bc
000002e0: ae21 333d a22b d53c 765b f13c 4d96 24bd
000002f0: 5b0d 303d 2d4a 983c 5b30 3f3d 287a 05bd
00000300: 56c9 f8bc cbc3 92bc 40b8 6dbc bef9 f03c
00000310: de64 afbc 8487 5abd d431 1bbd 4946 263d
00000320: 9072 0bbd f110 f3bc b8d9 c93c d19e 0abd
00000330: 81e7 9a3c ba5d 71bc fea5 523d e736 b7bc
00000340: b8c0 123d 1582 4a3b bafb 883a 765e 993c
00000350: 7f0f 0ebd e303 d43c 92e4 b13b f079 cc3c
00000360: 1c54 a3bc 06e7 ea3c 5339 9d3b 64a1 c5bc
00000370: fb10 1f3d 4252 0c3d 2e18 e73c 2fac 143c
00000380: 86e7 a23c a4e8 a3bc 2db8 f6bb 8f2f f63b
00000390: f0a8 223d f65a 2c3c 2fa8 2abc cafb cabc
000003a0: 756d ef3c 8f96 e8b9 8463 073b 7648 9a3b
000003b0: b3d9 75bb be52 8c3c 0968 9bbc 3cdb e53c
000003c0: 6db0 45bd 0042 40bd db7f 0e3d 7853 4e3d
000003d0: 92c4 5ebd 6fbc 1b3d f372 16bd ba4e 063d
000003e0: f1ec f23c 439f 0dbd ca88 81bc 1764 e6ba
000003f0: 7f5a b4b9 4e05 3bbd 91bb 103d e3a4 c9bc

fc2.bias f4 [10]
-0.03606861 0.0007846603 -0.0031297097 0.013062678 -0.02885142 -0.00046213742 -0.013227639 -0.0064239562
0.001465355 -0.0010153655
00000000: aebc 13bd a9b1 4d3a d11b 4dbb d804 563c
00000010: d059 ecbc 094b f2b9 bdb8 58bc 0d80 d2bb
00000020: 2811 c03a 0316 85ba
