baseline/checkpoints/LeNet/P1_USPStoMNIST/LeNet_classifier_40.pt (torch_old, 20591 bytes, 2 tensors)

fc2.weight f4 [10, 500]
0.023603855 -0.05960045 -0.0026859392 -0.012224828 0.0032162124 0.050060466 -0.00232948 0.020788977
-0.017343244 0.006013591 0.043027114 0.017212275 0.0149751725 -0.023506334 -0.032642294 -0.02783105
-0.015115328 -0.017012933 0.0015364517 0.02122173 -0.045360077 -0.02948183 0.010035794 0.038111806
-0.006293943 0.0047486788 -0.034133494 0.009532603 -0.018277023 0.024302056 0.047783673 0.05071985
-0.012272586 0.026241388 0.018052146 -0.0014137838 -0.046857648 -0.06027299 0.03392379 0.01570477
0.01715627 0.03350445 0.052401897 0.0022006081 -0.008375864 -0.03484511 -0.014297418 -0.012963784
0.05338357 -0.020064153 0.045009125 -0.013790681 -0.034582015 0.04384803 -0.025987025 0.005431365
-0.0031902958 -0.04360539 0.014148538 0.014168495 -0.0025212562 -0.0097534405 0.0017478404 -0.048396997
-0.042296544 -0.015298387 -0.0012499619 0.0031441043 0.03551874 -0.020123672 -0.025982894 -0.043050196
-0.021164795 0.0031226038 -0.04981978 0.051470306 0.018021252 0.00020999215 0.04474739 -0.030836836
-0.018520169 0.006534633 0.031685907 0.0004615704 0.043807093 0.006390489 -0.024841078 -0.032521416
-0.0041568363 0.033515975 -0.036048282 0.009695936 -0.03219983 -0.02129093 -8.4129446e-05 -0.024461918
0.008340573 0.046828516 0.044112463 0.030458193 0.0052703978 -0.024984347 1.5125621e-05 0.036098465
-0.025583917 -0.03931938 -0.008624958 0.033807024 -0.010293804 -0.005869364 -0.012935996 0.0068203793
0.038749892 -0.015907843 0.008991355 0.047320493 -0.044275608 0.013673895 -0.018570194 -0.052151736
0.024404014 -0.0389661 -0.039021805 0.040831883 -0.055079468 0.009045001 0.017602678 -0.030612897
-0.0065259733 0.0309654 0.0020106176 0.0067589884 0.0052326997 -0.030609462 -0.012987402 0.043726694
-0.053607125 0.022188837 0.015641296 -0.042274594 -0.04102684 -0.057147697 0.03974174 0.009228874
0.041178346 -0.021798134 -0.009072643 -0.041586757 0.03787522 -0.025406232 -0.042445097 -0.03269722
0.026237337 -0.001032446 -0.04208499 -0.058945403 -0.020351019 -0.042521898 0.05713904 0.0124920625
-0.022449385 -0.0394616 -0.054732278 0.011684937 0.039422352 -0.055705845 -0.023293778 -0.05910517
0.016456347 -0.03614268 0.03445675 -0.010443241 -0.018942926 -0.008856198 0.024769366 -0.033116072
-0.004506111 0.031819664 -0.015906973 -0.041600723 -0.008342926 -0.002887181 -0.0092250025 -0.0099582765
0.04373329 0.026110299 0.02705775 -0.03884712 0.04301582 0.018590057 0.046948086 -0.0325872
-0.03220573 -0.021516968 -0.019713692 0.02943602 -0.028119694 -0.05833693 -0.03755237 0.040594373
-0.034044802 -0.034383696 0.025279848 -0.033156194 0.016791563 -0.014731819 0.052093435 -0.024997659
0.038931843 0.003763426 0.00094023615 0.01821193 -0.03675935 0.02588076 0.0017989742 0.025407603
-0.019937567 0.028452436 0.0040612584 -0.028244248 0.03932018 0.039545793 0.028009437 0.009655477
0.018288042 -0.03232017 -0.0075292797 0.008003583 0.039711893 0.010519734 -0.015180729 -0.030823795
0.031806253 -0.00044362663 0.0024691501 0.00012259348 -0.0037513792 0.014754752 -0.025361946 0.02940938
-0.055289667 -0.049010836 0.0347899 0.051224403 -0.057969052 0.03116924 -0.039675307 0.03356558
0.029653998 -0.034575712 -0.017510567 -0.0012521145 -0.00045968135 -0.05316404 0.034680277 -0.026309708
00000000: df5c c13c 9a1f 74bd 9506 30bb a54a 48bc
00000010: 17c7 523b 340c 4d3d 30aa 18bb a54d aa3c
00000020: 6b13 8ebc a80d c53b 333d 303d c200 8d3c
00000030: 6d5a 753c 5b90 c0bc edb3 05bd f1fd e3bc
00000040: 48a6 77bc b55e 8bbc c462 c93a 32d9 ad3c
00000050: 7dcb 39bd e183 f1bc 2c6d 243c 201b 1c3d
00000060: 6c3d cebb ce9a 9b3b 90cf 0bbd a32e 1c3c
00000070: b2b9 95bc 1b15 c73c d0b8 433d 9ebf 4f3d
00000080: f512 49bc 2ef8 d63c 18e2 933c b64e b9ba
00000090: ceed 3fbd d0e0 76bd acf3 0a3d 4aa7 803c
000000a0: 4e8b 8c3c f63b 093d 5fa3 563d 1438 103b
000000b0: eb3a 09bc bfb9 0ebd b83f 6abc 0d66 54bc
000000c0: bba8 5a3d 945d a4bc 7d5b 383d 4ff2 61bc
000000d0: dfa5 0dbd fe99 333d bee2 d4bc 98f9 b13b
000000e0: 4814 51bb 919b 32bd 45cf 673c fa22 683c
000000f0: a93b 25bb e5cc 1fbc cb17 e53a ee3b 46bd
00000100: 243f 2dbd 16a6 7abc c3d5 a3ba 510d 4e3b
00000110: 197c 113d 66da a4bc 14da d4bc 6755 30bd
00000120: cb61 adbc 99a4 4c3b d30f 4cbd 87d2 523d
00000130: 4ea1 933c 5731 5c39 0a49 373d 889d fcbc
00000140: 9cb7 97bc 7a20 d63b 15c9 013d eefe f139
00000150: 116f 333d 4f67 d13b 847f cbbc 2d35 05bd
00000160: 1236 88bb 0c48 093d 5da7 13bd b4db 1e3c
00000170: f8e3 03bd 516a aebc a76e b0b8 5c64 c8bc
00000180: e6a6 083c 42cf 3f3d 45af 343d 7683 f93c
00000190: 4db3 ac3b f9ab ccbc 0cc4 7d37 fcdb 133d
000001a0: 5d95 d1bc 5c0d 21bd b24f 0dbc 3c79 0a3d
000001b0: 58a7 28bc cb53 c0bb 80f1 53bc 7d7d df3b
000001c0: 35b8 1e3d 2a51 82bc 7a50 133c 22d3 413d
000001d0: 575a 35bd 7908 603c 8520 98bc 0f9d 55bd
000001e0: edea c73c eb9a 1fbd 54d5 1fbd 553f 273d
000001f0: 029b 61bd 7c31 143c 7e33 903c e6c7 fabc
00000200: d5d7 d5bb 27ab fd3c 91c4 033b 817a dd3b
00000210: 1177 ab3b b2c0 fabc 1dc9 54bc c31a 333d
00000220: 2593 5bbd 5dc5 b53c 2d22 803c 2028 2dbd
00000230: c30b 28bd b413 6abd 3cc8 223d b434 173c
00000240: a0aa 283d 0092 b2bc 6ca5 14bc e056 2abd
00000250: 0c23 1b3d bb20 d0bc e9da 2dbd 85ed 05bd
00000260: afef d63c 2453 87ba 4f61 2cbd bc70 71bd
00000270: 2eb7 a6bc 712b 2ebd a00a 6a3d 82ab 4c3c
00000280: c6e7 b7bc 7da2 21bd f42e 60bd 2e72 3f3c
00000290: 5579 213d d02b 64bd 98d2 bebc 4318 72bd
000002a0: 76cf 863c 590a 14bd 8522 0d3d 211a 2bbc
000002b0: 322e 9bbc 9619 11bc 20e9 ca3c b8a4 07bd
000002c0: 00a8 93bb 5655 023d 574f 82bc 8565 2abd
000002d0: c5b0 08bc dc36 3dbb 7724 17bc 0a28 23bc
000002e0: ae21 333d 44e5 d53c 37a8 dd3c 281e 1fbd
000002f0: 5b31 303d 2d4a 983c a34c 403d 287a 05bd
00000300: 28ea 03bd 5a44 b0bc 9c7e a1bc cf23 f13c
00000310: 465b e6bc b4f2 6ebd 84d0 19bd 4946 263d
00000320: 9072 0bbd ebd5 0cbd af17 cf3c cace 07bd
00000330: 768e 893c ba5d 71bc ed5f 553d e4c7 ccbc
00000340: ff76 1f3d d0a3 763b 2e7a 763a 2f31 953c
00000350: f990 16bd e303 d43c 8fcb eb3a 9b23 d03c
00000360: 1c54 a3bc 1515 e93c 4e14 853b 7b60 e7bc
00000370: 320e 213d c5fa 213d 0c74 e53c 0132 1e3c
00000380: ced0 953c 2862 04bd 2db8 f6bb 7621 033c
00000390: f0a8 223d f65a 2c3c 98b8 78bc 2f82 fcbc
000003a0: 4647 023d 8f96 e8b9 77d1 213b 708c 0039
000003b0: b3d9 75bb eabd 713c dbc3 cfbc f1eb f03c
000003c0: 6b77 62bd 96bf 48bd db7f 0e3d aed0 513d
000003d0: f570 6dbd a256 ff3c 9382 22bd 107c 093d
000003e0: f1ec f23c 439f 0dbd 5272 8fbc fe1d a4ba
000003f0: 6301 f1b9 89c2 59bd e80c 0e3d 7587 d7bc

fc2.bias f4 [10]
-0.03706398 -0.0009628676 -0.0032661618 0.013345281 -0.02852703 -0.00025809137 -0.014164252 -0.0067172847
0.0026689863 -0.0009515125
00000000: 66d0 17bd f368 7cba 1a0d 56bb 2aa6 5a3c
00000010: 85b1 e9bc 7050 87b9 2e11 68bc ab1c dcbb
00000020: 29ea 2e3b ec6e 79ba
