baseline/checkpoints/LeNet/P1_USPStoMNIST/LeNet_classifier_75.pt (torch_old, 20591 bytes, 2 tensors)

fc2.weight f4 [10, 500]
0.023603855 -0.066901945 -0.0064109303 -0.015532472 0.0032162124 0.050068025 -0.0031901812 0.023515698
-0.015248191 0.0060005975 0.04161217 0.019132193 0.01266935 -0.02396068 -0.025103686 -0.029075814
-0.015871732 -0.020961236 0.0016011979 0.021665882 -0.045387167 -0.02916225 0.014210243 0.038111806
-0.006293943 0.012070074 -0.034133494 0.011576975 -0.021652885 0.02408523 0.04912975 0.051703844
-0.0064357966 0.023825277 0.017598454 -0.003476932 -0.04839491 -0.05849881 0.03385534 0.015164377
0.016935356 0.033867106 0.050703175 -0.000135323 -0.006025936 -0.03482358 -0.012504516 -0.014761507
0.052560046 -0.017540464 0.045968845 -0.013790681 -0.03763233 0.045094058 -0.025987025 0.004918705
-0.0043220916 -0.041270185 0.014148538 0.0162293 -0.0046528904 -0.0097534405 0.001747839 -0.0437582
-0.043685745 -0.01486728 0.0022805172 0.0031440943 0.03551874 -0.022836005 -0.025982894 -0.049806185
-0.020046704 0.0013970932 -0.0499875 0.055813264 0.019512188 -0.0031824105 0.043345936 -0.03277432
-0.020382797 0.0048149396 0.03135343 0.0004615695 0.04257882 0.006943976 -0.020631153 -0.034576032
-0.0036684948 0.032975487 -0.036048282 0.007205772 -0.03219983 -0.022928534 -8.453794e-05 -0.020499915
0.006989977 0.04474457 0.04237284 0.029866 0.0065975524 -0.024984347 -0.0009886744 0.034862034
-0.027329447 -0.041937344 -0.0023344937 0.032266505 -0.012394482 -0.005869364 -0.012935996 0.0068203793
0.038804665 -0.015907843 0.008256702 0.04627944 -0.044275608 0.01600057 -0.018570194 -0.05580536
0.024404014 -0.0389661 -0.035672054 0.040831883 -0.05677107 0.00873086 0.017602678 -0.04544911
-0.010696578 0.0325004 0.0020106176 0.013321699 0.0037223443 -0.030609462 -0.012892955 0.05295001
-0.051375665 0.026450602 0.013757104 -0.046636797 -0.041267376 -0.05891286 0.039663516 0.009228874
0.041178346 -0.024092017 -0.012420406 -0.03518075 0.037318572 -0.024991246 -0.04395016 -0.03991516
0.02478344 0.013516198 -0.043273125 -0.0543557 -0.020351019 -0.046310186 0.058630113 0.012683764
-0.022449385 -0.03235395 -0.053875003 0.010887694 0.038743258 -0.060639903 -0.02635962 -0.065218374
0.014707165 -0.025735112 0.033585016 -0.010443243 -0.018942926 -0.010440969 0.02421342 -0.028302945
-0.006109571 0.03142469 -0.018713476 -0.041600723 -0.013887483 -0.002887181 -0.010003162 -0.0099582765
0.04373329 0.026862644 0.026540589 -0.030064316 0.04535687 0.018232767 0.045981623 -0.03290096
-0.032141093 -0.02516069 -0.021441462 0.028300317 -0.028996827 -0.0611524 -0.03952299 0.040594373
-0.034044802 -0.035501137 0.027060179 -0.023058407 0.017610796 -0.014731819 0.051936146 -0.02816386
0.04119278 0.0025106196 -0.0009522129 0.016124919 -0.040563423 0.02588076 -0.00084924616 0.027378555
-0.020271502 0.029043134 0.00079334114 -0.042658597 0.03915698 0.04620869 0.026608367 0.010626451
0.014695259 -0.04108704 -0.0075292797 0.0068722814 0.039711893 0.010519734 -0.018060524 -0.03325977
0.040441304 -0.00044362663 0.0018045636 -0.0025920903 -0.0037513792 0.012684217 -0.032998953 0.030131435
-0.060248923 -0.052447803 0.0347899 0.049320325 -0.061067022 0.02151032 -0.042390153 0.035756666
0.029653998 -0.034575712 -0.019259078 0.0032536336 -0.0025671676 -0.059276734 0.03327867 -0.028189046
00000000: df5c c13c e303 89bd c812 d2bb e97b 7ebc
00000010: 17c7 523b 2114 4d3d 5c12 51bb fea3 c03c
00000020: 8cd3 79bc a9a0 c43b 8671 2a3d 1ebb 9c3c
00000030: 1b93 4f3c 3049 c4bc 3fa6 cdbc 6730 eebc
00000040: 6f05 82bc e6b6 abbc 49df d13a a67c b13c
00000050: e5e7 39bd ace5 eebc 14d2 683c 201b 1c3d
00000060: 6c3d cebb 8fc1 453c 90cf 0bbd 5aad 3d3c
00000070: 6461 b1bc 634e c53c 473c 493d 69c7 533d
00000080: 60e3 d2bb 3a2d c33c a22a 903c 3ddd 63bb
00000090: be39 46bd 739c 6fbd e6ab 0a3d 0274 783c
000000a0: 04bc 8a3c 3cb8 0a3d 22ae 4f3d 7ee5 0db9
000000b0: 3775 c5bb 2ca3 0ebd bedf 4cbc 3fda 71bc
000000c0: 3449 573d 05b1 8fbc d449 3c3d 4ff2 61bc
000000d0: 5c24 1abd 8cb4 383d bee2 d4bc 172d a13b
000000e0: 55a0 8dbb ed0a 29bd 45cf 673c 4ff3 843c
000000f0: 4677 98bb e5cc 1fbc bf17 e53a cc3b 33bd
00000100: d3ef 32bd e495 73bc bb74 153b 260d 4e3b
00000110: 197c 113d 9312 bbbc 14da d4bc 9201 4cbd
00000120: fc38 a4bc ab1e b73a b1bf 4cbd 739c 643d
00000130: 06d8 9f3c fd8f 50bb 828b 313d 5e3e 06bd
00000140: d3f9 a6bc a4c6 9d3b 746c 003d cffe f139
00000150: 2167 2e3d 4b8a e33b aa02 a9bc 999f 0dbd
00000160: 216b 70bb 4e11 073d 5da7 13bd 661e ec3b
00000170: f8e3 03bd 9fd4 bbbc f649 b1b8 70ef a7bc
00000180: 2d0c e53b 1546 373d 258f 2d3d 8ba9 f43c
00000190: 4830 d83b f9ab ccbc 6896 81ba 7ecb 0e3d
000001a0: 01e2 dfbc 7ec6 2bbd 4efe 18bb e229 043d
000001b0: 3a12 4bbc cb53 c0bb 80f1 53bc 7d7d df3b
000001c0: a4f1 1e3d 2a51 82bc 1e47 073c 838f 3d3d
000001d0: 575a 35bd a113 833c 8520 98bc 2994 64bd
000001e0: edea c73c eb9a 1fbd dc1c 12bd 553f 273d
000001f0: c888 68bd e20b 0f3c 7e33 903c d928 3abd
00000200: b340 2fbc 241f 053d 91c4 033b 4143 5a3c
00000210: 93f2 733b b2c0 fabc f93c 53bc 1ce2 583d
00000220: 4a6f 52bd efae d83c 7a65 613c 3a06 3fbd
00000230: fb07 29bd 9c4e 71bd 3676 223d b434 173c
00000240: a0aa 283d 9f5c c5bc f57e 4bbc b119 10bd
00000250: 5cdb 183d 71ba ccbc 1505 34bd 147e 23bd
00000260: a406 cb3c 0b73 5d3c 293f 31bd 15a4 5ebd
00000270: 2eb7 a6bc c0af 3dbd 2126 703d 90cf 4f3c
00000280: c6e7 b7bc 9385 04bd 09ac 5cbd 4c62 323c
00000290: 40b1 1e3d 8c61 78bd 21f0 d7bc 3691 85bd
000002a0: 52f6 703c 71d2 d2bc 7190 093d 231a 2bbc
000002b0: 322e 9bbc 9910 2bbc 395b c63c 94db e7bc
000002c0: cc32 c8bb 2db7 003d 014d 99bc 8565 2abd
000002d0: 5388 63bc dc36 3dbb 4de4 23bc 0a28 23bc
000002e0: ae21 333d 0c0f dc3c a66b d93c 7149 f6bc
000002f0: 20c8 393d e25c 953c 3a57 3c3d 28c3 06bd
00000300: 61a6 03bd cb1d cebc 01a6 afbc 11d6 e73c
00000310: c18a edbc f07a 7abd dce2 21bd 4946 263d
00000320: 9072 0bbd a469 11bd 4fad dd3c fce4 bcbc
00000330: 8444 903c ba5d 71bc ffba 543d e5b7 e6bc
00000340: c3b9 283d 3589 243b ed9d 79ba 6818 843c
00000350: d525 26bd e303 d43c f29f 5eba fe48 e03c
00000360: 6c10 a6bc deeb ed3c 39f8 4f3a c8ba 2ebd
00000370: 1263 203d 5345 3d3d caf9 d93c 911a 2e3c
00000380: 62c4 703c e24a 28bd 2db8 f6bb e030 e13b
00000390: f0a8 223d f65a 2c3c aaf3 93bc 663b 08bd
000003a0: c8a5 253d 8f96 e8b9 1b87 ec3a 0fe0 29bb
000003b0: b3d9 75bb 76d1 4f3c e929 07bd 33d6 f63c
000003c0: 93c7 76bd 82d3 56bd db7f 0e3d 1c04 4a3d
000003d0: 6a21 7abd 6936 b03c 4ca1 2dbd 9575 123d
000003e0: f1ec f23c 439f 0dbd 37c5 9dbc ea3a 553b
000003f0: ed3d 28bb 29cc 72bd 374f 083d b7ec e6bc

fc2.bias f4 [10]
-0.037136685 -0.0020756219 -0.003574836 0.01344795 -0.028492145 -0.00089566794 -0.01422238 -0.006382913
0.0034550498 -0.0011629878
00000000: a31c 18bd 2807 08bb cc47 6abb ca54 5c3c
00000010: 5c68 e9bc 42cb 6aba fc04 69bc c127 d1bb
00000020: 1e6e 623b 656f 98ba
