baseline/checkpoints/LeNet/P1_USPStoMNIST/LeNet_classifier_80.pt (torch_old, 20591 bytes, 2 tensors)

fc2.weight f4 [10, 500]
00000000: df5c c13c 0779 8bbd 640b e4bb 93fc 83bc
00000010: 9a99 593b a755 4d3d 6743 55bb 3d74 c13c
00000020: 7213 75bc 9cc8 bc3b d506 293d 1d1b 9e3c
00000030: 2f72 483c 0950 c7bc 3d44 dabc e9a8 f0bc
00000040: 6194 83bc 3ae1 b1bc f786 bd3a 0a8d b13c
00000050: a11a 3bbd ace5 eebc 09a2 723c 201b 1c3d
00000060: 6c3d cebb 742e 5f3c 90cf 0bbd 843c 3d3c
00000070: 31cb b6bc 5203 c43c 2d7b 493d 9323 543d
00000080: fd98 c1bb fdec bf3c 54f9 8d3c edc3 82bb
00000090: abef 47bd 76d7 6ebd a4df 0b3d a717 743c
000000a0: 04bc 8a3c 872d 0a3d 6d20 4e3d 1d91 24ba
000000b0: 66a6 c5bb 2ca3 0ebd 5944 49bc f8b2 7abc
000000c0: 3958 563d 9fb5 8dbc 52ad 3d3d 4ff2 61bc
000000d0: 8fde 1abd 68b8 383d bee2 d4bc 1c0a b93b
000000e0: 739e 9bbb dcbf 2bbd 45cf 673c bd9e 853c
000000f0: d2f4 aabb e5cc 1fbc bf17 e53a bba3 31bd
00000100: 0da6 34bd adbd 78bc f647 253b 260d 4e3b
00000110: 197c 113d 14b3 bfbc 14da d4bc b632 52bd
00000120: 8c4a a5bc 33b1 583a 451b 4ebd 5568 673d
00000130: 2ef0 a23c 6083 82bb a62c 303d 13b9 07bd
00000140: ab37 acbc 399e 8d3b 9e16 ff3c cffe f139
00000150: 1db0 2d3d 1cbe de3b 8d33 b6bc 4e4b 10bd
00000160: ebf3 79bb 952e 063d 5da7 13bd faba db3b
00000170: f8e3 03bd ee79 bfbc f649 b1b8 1f8a a5bc
00000180: ff68 d73b d4f2 353d d020 2c3d 1090 f83c
00000190: 15b9 db3b f9ab ccbc 2c11 85ba 60ea 0d3d
000001a0: 80cf e3bc e567 2ebd 9ab0 dcba 9991 023d
000001b0: 6de7 51bc cb53 c0bb 80f1 53bc 7d7d df3b
000001c0: ce33 1e3d 2a51 82bc 72b3 063c 0350 3c3d
000001d0: 575a 35bd 3246 843c 8520 98bc dc52 67bd
000001e0: edea c73c eb9a 1fbd 871f 10bd 553f 273d
000001f0: ccbb 6abd e20b 0f3c 7e33 903c 28c1 45bd
00000200: 2c0c 38bc f4cf 053d 91c4 033b ee48 6a3c
00000210: b1a4 5c3b b2c0 fabc f005 55bc 91fa 5e3d
00000220: aa7c 51bd 83ff da3c fd8a 593c ef4d 42bd
00000230: fb07 29bd 1d95 73bd 0269 213d b434 173c
00000240: a0aa 283d 7e09 cabc 3eae 56bc 745a 0dbd
00000250: a947 193d 7b6b cdbc 76f9 35bd ee29 28bd
00000260: 1dd9 c83c cd15 693c b8f6 32bd 63ff 5ebd
00000270: 2eb7 a6bc 4df7 3fbd 3f30 703d 8d4a 4c3c
00000280: 4ee8 b7bc ae3c 02bd 011f 5dbd f7f7 2d3c
00000290: 6a2f 1d3d d71b 7dbd 2d9a dcbc 3e85 88bd
000002a0: ae15 6a3c c529 c9bc 46e6 083d 231a 2bbc
000002b0: 322e 9bbc 1530 31bc abb6 c43c eef8 e5bc
000002c0: 1aa2 d5bb 626a 003d 21b3 9dbc 8565 2abd
000002d0: 680d 75bc dc36 3dbb 4ec8 28bc 0a28 23bc
000002e0: ae21 333d 3df7 db3c 620b d73c 8ffe edbc
000002f0: 98bc 3a3d e25c 953c 4ab7 3b3d 28c3 06bd
00000300: 55a3 04bd 6c6d d4bc 2f2a b3bc d86b e53c
00000310: 61ef f0bc e85c 7cbd bb3c 24bd 4946 263d
00000320: 9072 0bbd 021d 11bd 3a66 e23c b3de b1bc
00000330: e383 903c ba5d 71bc c4b2 553d d1c4 edbc
00000340: d095 293d 538f 0a3b 16e2 aaba 3cea 803c
00000350: 229b 29bd e303 d43c 0502 acba 802e ef3c
00000360: 6c10 a6bc dffe ed3c cadf 3a39 1f38 35bd
00000370: 944e 213d b210 413d b6f1 d83c 8860 2f3c
00000380: 2705 663c 7ed7 22bd 2db8 f6bb 21d5 d43b
00000390: f0a8 223d f65a 2c3c b38f 98bc eb18 0abd
000003a0: 6cf0 2d3d 8f96 e8b9 16b1 c33a bcde 44bb
000003b0: b3d9 75bb c514 483c 12da 0cbd 49af f53c
000003c0: 1a33 7abd e25a 5abd db7f 0e3d 39a2 483d
000003d0: f2b6 7cbd b735 a63c 8a81 2fbd 6aaa 123d
000003e0: f1ec f23c 439f 0dbd c1cf a1bc 36e7 763b
000003f0: 80ce 4dbb 4333 77bd 66db 063d a0a9 ebbc
0.023603855 -0.068101935 -0.0069593657 -0.016111648 0.0033203126 0.050130513 -0.0032541396 0.023614997
-0.014958249 0.005761219 0.04126628 0.019300038 0.012234255 -0.024330156 -0.026643867 -0.029377418
-0.016061964 -0.021713842 0.0014459778 0.021673698 -0.045679692 -0.02916225 0.01480914 0.038111806
-0.006293943 0.013621915 -0.034133494 0.011550073 -0.022313686 0.023927364 0.049189735 0.05179174
-0.00590813 0.023428435 0.017330803 -0.0039906413 -0.04881255 -0.05831095 0.034148827 0.014898217
0.016935356 0.033734825 0.050323892 -0.0006277727 -0.006031799 -0.03482358 -0.012284362 -0.015301459
0.05233023 -0.017298518 0.04630787 -0.013790681 -0.037809905 0.04509774 -0.025987025 0.005646957
-0.004749113 -0.04193102 0.014148538 0.016311044 -0.005217173 -0.0097534405 0.001747839 -0.043369036
-0.04410367 -0.015181941 0.0025219894 0.0031440943 0.03551874 -0.02340082 -0.025982894 -0.051317893
-0.020177148 0.0008266151 -0.050318975 0.056495983 0.019889917 -0.0039829463 0.04301133 -0.033135485
-0.021022638 0.00432184 0.031138714 0.0004615695 0.042404283 0.006797565 -0.022241378 -0.035228066
-0.0038139771 0.032759268 -0.036048282 0.006705639 -0.03219983 -0.02337357 -8.453794e-05 -0.020207463
0.006573796 0.044421032 0.04202348 0.030342132 0.006705413 -0.024984347 -0.0010152212 0.034647346
-0.027808905 -0.04257955 -0.0016837299 0.031877134 -0.012811524 -0.005869364 -0.012935996 0.0068203793
0.038623624 -0.015907843 0.008221494 0.045974743 -0.044275608 0.016146753 -0.018570194 -0.056475505
0.024404014 -0.0389661 -0.035186317 0.040831883 -0.057308003 0.00873086 0.017602678 -0.04827991
-0.011233371 0.032669023 0.0020106176 0.014299614 0.00336675 -0.030609462 -0.013001904 0.054438177
-0.05114428 0.026733166 0.013277766 -0.047437605 -0.041267376 -0.059468377 0.039406784 0.009228874
0.041178346 -0.02466273 -0.013103066 -0.03451009 0.037421856 -0.025075665 -0.044427358 -0.041055612
0.02451759 0.014226389 -0.04369232 -0.054442775 -0.020351019 -0.046866704 0.05863976 0.012468946
-0.022449639 -0.03179615 -0.053984646 0.010618201 0.038375296 -0.06179413 -0.026928985 -0.06666039
0.014287395 -0.02455605 0.03342273 -0.010443243 -0.018942926 -0.010814686 0.024012884 -0.0280728
-0.006519568 0.031351455 -0.019250454 -0.041600723 -0.01495681 -0.002887181 -0.010301663 -0.0099582765
0.04373329 0.02685129 0.026250545 -0.029052047 0.045590013 0.018232767 0.045829095 -0.03290096
-0.032382328 -0.025931083 -0.0218707 0.028005525 -0.02941102 -0.06161204 -0.04009698 0.040594373
-0.034044802 -0.035428055 0.027636636 -0.021712637 0.017641013 -0.014731819 0.052172437 -0.029024513
0.041402638 0.0021142557 -0.001303735 0.015736692 -0.04140771 0.02588076 -0.001312316 0.029196978
-0.020271502 0.029052196 0.0001782171 -0.044242974 0.03938158 0.047135063 0.026482444 0.010704167
0.014039314 -0.03975629 -0.0075292797 0.0064951335 0.039711893 0.010519734 -0.018623209 -0.03371517
0.042465612 -0.00044362663 0.0014930095 -0.0030039987 -0.0037513792 0.012211983 -0.034387656 0.029990809
-0.06108389 -0.05330933 0.0347899 0.048982833 -0.061697908 0.020289285 -0.042848147 0.03580705
0.029653998 -0.034575712 -0.019752385 0.0037674434 -0.0031403601 -0.06035162 0.03292408 -0.028767407

fc2.bias f4 [10]
00000000: cbd1 18bd bbf6 11bb 8e5b 76bb 25d0 5e3c
00000010: e847 e9bc 035a 60ba d71f 6bbc 553b d1bb
00000020: fea0 643b aec6 84ba
-0.03730945 -0.0022272307 -0.0037591192 0.01359943 -0.02847667 -0.00085583347 -0.014350853 -0.0063852468
0.0034885998 -0.0010130012
