baseline/checkpoints/LeNet/P1_USPStoMNIST/LeNet_classifier_10.pt (torch_old, 20591 bytes, 2 tensors)

fc2.weight f4 [10, 500]
000000 df 5c c1 3c 2a 61 45 bd fb f3 45 3a d8 e9 14 bc
       0.023603855 -0.048188366 0.00075513095 -0.009088956
000010 17 c7 52 3b 01 62 48 3d bf b7 06 3c b1 85 b8 3c
       0.0032162124 0.04892159 0.008222519 0.022524687
000020 9d 63 4a bc e3 9a 95 3b 39 f3 22 3d 4a f6 b9 3c
       -0.012352851 0.004565583 0.039782736 0.022700448
000030 aa a9 8a 3c 2f 1d a6 bc 4f dd da bc ed 57 c6 bc
       0.016926605 -0.020277588 -0.026716856 -0.024211848
000040 da 52 a2 bb 07 e5 04 bc 9c 8f 62 3a 3d 87 9c 3c
       -0.0049537243 -0.008111245 0.0008642615 0.019107455
000050 a5 50 2a bd 80 06 ef bc a3 77 71 3b 20 1b 1c 3d
       -0.041580815 -0.029177904 0.003684499 0.038111806
000060 6c 3d ce bb 2b ac ff 3b 91 cf 0b bd 7c 55 3a 3c
       -0.006293943 0.0078025064 -0.034133498 0.01137292
000070 d6 78 2f bc 50 2b b7 3c 0f 83 30 3d 1d d1 3a 3d
       -0.010709962 0.02235952 0.043093737 0.045609582
000080 e2 d5 0c bc fa 1e bf 3c 3f a9 85 3c 10 66 91 3a
       -0.0085959155 0.0233302 0.016316054 0.0011093039
000090 9c b9 23 bd bb 9e 54 bd c6 16 f7 3c a6 3b 90 3c
       -0.039971933 -0.05190919 0.030162226 0.017606568
0000a0 4e 8b 8c 3c b3 fd fb 3c b0 eb 4f 3d 30 6f 2b 39
       0.01715627 0.030760622 0.05076188 0.00016349251
0000b0 c2 2e df bb bf b9 0e bd cb 06 1b bc f3 4f 4c bc
       -0.006810994 -0.03484511 -0.009462069 -0.012470233
0000c0 0b 10 4e 3d 4b fe 62 bc 4a d6 27 3d 4f f2 61 bc
       0.05030827 -0.0138545735 0.040975846 -0.013790681
0000d0 2c 14 ce bc c5 44 1b 3d be e2 d4 bc e7 75 90 3c
       -0.025156103 0.03790738 -0.025987025 0.017634345
0000e0 24 2b 45 bb 23 f1 16 bd 49 cf 67 3c 7a 09 65 3c
       -0.0030085528 -0.03685106 0.014148542 0.01397931
0000f0 01 0e a5 3b e5 cc 1f bc cb 17 e5 3a 8c e1 29 bd
       0.00503707 -0.0097534405 0.0017478404 -0.041474864
000100 f2 a8 1b bd a6 67 2e bc 55 1d 34 3b c3 35 38 3b
       -0.038002916 -0.010644829 0.0027483304 0.0028108216
000110 19 7c 11 3d ca d3 79 bc ad e5 d2 bc bb f1 0e bd
       0.03551874 -0.015248248 -0.025744284 -0.0348985
000120 e5 63 8a bc aa 87 82 3b a3 54 37 bd 46 a4 37 3d
       -0.016893337 0.0039834576 -0.04475845 0.044834398
000130 48 69 91 3c 6d 92 f1 3b a2 a0 3b 3d d4 0a a9 bc
       0.017750397 0.0073721916 0.04580749 -0.020635046
000140 90 3d 99 bc 81 3f 24 3c 6e e7 e9 3c af 82 51 3a
       -0.018706113 0.010024906 0.028552737 0.00079921907
000150 a5 45 22 3d 98 71 30 3c af 7b b2 bc b2 a5 e9 bc
       0.0396172 0.01076927 -0.021787493 -0.028521392
000160 6b 4b d6 bb c6 a1 f7 3c 5d a7 13 bd 67 97 34 3c
       -0.0065397522 0.030228507 -0.036048282 0.011022425
000170 f8 e3 03 bd 18 95 8f bc 0c a2 a3 b8 60 25 a2 bc
       -0.03219983 -0.017527148 -7.802629e-05 -0.019793212
000180 43 f9 f5 3b 39 b5 34 3d 02 e6 2c 3d a3 d5 02 3d
       0.007506521 0.04411814 0.04221154 0.03194202
000190 d4 1c 5c 3c a1 8c cc bc af 91 d2 39 47 2f 0b 3d
       0.013434608 -0.0249694 0.00040162864 0.033980634
0001a0 88 64 a2 bc af 4b 01 bd 0e bf d3 bb cd ee f5 3c
       -0.019823328 -0.031566318 -0.0064619845 0.030021096
0001b0 51 c1 21 bc cb 53 c0 bb 80 f1 53 bc 7d 7d df 3b
       -0.00987275 -0.005869364 -0.012935996 0.0068203793
0001c0 cc 89 12 3d 54 50 82 bc 1c 33 3b 3c 35 b5 3a 3d
       0.035775945 -0.015907444 0.01142576 0.04558297
0001d0 e3 37 35 bd c5 b0 1d 3c 85 20 98 bc d9 33 33 bd
       -0.04424275 0.009624665 -0.018570194 -0.043750618
0001e0 63 e5 c4 3c 8d ea 20 bd 85 34 0a bd 30 a1 27 3d
       0.024035161 -0.039286185 -0.033741493 0.040925205
0001f0 9b 79 49 bd 7c 31 14 3c 9b d3 91 3c a3 13 ea bc
       -0.049188238 0.009045001 0.017801097 -0.028573817
000200 91 e0 a9 bb 3e cd 04 3d 91 c4 03 3b 98 67 1f 3c
       -0.005184241 0.032422297 0.0020106176 0.0097292885
000210 a5 45 f1 3b b2 c0 fa bc 97 33 21 bc c3 1a 33 3d
       0.0073630386 -0.030609462 -0.00983896 0.043726694
000220 61 6f 36 bd 60 5b a8 3c 20 3d 56 3c dc b1 0f bd
       -0.044539813 0.020551383 0.013076097 -0.03508173
000230 c3 0b 28 bd c8 45 4e bd 91 27 12 3d b4 34 17 3c
       -0.04102684 -0.050359517 0.035682265 0.009228874
000240 43 bc 28 3d cc 57 81 bc 03 a2 f7 bb 23 df 15 bd
       0.041195165 -0.015788935 -0.007557155 -0.036589753
000250 ae a9 12 3d c9 2c b8 bc ad 76 0f bd c5 36 b3 bc
       0.03580635 -0.022482293 -0.035025287 -0.021876702
000260 ea 0a d0 3c d8 7e 14 ba c8 96 14 bd fd 26 51 bd
       0.02539583 -0.0005664653 -0.03627661 -0.051062573
000270 2e b7 a6 bc 4e 60 08 bd 7c d2 53 3d 81 a4 4b 3c
       -0.020351019 -0.03329497 0.051714405 0.0124293575
000280 c6 e7 b7 bc b1 82 0f bd 9d 1c 39 bd ee 85 1d 3c
       -0.022449385 -0.035036746 -0.045193303 0.009614451
000290 1b d7 0f 3d ea 1c 4e bd 4d 49 b3 bc 1d 31 49 bd
       0.03511725 -0.050320543 -0.021885538 -0.049119104
0002a0 ed 9b 79 3c e6 aa 00 bd 59 dc 00 3d c7 05 2b bc
       0.0152349295 -0.03141298 0.03146014 -0.010438389
0002b0 32 2e 9b bc da 38 28 bc d7 c5 c0 3c fc a9 02 bd
       -0.018942926 -0.010267461 0.023531837 -0.03190039
0002c0 f0 8d 26 bb a1 1e ef 3c bd ce 3a bc 1c 65 2a bd
       -0.0025414191 0.02918941 -0.011401829 -0.04160033
0002d0 07 f9 59 bb 3d 24 2d bb f1 ec 36 bb 0a 28 23 bc
       -0.0033260004 -0.0026419305 -0.0027912224 -0.0099582765
0002e0 ae 21 33 3d 79 1b cc 3c db 03 f9 3c c0 9c 17 bd
       0.04373329 0.024915444 0.030397346 -0.037014723
0002f0 d8 e3 28 3d 2d 4a 98 3c c7 39 36 3d 28 7a 05 bd
       0.041232914 0.018590057 0.044488695 -0.0325872
000300 ae 00 dd bc 2a b9 82 bc 01 82 3d bc f5 6d e5 3c
       -0.026977863 -0.015957434 -0.01156664 0.028006533
000310 11 54 92 bc c3 f2 4c bd 63 1d 10 bd 49 46 26 3d
       -0.017862352 -0.050036203 -0.035184275 0.040594373
000320 90 72 0b bd e8 f6 d8 bc 87 c5 bc 3c 33 08 f9 bc
       -0.034044802 -0.026484922 0.023043407 -0.030399418
000330 ee 11 96 3c ba 5d 71 bc 4f f4 47 3d ef 95 a1 bc
       0.018319096 -0.014731819 0.048816975 -0.019724814
000340 f7 5f 0a 3d 05 4e 35 3b 0b 6a fb b9 cf b5 88 3c
       0.033782925 0.0027664911 -0.0004795346 0.016688256
000350 54 30 05 bd e3 03 d4 3c d0 0c 02 3c b5 ca b9 3c
       -0.032516792 0.02588076 0.007937625 0.022679666
000360 1c 54 a3 bc 43 8f de 3c a7 a1 63 3b 46 b5 a9 bc
       -0.019937567 0.027167922 0.0034733803 -0.02071632
000370 76 1c 12 3d bb 9d 02 3d 28 08 d9 3c cc 1f 0e 3c
       0.035671674 0.031888705 0.026493147 0.008674573
000380 b3 22 97 3c 40 eb 8c bc 2d b8 f6 bb ad 3d e2 3b
       0.018449163 -0.01720202 -0.0075292797 0.006904325
000390 b1 a9 22 3d f6 5a 2c 3c 09 c7 f1 bb fd 30 ae bc
       0.03971261 0.010519734 -0.007378463 -0.021263594
0003a0 d8 4a e7 3c 8f 96 e8 b9 88 78 70 3a ea 02 ee 3b
       0.02823393 -0.00044362663 0.0009173234 0.007263531
0003b0 b3 d9 75 bb f0 d8 86 3c b1 73 7f bc e0 74 da 3c
       -0.0037513792 0.016460866 -0.015591548 0.026667058
0003c0 6f e6 37 bd 89 f6 36 bd db 7f 0e 3d e9 1c 44 3d
       -0.044897493 -0.044668708 0.0347899 0.047879133
0003d0 95 a7 50 bd 58 42 22 3d 6f 4f 09 bd b7 da 04 3d
       -0.05094107 0.03961405 -0.03352302 0.032435145
0003e0 f1 ec f2 3c 43 9f 0d bd 69 4e 58 bc 8b 76 c5 3a
       0.029653998 -0.034575712 -0.013202288 0.0015065236
0003f0 61 b8 b9 37 69 bf 2d bd 7b 03 0c 3d 76 7b b3 bc
       2.2139577e-05 -0.04241887 0.034183007 -0.021909457

fc2.bias f4 [10]
000000 70 36 0e bd e7 ee fc 3a 03 ae 6f bb 7a 9f 54 3c
       -0.034719884 0.0019297273 -0.0036572225 0.012977475
000010 ff de ec bc 61 53 fe b9 ee 73 57 bc 4d 99 d8 bb
       -0.028914927 -0.00048508777 -0.013150198 -0.0066100718
000020 62 3d 98 3a 90 04 a6 ba
       0.0011614973 -0.0012666155
