baseline/checkpoints/LeNet/P1_USPStoMNIST/LeNet_classifier_160.pt (torch_old, 20591 bytes, 2 tensors)

fc2.weight f4 [10, 500]
0.023603855 -0.07919908 -0.011434067 -0.02057424 0.0015521899 0.051942915 -0.0033107726 0.028754056
-0.014340199 0.005626209 0.039963294 0.021808952 0.009830947 -0.025694875 -0.06445156 -0.0316263
-0.025960984 -0.030640934 0.0005288598 0.02306674 -0.046900366 -0.02917513 0.020916201 0.038111806
-0.0062939506 0.026415983 -0.034133494 0.013627602 -0.027818475 0.024534917 0.05146259 0.05415142
-0.0028719555 0.021006271 0.016423661 -0.007204816 -0.05215312 -0.05631189 0.036371805 0.013804162
0.016734192 0.03467857 0.048319597 -0.0033229326 -0.004633444 -0.03480891 -0.013045581 -0.018585267
0.052299615 -0.014396896 0.049874462 -0.013790681 -0.05161396 0.050401267 -0.025987025 0.01129466
-0.007151617 -0.07111414 0.014148538 0.020317297 -0.005931109 -0.0097534405 0.001747839 -0.034165394
-0.048038226 -0.016872214 0.0061195027 0.0031440943 0.03551874 -0.027196603 -0.025757663 -0.06209867
-0.021516535 -0.0021303077 -0.052199207 0.06667996 0.025232509 -0.010035676 0.04228007 -0.03406505
-0.024484782 0.0010390135 0.031050585 0.000461285 0.042364508 0.0070731724 -0.0451844 -0.047530364
-0.006282774 0.03162128 -0.036048282 0.004048732 -0.032998275 -0.026061641 -8.565639e-05 -0.014344943
0.005348348 0.043594647 0.039996535 0.033720564 0.009415315 -0.024984347 -0.001212982 0.03452252
-0.028803833 -0.05072028 0.012126733 0.03088159 -0.015639096 -0.005869364 -0.012935996 0.0068203793
0.038717233 -0.015907843 0.009099879 0.045019228 -0.044275608 0.0186302 -0.018570194 -0.062339712
0.024404014 -0.03869189 -0.03385945 0.040831883 -0.060993638 0.00873086 0.017602678 -0.08228161
-0.016319705 0.036964033 0.0020106176 0.023851616 0.0013030265 -0.030609462 -0.012931193 0.08287903
-0.04690433 0.03576179 0.010746189 -0.0572798 -0.041267376 -0.06438423 0.038840175 0.009228874
0.041178346 -0.032362968 -0.012330163 -0.03810532 0.038553845 -0.024979597 -0.0520356 -0.062529124
0.024052931 0.017334905 -0.0468871 -0.093121156 -0.020351019 -0.06536621 0.06193483 0.011552341
-0.022449723 -0.021406965 -0.05564976 0.009051443 0.036828034 -0.071598165 -0.0315553 -0.077440806
0.012098888 0.0021250804 0.032952968 -0.010443243 -0.018609434 -0.01185849 0.023370482 -0.024284268
-0.009406455 0.03250122 -0.023502618 -0.041600723 -0.02194207 -0.0009917847 -0.011132122 -0.0099582765
0.063935116 0.029220823 0.02588796 -0.016943205 0.049247682 0.018232767 0.045529623 -0.03290096
-0.033684433 -0.031461418 -0.02500743 0.02597618 -0.03956904 -0.06773369 -0.04576159 0.040429763
-0.034044802 -0.031037377 0.032727685 0.00026063266 0.021053044 -0.015062221 0.05475369 -0.035229422
0.04455162 -3.4379893e-05 -0.0030709782 0.0141842 -0.04939772 0.02588076 -0.0034586643 0.039780032
-0.020271502 0.02970673 -0.003949401 -0.065100156 0.041792538 0.05622008 0.025956446 0.012144007
0.010014036 -0.045865655 -0.0075292797 0.0046418733 0.039711893 0.010519734 -0.023555532 -0.03727112
0.056827597 -0.00044362663 0.00068869843 -0.0055919243 -0.0034200794 0.01029757 -0.05670215 0.030418087
-0.06829462 -0.061178133 0.0347899 0.047462758 -0.06791151 -0.0038784912 -0.04503376 0.039644472
0.029653998 -0.034575712 -0.022863915 0.013983275 -0.0063907634 -0.06817439 0.031287506 -0.032161042
00000000: df5c c13c 2133 a2bd f455 3bbc 4f8b a8bc
00000010: da72 cb3a 18c2 543d 8cf9 58bb a08d eb3c
00000020: 27f3 6abc 105c b83b 8db0 233d b0a8 b23c
00000030: fb11 213c 0f7e d2bc 2eff 83bd 948a 01bd
00000040: 21ac d4bc b202 fbbc 2ea3 0a3a 76f6 bc3c
00000050: 991a 40bd af00 efbc 7458 ab3c 201b 1c3d
00000060: 7c3d cebb 5566 d83c 90cf 0bbd 4e46 5f3c
00000070: 92e3 e3bc 73fd c83c 70ca 523d e1cd 5d3d
00000080: 6b37 3cbb 5815 ac3c ea8a 863c 6116 ecbb
00000090: 839e 55bd 4ca7 66bd 9afa 143d da2a 623c
000000a0: 2516 893c 1e0b 0e3d c5ea 453d 8fc5 59bb
000000b0: 25d4 97bb ca93 0ebd 22bd 55bc 2140 98bc
000000c0: 1f38 563d f5e0 6bbc 2a49 4c3d 4ff2 61bc
000000d0: 2969 53bd 8f71 4e3d bee2 d4bc 3d0d 393c
000000e0: 1d58 eabb 4aa4 91bd 45cf 673c 7670 a63c
000000f0: c059 c2bb e5cc 1fbc bf17 e53a 03f1 0bbd
00000100: bbc3 44bd 9937 8abc 1c86 c83b 260d 4e3b
00000110: 197c 113d 69cb debc bc01 d3bc 2d5b 7ebd
00000120: 7243 b0bc a29c 0bbb d6ce 55bd 818f 883d
00000130: 68b4 ce3c ad6c 24bc de2d 2d3d cb87 0bbd
00000140: 4f94 c8bc 822f 883a cc5d fe3c a0d8 f139
00000150: 6886 2d3d 12c6 e73b 4713 39bd 33af 42bd
00000160: badf cdbb 5185 013d 5da7 13bd 3aab 843b
00000170: 3329 07bd 397f d5bc 6da2 b3b8 0d07 6bbc
00000180: 3241 af3b 4d90 323d 68d3 233d 931e 0a3d
00000190: b242 1a3c f9ab ccbc ecfc 9eba 7c67 0d3d
000001a0: 04f6 ebbc 11c0 4fbd 34af 463c 63fb fc3c
000001b0: 901d 80bc cb53 c0bb 80f1 53bc 7d7d df3b
000001c0: f695 1e3d 2a51 82bc a917 153c 1566 383d
000001d0: 575a 35bd 5c9e 983c 8520 98bc ed57 7fbd
000001e0: edea c73c 637b 1ebd 35b0 0abd 553f 273d
000001f0: 77d4 79bd e20b 0f3c 7e33 903c 4383 a8bd
00000200: e7b0 85bc 9967 173d 91c4 033b 7764 c33c
00000210: 50ca aa3a b2c0 fabc 5bdd 53bc 7bbc a93d
00000220: c11e 40bd f47a 123d c910 303c 399e 6abd
00000230: fb07 29bd e1db 83bd e016 1f3d b434 173c
00000240: a0aa 283d 088f 04bd 7404 4abc 5314 1cbd
00000250: a3ea 1d3d 03a2 ccbc 4823 55bd 450f 80bd
00000260: a70a c53c ee01 8e3c b00c 40bd 4eb6 bebd
00000270: 2eb7 a6bc b8de 85bd 60af 7d3d 0846 3d3c
00000280: 7be8 b7bc a95d afbc 01f1 63bd 814c 143c
00000290: fed8 163d 0fa2 92bd 2140 01bd 4999 9ebd
000002a0: 6a3a 463c ef44 0b3b b1f9 063d 231a 2bbc
000002b0: d072 98bc 1d4a 42bc 7473 bf3c cdef c6bc
000002c0: 881d 1abc 0020 053d 9088 c0bc 8565 2abd
000002d0: dbbf b3bc c6fe 81ba 8163 36bc 0a28 23bc
000002e0: 6af0 823d 8260 ef3c fd12 d43c 7acc 8abc
000002f0: f0b7 493d e25c 953c 457d 3a3d 28c3 06bd
00000300: b0f8 09bd b0dd 00bd 62dc ccbc ffcb d43c
00000310: 2513 22bd f6b7 8abd 8170 3bbd ae99 253d
00000320: 9072 0bbd 1942 febc 770d 063d 86a5 8839
00000330: 6f77 ac3c 89c7 76bc 6845 603d ba4c 10bd
00000340: c27b 363d 2133 10b8 7742 49bb d964 683c
00000350: 4355 4abd e303 d43c c2aa 62bb 63f0 223d
00000360: 6c10 a6bc 875b f33c fa69 81bb 3b53 85bd
00000370: a72e 2b3d 0747 663d 9da2 d43c a8f7 463c
00000380: e911 243c a0dd 3bbd 2db8 f6bb db1a 983b
00000390: f0a8 223d f65a 2c3c 88f7 c0bc 9aa9 18bd
000003a0: 0ec4 683d 8f96 e8b9 c589 343a 763c b7bb
000003b0: 6923 60bb 24b7 283c 8340 68bd 5a2f f93c
000003c0: 0dde 8bbd ec95 7abd db7f 0e3d 4f68 423d
000003d0: 3115 8bbd 492e 7ebb 5275 38bd 3e62 223d
000003e0: f1ec f23c 439f 0dbd 1b4d bbbc 1b1a 653c
000003f0: 9c69 d1bb 049f 8bbd 5427 003d 4cbb 03bd

fc2.bias f4 [10]
-0.037301898 -0.0044896184 -0.0039224806 0.013781467 -0.028998109 -0.0017188392 -0.01382734 -0.0059642443
0.004656018 -0.0010999122
00000000: e0c9 18bd a61d 93bb 2788 80bb aacb 613c
00000010: 718d edbc ac4a e1ba 118c 62bc b56f c3bb
00000020: 8391 983b ee2a 90ba
