baseline/checkpoints/LeNet/P2_MNISTtoUSPS/LeNet_classifier_65.pt (torch_old, 20591 bytes, 2 tensors)

fc2.weight f4 [10, 500]
000000 3b f2 6b 3d 10 23 95 bd 82 ac 18 be ae 14 3f 3d
       0.057604056 -0.07282078 -0.14909557 0.04665058
000010 39 b6 76 3d 3e 47 51 be 89 71 39 be 76 7a 98 3c
       0.060232375 -0.20437333 -0.18109716 0.018613081
000020 fd 39 40 bd 43 2d 48 3d 19 1a 1c bd 7d e0 d1 3c
       -0.046930302 0.04887129 -0.038110826 0.02561974
000030 c9 58 90 bc 37 82 73 be a1 db 51 3d dc 24 ec 3b
       -0.017620461 -0.23780142 0.051234845 0.0072065424
000040 01 c1 74 bc 67 ac ea bc bf 14 26 bd 10 58 ea bd
       -0.014938594 -0.028646661 -0.04054713 -0.11442578
000050 24 ca a1 bd a1 64 89 bd 84 4a d1 be 8e 73 86 bd
       -0.078998834 -0.067086466 -0.40877163 -0.06565009
000060 09 50 7d be f5 18 68 bd 45 d9 31 3d 32 84 4f bd
       -0.24737562 -0.056664426 0.043420095 -0.05066318
000070 ae 17 20 bd c6 b2 88 bc a6 1a b8 3c 50 32 a2 3c
       -0.039085083 -0.016686808 0.022473644 0.019799381
000080 f2 10 f8 3c 86 ca 2f 3b d0 d0 e9 bc a8 31 40 3d
       0.030281518 0.0026823594 -0.028541952 0.046922356
000090 20 0d 4e 3b 49 c0 b8 bd 72 5e 58 bc 04 0f 56 3d
       0.0031440929 -0.090210505 -0.013206111 0.052260414
0000a0 db 0e 84 bb 11 d3 55 3d 08 87 16 3d 49 75 d2 3c
       -0.004030091 0.05220324 0.03674987 0.025690692
0000b0 d7 e4 d2 bd 2a 3b 17 3c f4 77 67 bd ef 56 10 3c
       -0.10297554 0.009230414 -0.05651088 0.008809789
0000c0 ae 4a a5 3d 3d 3b f5 bd 54 f4 80 3c e4 8e 5d be
       0.08070885 -0.119741894 0.015741505 -0.2163654
0000d0 89 2b c5 bd 44 4c 3f bc cf 1c b7 bd 20 05 a1 3b
       -0.09627444 -0.011675898 -0.08941042 0.004913941
0000e0 db 7a 79 3d a9 79 87 3c 87 5d 13 3d da 6d 39 bd
       0.06090818 0.016537504 0.035977867 -0.04527078
0000f0 81 0d 63 3d 32 1c da bd bd 7c 5b be 21 89 21 3d
       0.0554328 -0.10649909 -0.21434303 0.039437417
000100 58 b7 c3 3d d2 04 a0 3d 54 00 88 3d af 2c af 3c
       0.095564544 0.078134194 0.066406876 0.021383611
000110 68 14 0a bd 15 f3 e5 bd b1 04 08 3c d9 af c6 bd
       -0.033710867 -0.11228005 0.0083019 -0.09701509
000120 56 db 4c be a8 9c 38 3d b4 be da bc 3a 20 74 3d
       -0.20005545 0.045071274 -0.026702262 0.059601046
000130 9f 7a 97 be 98 c4 10 3d dd 88 a9 bc 2c 3d d5 3c
       -0.2958574 0.035343736 -0.020695144 0.026030146
000140 86 cb 0a be 7a 17 24 be 6a 5f 27 bd 55 bb a8 3d
       -0.135542 -0.1602458 -0.04086248 0.08238856
000150 da 24 42 3d a9 5e cb bc 14 d6 5f 3d 37 9e 83 3c
       0.047398426 -0.02482541 0.05464752 0.016066654
000160 2f f1 63 bc 3d c7 84 bd 61 a1 a9 3d bd b9 63 bd
       -0.013912483 -0.06483314 0.08282734 -0.055597056
000170 d1 53 81 3d 7e b5 67 3c b4 fa 4f 3d db 27 ce 3c
       0.06314815 0.014142392 0.0507762 0.025165489
000180 0a 85 cf bd 62 37 44 bb ea f3 c9 3d 7e af b5 bb
       -0.10132797 -0.0029940237 0.09860976 -0.005544602
000190 f5 d2 54 3d c4 e4 5f 3d 2e 09 40 be 4c 44 a6 3c
       0.051958997 0.054661527 -0.18753502 0.020296238
0001a0 90 85 32 be 5c 7b 80 be 8f 38 cc bd e1 da aa bd
       -0.17433763 -0.25094116 -0.09971725 -0.08342529
0001b0 b3 c4 c8 bc 51 04 4f be 84 2b bc bc 5f 35 57 bc
       -0.024507856 -0.2021649 -0.022969969 -0.013135283
0001c0 77 82 08 be a7 bc 2f 3d a5 a3 27 be ec bb 46 3d
       -0.13331018 0.042904522 -0.16371019 0.04851906
0001d0 dc 2b 96 3c 1d 56 35 bc 0c 0f d8 3b 23 46 c5 bd
       0.01833146 -0.011067894 0.0065935906 -0.09632518
0001e0 c6 16 8b 3c d5 d8 2b 3d 8d d3 1a 3d 18 60 14 3d
       0.016978633 0.041954834 0.037799407 0.036224455
0001f0 1c 92 fb bd 0d 19 07 bd 30 29 84 bd a7 12 41 3d
       -0.122837275 -0.032982875 -0.064531684 0.04713693
000200 72 3a b4 bc 17 cc 3e 3d d0 08 33 3d 0d 83 3c be
       -0.022000525 0.046581354 0.043709576 -0.18409367
000210 40 35 2e 3d 86 51 32 bd 61 57 48 bd 90 33 a2 bd
       0.042531252 -0.043534778 -0.048911456 -0.07919991
000220 5c a9 3d 3c f0 e4 b0 bd 00 ca a7 bd 96 b8 2f 3d
       0.011576023 -0.08637416 -0.08192825 0.042900644
000230 a0 ed df 3b 25 3a 34 3c 46 ec 06 3d fc 48 1a be
       0.006833747 0.011000191 0.03294017 -0.15066904
000240 9b fa b6 3b d1 7a 5a bb 36 a2 86 bd 30 94 80 bd
       0.0055840737 -0.0033337364 -0.06573908 -0.062782645
000250 2f ab b4 bd 3c 98 1c bd 12 13 66 3c 31 ac 9f bd
       -0.08821713 -0.03823112 0.014042633 -0.07796515
000260 06 f9 8a bc 59 04 95 3d 56 a7 19 bd 5a 43 11 3d
       -0.016964447 0.0727622 -0.0375131 0.035464622
000270 2a 55 83 3c 12 7d 80 3d d6 29 ee bc fd 35 b1 bd
       0.01603182 0.06273855 -0.029072683 -0.086528756
000280 9e 9e 9e bd 53 d9 f3 bc 86 c9 db 3c 04 88 10 3c
       -0.077450976 -0.029766714 0.026829492 0.008821491
000290 94 1d 21 3d 2d 50 2d 3d 54 04 16 be 84 49 b7 bd
       0.03933485 0.04231279 -0.14650089 -0.08949569
0002a0 d1 ec bc 3c 7f ea f1 bd ec bf 8f bd ad b6 6a bc
       0.023062142 -0.11812305 -0.07019028 -0.01432578
0002b0 d7 a7 6e bd 79 52 c2 bd 97 ea 36 bc 83 3a 9c 3d
       -0.058265533 -0.09488387 -0.011164329 0.07628348
0002c0 cd 18 ac bc 53 7a ed 3d 23 73 bc bd b0 0d 81 bd
       -0.02100792 0.11595597 -0.09201648 -0.06301439
0002d0 0f a8 94 bc 5e a8 81 3b 51 26 b9 3c ed 55 c8 3c
       -0.018146543 0.0039568385 0.022601278 0.024455035
0002e0 a9 f7 17 3d c3 95 10 bd 88 d6 5a be 82 b8 bc bc
       0.03710142 -0.035299074 -0.213709 -0.023037199
0002f0 a1 8a bc bc 3e ac 87 bc d4 61 60 3c d0 c9 20 bd
       -0.023015322 -0.016561624 0.013695199 -0.039254963
000300 bc 03 54 bc d7 0a 14 3d 9d 0a e4 bd 91 3b e5 3d
       -0.0129403435 0.03614315 -0.11134837 0.11193002
000310 10 d2 84 3d 34 24 0d be 8d 71 d1 3c c7 6b a5 3c
       0.06485379 -0.13783342 0.02556684 0.020192994
000320 6d 6e 53 be 51 64 ba bd 32 de 1e be 91 a2 1d 3d
       -0.20647593 -0.09101165 -0.15514448 0.038485114
000330 72 83 34 3d 3a 47 74 3d 9c 76 3b bd 82 b9 04 be
       0.04407067 0.05963824 -0.04576741 -0.1296139
000340 2b ff 8d 3d ac 21 a7 bc f1 5c d3 3c c1 00 ca bd
       0.06933435 -0.020401798 0.025801154 -0.09863425
000350 26 95 30 ba 98 90 e7 3c 93 b7 ad 3c 5e 66 1e 3d
       -0.0006736092 0.02826719 0.0212057 0.038671844
000360 f2 91 e9 3c ce 1b cf bd 94 74 4a bb c9 ed f1 3c
       0.028511975 -0.10112725 -0.003089224 0.02953233
000370 3e 71 88 3c 9c 76 61 3c 44 99 4b 3c a0 10 98 bd
       0.01665556 0.013761189 0.012426678 -0.07425046
000380 f3 17 35 3d 2b f8 a9 3d e3 3d 1a 3d 24 fc 03 3d
       0.044212293 0.082992874 0.037656676 0.032222882
000390 4e 4c f9 bc f8 7e 40 3d f2 f8 0e 3b e8 1f c4 bc
       -0.030431893 0.046996087 0.0021815863 -0.023940995
0003a0 d2 d9 9d bc 45 8f 84 bd 4e 29 cb bd a6 25 ee bd
       -0.019268904 -0.06472639 -0.099199876 -0.116282746
0003b0 d6 dc c6 3c d5 e0 4f bb e6 06 f1 bc 69 6d 03 3d
       0.024275225 -0.0031719704 -0.029422235 0.032086764
0003c0 9b 72 55 bd c5 a6 97 bd d1 ab 87 3b d2 07 02 be
       -0.05211125 -0.07404856 0.004140355 -0.12698296
0003d0 b9 e2 29 3c 9f e3 8c bc 6d 64 29 3d f2 8e 0a 3d
       0.010368996 -0.017198382 0.04135554 0.03382773
0003e0 a9 48 6e bd 04 36 ab bc dc 37 b2 bd a1 92 24 be
       -0.058174763 -0.02089978 -0.087020606 -0.1607156
0003f0 07 1d 7b 3d 80 de f0 3c e5 7d a3 bc 55 8f a7 3c
       0.06130698 0.029402971 -0.019957492 0.020454088

fc2.bias f4 [10]
000000 e6 cb 66 bc 8e 16 15 3d 7f 99 60 3c 94 29 82 3c
       -0.014086699 0.036398463 0.013708471 0.015888967
000010 11 d6 18 3c 05 2b 03 bd 25 ea 95 bb 98 e4 2f bd
       0.009328381 -0.03202345 -0.0045750313 -0.042942613
000020 dc 6e e7 bc 10 30 22 3c
       -0.028251104 0.009899154
