baseline/checkpoints/LeNet/P1_MNISTtoUSPS_1/LeNet_classifier_35.pt (torch_old, 20591 bytes, 2 tensors)

fc2.weight f4 [10, 500]
00000000: f4b6 573d 50a9 87bd f950 4a3d 3413 8ebc
00000010: e8af 51bd 15bd 2b3d b7f7 c53c a654 06bd
00000020: 73fa 74bc 2dc5 d7bd 6f2f 113b 1331 093d
00000030: f9ca e23c 7bf4 3fbd 9b4e b3bc 3141 12bd
00000040: 08b6 213d b9ce 8c3d 13ae 223c 9147 bbbd
00000050: 3f09 38bd 7f9b 0c3d 5c8a a9bc 7a44 a4bc
00000060: 8107 e53b 83c8 9d3c 01bc 4c3c 3957 023c
00000070: ae56 c6bd f2cc 923c c7a0 023d cef2 91bd
00000080: e811 a03c 7e91 ecbd 673f 20bd 581b 32bd
00000090: 363b 1abb 0849 fd3c a694 93bd a877 523c
000000a0: c46f 8abb f1f2 5fbc 7cea cb3c 1a39 243d
000000b0: ab55 3cbd ef70 09bc ef4a d03c 5a51 0abd
000000c0: 097e 2c3d 9f5d 87bd 3792 62bd cb6c 1ebd
000000d0: 6129 a6bd 0328 f7bc 0c0c abbb eded 9f3c
000000e0: 6ed8 4e3d 10ef d3bd e15e 433d 0e77 623d
000000f0: 8132 33bd 8098 133c ff99 d43c 7181 8e3d
00000100: 1e83 2ebc 9273 16bc 755a 21bd 4e25 763d
00000110: 748f 503d 2b08 8ebd 0b33 77bd abcb 963c
00000120: 68cc eb3c 284d 41bd 2f63 6bbc e39f abbd
00000130: 1fb9 f73c 21c0 753d 68ac 943d 9c69 77bd
00000140: 9209 3dbd d5c1 763d fdaf c7bc 9b4b f93c
00000150: 1e0e b9bd da64 a4bb 0a0a 973c 0cec 2b3d
00000160: b484 c3bc 4e9c 18bd 1758 033d 3949 19bd
00000170: 8e1e 1b3d 2ba6 78bc b770 44bd d536 013d
00000180: a547 59bd d5fe c33c d09e 2a3d 1382 4fbd
00000190: ca27 90bd bd65 88bd 6a12 5dbd 482b e5bc
000001a0: 50c6 703c 94ec afbd 0bba 0a3d f340 a2bb
000001b0: 54d7 48bd 7021 d5bc 7457 9d3c 2d5f 9c3d
000001c0: cc53 013d 93e9 dc3c 3efd a3bb afed 533c
000001d0: 2948 98bd 36c0 dbbb c603 603d 2895 823a
000001e0: 7fc9 01bd 3e9a 4bbd be75 37bb bc82 3ebb
000001f0: 6fc3 ed3c 401d 733c 6286 ea3c cac8 87bd
00000200: 8bf9 293d c807 05bb 32b2 c73b 3615 16bd
00000210: f3f0 8c3d 67cc 33bd 141b 053d 544b 803d
00000220: 0a62 403d 6ddd 363d a5a1 cb3a b846 8b3c
00000230: ca06 0f3d 0fde 81bd 5f99 5e3d 12cc 3cbc
00000240: c97b 173d 1095 953d 36d3 02bd 18df 38bc
00000250: ac1a 2fbd f307 f83c 584e ea39 7012 81bd
00000260: abf5 6c3c cdfa bc3c d67e 14bd 21b3 c03c
00000270: dd7d 39bc bedb aabd e888 77bd ec0f 0bbe
00000280: 02dd cd3c 27b5 a5bd f167 163d 134e 083d
00000290: 4973 753b 8858 d1bc 4692 d1bc 0b71 ae3c
000002a0: 6224 1cbd 56a7 a7bd 98e5 8e3c 08cf febc
000002b0: 2d61 413d ccdc 8c3c f0d2 c0bc 4bc4 26bd
000002c0: 3c8c fc3c 5494 a83b c037 a5bd 4ff8 23bd
000002d0: 7a32 3bbd 11e3 8d3b 2654 543d 2f39 343b
000002e0: ef51 ac3c 1241 92ba 79f7 8abc 1081 4dbd
000002f0: f86d 4e3c 8523 4e3d 1b44 f0bc 8b44 afbc
00000300: 69ef 54bd a97c 98bb fdd7 143d 773c 92bb
00000310: 79a3 be3c 08b6 27bd a04b 9fbd 5c65 afbc
00000320: 7f0e 46bd 0969 00bc 7e00 dabc 2110 13bd
00000330: cafa 83bd 027e 813c d492 aabc 33e1 5a3c
00000340: 8604 603d 03ef 173d afd2 313d 6e7f 92bd
00000350: f295 f83b 333f 19bc 2c57 a53b c7bb 523d
00000360: eb5e 093d a5fa 8dbc 91d5 36bc 0f4a 23bb
00000370: 1444 033d d7e3 3b3c d7cd 6d3d 583a 6f3d
00000380: 74d2 20bd ad42 4a3d 3db6 3e3c 109b 7abd
00000390: 45bb c53c 986c c1bc e7d1 8dbd 229a 073d
000003a0: 03cf bcbd a306 303d cff8 163a 07d5 0dbc
000003b0: 2e1d e0bd 3c0b ccbc 3579 8639 277d 873d
000003c0: e5db 6cbd 511b 243d 0ef0 753d 0088 4a3d
000003d0: ea6c bf3c bfef e4bc 4c90 2ebd dd60 843c
000003e0: 9c39 1fbd 4db1 003c c683 6a3d 0a1e 0d3d
000003f0: d5e3 853b acba b63c 36c4 663d 2cf5 4ebd
0.052664712 -0.06624091 0.049393628 -0.017343141 -0.051193148 0.04192837 0.024165971 -0.03279557
-0.01495229 -0.10535655 0.0022153517 0.033494066 0.027684676 -0.046864014 -0.021888068 -0.035706703
0.03948024 0.06875367 0.009929198 -0.091445096 -0.044930693 0.03432798 -0.020695858 -0.020052183
0.00698942 0.01926065 0.0124959955 0.007955366 -0.096845016 0.017919991 0.03189161 -0.071263894
0.019539788 -0.11551188 -0.039122965 -0.04348311 -0.0023533828 0.030918613 -0.07206087 0.012845911
-0.0042247493 -0.013668762 0.024892084 0.04009352 -0.045980137 -0.008388742 0.025426356 -0.03376899
0.042112384 -0.06609654 -0.055315223 -0.03867797 -0.08113361 -0.030170446 -0.005219942 0.019522632
0.050499372 -0.10348332 0.047697905 0.05528932 -0.043749336 0.009008527 0.025952337 0.06958283
-0.010651378 -0.009182828 -0.039392907 0.06009417 0.050918058 -0.06935152 -0.060351413 0.018407663
0.028783992 -0.047192723 -0.014366909 -0.08380105 0.03023964 0.05999768 0.072594464 -0.06040345
-0.046151705 0.060243446 -0.02437591 0.03043156 -0.09035896 -0.0050169053 0.018437404 0.04197316
-0.023866989 -0.03725844 0.03206643 -0.037423346 0.037870936 -0.015176336 -0.047959056 0.031546433
-0.05304684 0.023925224 0.04165536 -0.050661158 -0.07038839 -0.0666003 -0.05397264 -0.02797474
0.014695719 -0.085900456 0.03386883 -0.00495159 -0.049033478 -0.02601692 0.01920674 0.07635341
0.031574056 0.026966846 -0.005004554 0.012935086 -0.074356385 -0.006706263 0.0546911 0.0009962665
-0.031686302 -0.049707644 -0.0027993764 -0.0029069623 0.029023854 0.014838517 0.028628532 -0.06630094
0.04149775 -0.0020298827 0.0060942406 -0.036641322 0.06881895 -0.043896105 0.032496527 0.06264368
0.046968497 0.04464476 0.0015535845 0.017001495 0.034918584 -0.063411824 0.054345485 -0.0115232635
0.036983285 0.07303822 -0.031939708 -0.011283658 -0.042750046 0.030277228 0.0004469033 -0.06302345
0.014462869 0.02306881 -0.036253773 0.023522915 -0.011321512 -0.08342694 -0.0604333 -0.13580292
0.025129799 -0.08091193 0.03672022 0.033277582 0.0037452749 -0.02555491 -0.025582444 0.021294137
-0.038120635 -0.08186214 0.017443463 -0.03110458 0.047211815 0.017195128 -0.023538083 -0.040714543
0.030828588 0.005144635 -0.08067274 -0.040031727 -0.045702435 0.004330047 0.051838063 0.0027499904
0.021035163 -0.0011158308 -0.016963707 -0.05017191 0.012599461 0.050326843 -0.02932935 -0.021394989
-0.05198613 -0.0046535325 0.036338795 -0.0044627744 0.02327131 -0.040945083 -0.07778096 -0.021410637
-0.04835367 -0.007837542 -0.026611563 -0.035904054 -0.064443186 0.015807156 -0.020821966 0.013359356
0.054691814 0.037093174 0.043413814 -0.071532115 0.0075862342 -0.009353447 0.005045792 0.05144861
0.033537786 -0.01733143 -0.011159317 -0.0024915969 0.032047346 0.0114678955 0.058057632 0.05840525
-0.039263204 0.049379993 0.011640129 -0.061183035 0.024137149 -0.023611352 -0.06924801 0.033105977
-0.09219172 0.04297508 0.0005759121 -0.008656747 -0.109430656 -0.0249077 0.00025648778 0.06615668
-0.057826895 0.040065113 0.060043387 0.049446106 0.023367364 -0.027946351 -0.04261808 0.01615947
-0.0388733 0.007854772 0.057254575 0.034452476 0.0040859976 0.022305809 0.056339465 -0.050526783

fc2.bias f4 [10]
00000000: 9591 d0bc 8e27 943c 3537 86bc 0bda 9b3b
00000010: 337c d53c 783c 053d ad41 973c 707e aebc
00000020: b3ef 38bc de18 2d3d
-0.025460044 0.018085267 -0.016383747 0.0047562174 0.0260602 0.03252837 0.018463934 -0.021300524
-0.0112876175 0.042260043
