baseline/checkpoints/LeNet/P1_MNISTtoUSPS_1/LeNet_classifier_75.pt (torch_old, 20591 bytes, 2 tensors)

fc2.weight f4 [10, 500]
0.05816526 -0.088796206 0.051606074 -0.0229307 -0.049900413 0.04833594 0.043727186 -0.052264262
-0.034402218 -0.12990819 0.00638631 0.03422129 0.011363092 -0.12043248 -0.040894125 -0.037707143
0.046063848 0.09666239 0.02278551 -0.14369336 -0.061614957 0.03432798 -0.017812807 -0.023350997
-0.0010745189 0.023011595 -0.0073192343 -0.0005269635 -0.11871944 0.013311017 0.036866434 -0.07626229
0.016643248 -0.17489526 -0.038801678 -0.03816741 0.009870956 0.031919133 -0.10779123 0.019165969
-0.001782118 -0.006869164 0.029939994 0.057087075 -0.05780543 -0.008388742 0.031221205 -0.04817287
0.06507759 -0.062106792 -0.101811565 -0.041842185 -0.13077648 -0.065314576 -0.040126845 0.02797367
0.057841737 -0.20643736 0.05955721 0.05281566 -0.057510737 -0.016260402 0.007916095 0.08338699
-0.014567405 -0.016252698 -0.027854843 0.066534266 0.058334902 -0.08931624 -0.14281645 0.027587563
0.039244264 -0.06646602 -0.013341212 -0.1273959 0.05155426 0.061078615 0.09841653 -0.0829339
-0.0834258 0.075841114 -0.014875347 0.020551847 -0.11468789 0.0007119966 0.018394606 0.05902501
-0.05663727 -0.045597047 0.02633981 -0.054879643 0.030492883 -0.015176336 -0.052784838 0.030697897
-0.06422038 0.029243693 0.054766353 -0.051441167 -0.08619872 -0.07699975 -0.05453326 -0.02797474
0.021108462 -0.100348786 0.03002687 -0.036311064 -0.065031074 -0.051921565 0.022896351 0.08883019
0.02314813 0.0337211 -0.005004554 0.016905779 -0.11228984 0.007832526 0.060654033 -0.004733212
-0.031686302 -0.04285455 0.0086132465 -0.0029069623 0.03631914 0.033392325 0.027943289 -0.1386718
0.04579049 -0.008650369 0.0060942406 -0.061769266 0.09085187 -0.08114909 0.039182752 0.06939879
0.038929235 0.05000343 -0.028748538 0.03414785 0.03540694 -0.08751797 0.07053101 -0.06047012
0.049996853 0.08423837 -0.047410972 -0.011339391 -0.04296508 0.038426906 0.0004469033 -0.085153155
0.012976782 0.034522414 -0.029672742 0.022293396 -0.0013280655 -0.13995111 -0.07533779 -0.15058653
-0.0057796007 -0.15600039 0.051626634 0.0414176 -0.000226047 -0.014826241 -0.025582444 0.021294137
-0.03280255 -0.112681456 0.02898141 -0.05074868 0.053810947 0.019958813 -0.019912556 -0.11870728
0.041979495 0.0019601614 -0.10403755 -0.040031817 -0.043277822 0.0075918287 0.04175963 -0.0038899758
0.019840142 -0.0067822677 -0.008865077 -0.055226218 0.012599461 0.050501037 -0.04812147 -0.03854562
-0.06208916 -0.003148181 0.050269887 -0.0044627744 0.022904979 -0.040945083 -0.10913713 -0.015256858
-0.051551633 -0.024205975 -0.038043566 -0.046594374 -0.10418074 0.03097761 -0.020821966 0.013359356
0.05145875 0.04560243 0.060098648 -0.07943188 0.0044084014 -0.00064752175 -0.0026307718 0.08506758
0.043041687 -0.01733143 -0.0046465136 0.007723645 0.034780152 0.013142155 0.07676184 0.068667956
-0.03631927 0.05696779 0.0201023 -0.086572915 0.035561565 -0.02569838 -0.088646986 0.041829325
-0.18075868 0.030735318 0.0005759121 -0.028782897 -0.14330034 -0.023986764 0.0037307648 0.07475138
-0.072625525 0.040065113 0.068719655 0.053618245 0.03222736 -0.020506144 -0.042057198 0.0057077506
-0.052250683 0.007854772 0.069387265 0.027969902 0.0040859976 0.019388063 0.060781762 -0.08259658
00000000: b23e 6e3d c9da b5bd e460 533d 2ad9 bbbc
00000010: 6064 4cbd e8fb 453d 471b 333d 0d13 56bd
00000020: 57e9 0cbd a706 05be 4044 d13b a02b 0c3d
00000030: 432c 3a3c 4ea5 f6bd 9980 27bd ce72 1abd
00000040: 72ad 3c3d eef6 c53d aea8 ba3c 5a24 13be
00000050: f75f 7cbd 7f9b 0c3d 2aec 91bc 974a bfbc
00000060: dfd6 8cba d082 bc3c 30d6 efbb ec23 0aba
00000070: 2e23 f3bd 7416 5a3c 4201 173d 672f 9cbd
00000080: 6c57 883c be17 33be 82ee 1ebd 6e55 1cbd
00000090: cab9 213c a3bd 023d a6c1 dcbd f301 9d3c
000000a0: f595 e9ba b916 e1bb b844 f53c 23d4 693d
000000b0: 63c5 6cbd ef70 09bc 9dc3 ff3c ea50 45bd
000000c0: 6647 853d b163 7ebd 9582 d0bd b662 2bbd
000000d0: 45ea 05be a6c3 85bd 0c5c 24bd 0a29 e53c
000000e0: 75eb 6c3d 5164 53be 43f2 733d 3c55 583d
000000f0: 6190 6bbd 8934 85bc 82b2 013c ccc6 aa3d
00000100: 20ac 6ebc 6124 85bc d72f e4bc 1e43 883d
00000110: 94f0 6e3d 6feb b6bd 7a3e 12be 50ff e13c
00000120: 98be 203d 561f 88bd 1995 5abc 1274 02be
00000130: 8f2a 533d 922d 7a3d 9b8e c93d 40d9 a9bd
00000140: 25db aabd 9652 9b3d bab7 73bc 595c a83c
00000150: 7ce1 eabd 48a5 3a3a 49b0 963c 35c4 713d
00000160: 7bfc 67bd f8c3 3abd 96c6 d73c 7ac9 60bd
00000170: 36cc f93c 2ba6 78bc ea34 58bd 287a fb3c
00000180: f985 83bd 7890 ef3c af52 603d f9b3 52bd
00000190: f488 b0bd 0cb2 9dbd 455e 5fbd 482b e5bc
000001a0: a7eb ac3c aa83 cdbd e9fa f53c e9ba 14bd
000001b0: 032f 85bd b5ab 54bd 2191 bb3c 9aec b53d
000001c0: 26a1 bd3c 231f 0a3d 3efd a3bb fd7d 8a3c
000001d0: 37f8 e5bd ff53 003c 5d70 783d 0f19 9bbb
000001e0: 7fc9 01bd 4188 2fbd 931e 0d3c bc82 3ebb
000001f0: 61c3 143d 64c6 083d 53e9 e43c fbff 0dbe
00000200: cf8e 3b3d 47ba 0dbc 32b2 c73b c501 7dbd
00000210: 8c10 ba3d 7e31 a6bd 187e 203d f420 8e3d
00000220: 4374 1f3d 66d0 4c3d 0e82 ebbc 9ede 0b3d
00000230: de06 113d 9f3c b3bd 9072 903d 84af 77bd
00000240: 80c9 4c3d 2b85 ac3d 0232 42bd dac8 39bc
00000250: 27fc 2fbd 8865 1d3d 584e ea39 c764 aebd
00000260: 929c 543c 6067 0d3d 4014 f3bc a4a0 b63c
00000270: 7c12 aeba 584f 0fbe b34a 9abd 5b33 1abe
00000280: ce62 bdbb 91be 1fbe 7376 533d 80a5 293d
00000290: 0807 6db9 c3e9 72bc 4692 d1bc 0b71 ae3c
000002a0: f75b 06bd 89c5 e6bd 6c6a ed3c d9dd 4fbd
000002b0: de68 5c3d aa80 a33c a81f a3bc cd1c f3bd
000002c0: b1f2 2b3d 0d76 003b a411 d5bd 67f8 23bd
000002d0: 1644 31bd e0c4 f83b 250c 2b3d f7ee 7ebb
000002e0: cb87 a23c c93d debb d43e 11bc e334 62bd
000002f0: f86d 4e3c 2dda 4e3d 051b 45bd 03e2 1dbd
00000300: 3451 7ebd b651 4ebb cce7 4d3d 773c 92bb
00000310: 39a3 bb3c 08b6 27bd 4a83 dfbd e7f7 79bc
00000320: ce27 53bd 9c4b c6bc 92d3 1bbd bed9 3ebd
00000330: b65c d5bd c2c4 fd3c d492 aabc 33e1 5a3c
00000340: 69c6 523d 9dc9 3a3d 002a 763d 2ead a2bd
00000350: 5a74 903b 73be 29ba 0769 2cbb e937 ae3d
00000360: 7b4c 303d a5fa 8dbc c841 98bb a116 fd3b
00000370: a275 0e3d 3152 573c 5035 9d3d c9a1 8c3d
00000380: 84c3 14bd 0f57 693d 94ad a43c 244d b1bd
00000390: 01a9 113d 6985 d2bc 8d8c b5bd 3a55 2b3d
000003a0: ce18 39be a2c8 fb3c cff8 163a 1cca ebbc
000003b0: 53bd 12be e47f c4bc d97f 743b 4017 993d
000003c0: b1bc 94bd 511b 243d e4bc 8c3d ce9e 5b3d
000003d0: d600 043d 80fc a7bc 2b44 2cbd 1508 bb3b
000003e0: d004 56bd 4db1 003c e91a 8e3d 2321 e53c
000003f0: d5e3 853b b7d3 9e3c 4cf6 783d 6528 a9bd

fc2.bias f4 [10]
-0.022881106 0.018321272 -0.014174032 0.004898087 0.026381314 0.030181268 0.017441291 -0.023898998
-0.008730811 0.04444157
00000000: 2871 bbbc 7e16 963c 333a 68bc 2280 a03b
00000010: a01d d83c b53e f73c 0ae1 8e3c d5c7 c3bc
00000020: ad0b 0fbc 5d08 363d
