baseline/checkpoints/LeNet/P1_MNISTtoUSPS_1/LeNet_classifier_135.pt (torch_old, 20591 bytes, 2 tensors)

fc2.weight f4 [10, 500]
0	0x3d4be356	0.04977735
1	0xbe41ac50	-0.18913388
2	0x3cb19602	0.021677975
3	0x3ccf86a3	0.025332754
4	0xb9bb9a86	-0.00035782548
5	0x3daedb6b	0.085379444
6	0xbc38487f	-0.011247753
7	0x3ca31ee3	0.019912189
8	0x3ccbf5b1	0.024897428
9	0x3cd98484	0.026552446
10	0x3d1a14bf	0.03761744
11	0x3cc29acb	0.023755452
12	0x3dd04160	0.10168719
13	0x3d2ac971	0.041696016
14	0xbe4fdb4e	-0.20298502
15	0xbc882c83	-0.016622787
16	0xbe5cd1d2	-0.21564415
17	0xbdca1a22	-0.09868266
18	0xbcec55b2	-0.028849456
19	0x3dc7d679	0.09757704
20	0xbb0e6d00	-0.002173245
21	0xbdf48f49	-0.11941392
22	0x3d321584	0.04347755
23	0x3da7186d	0.08158956
24	0x3d849537	0.06473773
25	0x3d1f5725	0.038901467
26	0x3b7033f6	0.0036652065
27	0xbd518977	-0.051156487
28	0xbcae34c7	-0.0212654
29	0x3d024bc6	0.031810544
30	0x3cd9d90b	0.026592752
31	0xbd8fadc0	-0.07015562
32	0xbe5b1715	-0.21395524
33	0xbd374c89	-0.044750724
34	0xbd763e0c	-0.060117766
35	0x3aeafddd	0.001792844
36	0x3d1a4e92	0.037672587
37	0x3da16cf0	0.07882106
38	0xbdb79368	-0.089636624
39	0x3b90faa7	0.0044244113
40	0xbc1676f0	-0.00918363
41	0xbc9ee7a0	-0.019397557
42	0x3d585e8a	0.052824534
43	0xbdc18166	-0.09448509
44	0xbd30685c	-0.043068275
45	0x3c5658cc	0.013082694
46	0xbcc11f10	-0.023574382
47	0xbcd6f941	-0.0262419
48	0xbd3d41bd	-0.04620527
49	0x3d14a12d	0.03628652
50	0x3d58a215	0.05288895
51	0xbd8c5ba9	-0.0685342
52	0xb99c83d8	-0.0002985287
53	0x3cb72e7c	0.022361033
54	0xbca8c0d1	-0.020599755
55	0xbd5308bb	-0.051521998
56	0xbd036d87	-0.032086875
57	0xbdad1945	-0.084520854
58	0x3d73b922	0.05950273
59	0xbd6411fd	-0.055681217
60	0x3d9672c4	0.073461086
61	0xbe36075b	-0.17776243
62	0xbe16de00	-0.14733124
63	0xbd0345dd	-0.03204905
64	0x3d72458a	0.05914835
65	0xbd753d45	-0.059872884
66	0x3d9d3dd4	0.076778084
67	0xbd347a64	-0.044062033
68	0xbe151672	-0.14559343
69	0x3b548c83	0.0032432384
70	0x3d89fb37	0.067373686
71	0x3cea6424	0.028612204
72	0xbd314fa3	-0.043288838
73	0x3d8feabf	0.07027196
74	0xbca17547	-0.019709243
75	0x3dc50b03	0.09621241
76	0xbdf87645	-0.12131933
77	0x3d3b99d3	0.045800995
78	0xbd629ef5	-0.055327374
79	0xbaca97f3	-0.0015456661
80	0xbe5b3a27	-0.21408902
81	0xbd4d899b	-0.05018006
82	0x3c42c80e	0.011888517
83	0xbc849f10	-0.016189128
84	0xbe896afe	-0.2683944
85	0x3d96d009	0.07363898
86	0xbd5e1e16	-0.05422791
87	0x3d24c2a6	0.040224694
88	0xbbd96a79	-0.006635007
89	0x3c78d0dc	0.015186515
90	0xbe2209ca	-0.15824047
91	0x3d95c567	0.07313042
92	0x3b39316d	0.002825822
93	0x3d8fbc8b	0.070183836
94	0x3dd083ee	0.101814136
95	0xbc98e5ab	-0.018664202
96	0xbe799b46	-0.24375638
97	0xbc7dd3fb	-0.015492435
98	0xbd9b927a	-0.075962976
99	0x3d0bcfa7	0.03413358
100	0xbd7e12ed	-0.062029768
101	0xbd20aaed	-0.039225508
102	0x3cb50dd2	0.022101317
103	0x3a054fa8	0.0005085417
104	0xbd897619	-0.067119785
105	0x3d3ebd9d	0.046567548
106	0xbe0b2d52	-0.13591507
107	0xbc1a0a54	-0.0094018765
108	0xbe35f254	-0.17768222
109	0xbb6efe23	-0.0036467395
110	0x3d2a27b2	0.041541763
111	0x3d24ba87	0.04021695
112	0x3d0593ac	0.032611534
113	0xbd07be75	-0.03314062
114	0xbd823e4e	-0.0635954
115	0xbb85a80b	-0.00407887
116	0xbe4332b7	-0.19062315
117	0xb963bc8d	-0.00021718648
118	0xbdc10236	-0.0942425
119	0xbc5d12b4	-0.013493229
120	0x3d1978ce	0.037468724
121	0x3ded43e9	0.115852185
122	0xbe41ed65	-0.18938215
123	0x3d7fd37f	0.062457558
124	0xbe230484	-0.15919691
125	0x3dbc9385	0.092078246
126	0xbd0f264d	-0.034948636
127	0xbb89fc54	-0.004210988
128	0xba9f340c	-0.0012146248
129	0x3d66bcb5	0.05633231
130	0xbde80666	-0.113293454
131	0x3cabf89b	0.020992568
132	0x3d2b9172	0.041886754
133	0xbd0eb52f	-0.03484076
134	0x3c0d291d	0.008615759
135	0x3d7ef56d	0.062245775
136	0xbcf8ba7e	-0.030362364
137	0xbd95411b	-0.072878085
138	0x3d6a2d29	0.057171974
139	0xbe58a44a	-0.21156421
140	0x3d8356f8	0.06413072
141	0xbb7ede5a	-0.0038889856
142	0xbddff280	-0.10934925
143	0x3d0e7ab9	0.034785006
144	0xbc828f2c	-0.01593741
145	0x3d53d2c0	0.05171466
146	0xbe203750	-0.156461
147	0x3d2b19b3	0.041772556
148	0xbccf1a29	-0.025281029
149	0x3cb4649e	0.022020634
150	0xbd0043d5	-0.03131469
151	0xbd7a9778	-0.061179608
152	0xbbe41ef4	-0.0069616977
153	0xbd71c41d	-0.05902492
154	0xbd1e1ff8	-0.038604707
155	0x3cf0b193	0.029381549
156	0x3d26ec17	0.040752497
157	0xbe0c3502	-0.13692096
158	0xbb008764	-0.001961195
159	0xbe6850e1	-0.22687103
160	0x3db6129b	0.088902675
161	0xbe2ec074	-0.17065603
162	0xbe3273e0	-0.17427015
163	0xbe8d9574	-0.27653086
164	0x3d3fcd17	0.04682645
165	0xbe269463	-0.16267543
166	0xbc4bd8a9	-0.0124417925
167	0xbbb05020	-0.0053806454
168	0x3d9597f5	0.07304374
169	0x3d3ba79a	0.045814134
170	0xbca86679	-0.020556675
171	0xbdeb78c0	-0.114976406
172	0xbead2ce7	-0.3382332
173	0xbd572fdf	-0.052535888
174	0x3ca852da	0.02054732
175	0xbab3b008	-0.0013709078
176	0x3dac2d58	0.08407086
177	0x3d37e64d	0.044897366
178	0xbd761e75	-0.06008764
179	0xbd3e4ef8	-0.04646203
180	0x3d787ce2	0.060665973
181	0xbbf6524e	-0.0075171357
182	0x3b5c6c02	0.0033633714
183	0x3dee0127	0.116213135
184	0x3b38d505	0.0028203141
185	0xbcc46233	-0.023972606
186	0x3d8c1134	0.06839219
187	0x3d899bde	0.067191824
188	0x3da06ffe	0.07833861
189	0xbe4d3828	-0.20040953
190	0x3d41f638	0.047353953
191	0x3ab850cf	0.0014062169
192	0xbe062faa	-0.1310412
193	0xbd3ea224	-0.046541348
194	0xbd73a841	-0.05948663
195	0xbdf186aa	-0.11793263
196	0x3da2ca24	0.079487115
197	0x3d312101	0.043244366
198	0xbd3e47da	-0.04645524
199	0xbc1bb8eb	-0.009504537
200	0xbc463f0d	-0.012099993
201	0xbcdf4151	-0.027252825
202	0xbe4179df	-0.18894146
203	0xbe1356cb	-0.14388578
204	0xbe0bd5b4	-0.1365574
205	0xbe17a382	-0.14808467
206	0xbbdb4b05	-0.0066922926
207	0x3d8886ca	0.06666334
208	0xbda91054	-0.082550675
209	0x3de522e0	0.111882925
210	0x3d67ab68	0.05655995
211	0xbcf6831a	-0.030091811
212	0xbd81ebc1	-0.063437946
213	0xbbe6fa60	-0.00704889
214	0x3c983132	0.018578146
215	0xbe140c02	-0.14457706
216	0x3be9be02	0.0071332464
217	0xbe6dd31d	-0.23225065
218	0x3a14749f	0.000566313
219	0x3ce36d84	0.027762182
220	0x3d539311	0.051653925
221	0x3c5b7d03	0.013396504
222	0xbe2aac01	-0.16667177
223	0x3d5aa1dc	0.053377017
224	0xbea6980b	-0.32537875
225	0xbd625221	-0.055254105
226	0xbea06639	-0.3132799
227	0x3d30e214	0.043184355
228	0xbe046e1c	-0.12932628
229	0xbc53e6ec	-0.012933474
230	0xbd0962a9	-0.033541355
231	0xbe387e8c	-0.18017024
232	0xbce8dc8e	-0.028425481
233	0xbe00deab	-0.12584941
234	0x3b140d79	0.0022591038
235	0xbc6360c5	-0.013878052
236	0xbb6cf1c7	-0.0036154853
237	0x3d448e42	0.04798723
238	0x3db4537f	0.08804988
239	0x3d585e5a	0.052824356
240	0x3c96e898	0.018421456
241	0xbd081374	-0.033221677
242	0xbbffdecb	-0.0078085414
243	0xbe1c4a95	-0.15262826
244	0xbdf39624	-0.118938714
245	0xbe21eb0a	-0.15812317
246	0x3d113e85	0.035460014
247	0x3ceaa005	0.028640756
248	0xbccb998b	-0.024853488
249	0x3ca9c088	0.020721689
250	0xbd83f3cb	-0.06442984
251	0xbe30c049	-0.17260851
252	0x3ab632cc	0.0013900637
253	0xbc5a1e23	-0.013312849
254	0xbd82e820	-0.063919306
255	0xbd77e816	-0.06052407

fc2.bias f4 [10]
0	0x3cceee9a	0.025260258
1	0xbd10e76d	-0.035376955
2	0x3c765bbb	0.015036519
3	0xbbb23526	-0.0054384647
4	0xbc9f7e37	-0.019469364
5	0xbc95f810	-0.018306762
6	0xbd088be3	-0.03333653
7	0xbcd22226	-0.025651049
8	0xbc4f50ef	-0.012653573
9	0x3cade998	0.02122955
