baseline/checkpoints/LeNet/P2_USPStoMNIST_1/LeNet_classifier_65.pt (torch_old, 20591 bytes, 2 tensors)

fc2.weight f4 [10, 500]
-0.045807295 -0.051741213 0.0010715593 -0.052896474 0.013040645 -0.0016999248 -0.08224558 -0.027470611
0.05858799 0.054116607 0.023163911 0.04086633 0.020883905 -0.002978222 -0.04745091 0.03902328
-0.036147144 -0.052251916 -0.073539145 -0.03276986 0.03273976 0.036320847 0.0399564 -0.050595608
-0.05081218 -0.027710656 0.0001606133 -0.013790855 -0.052365568 -0.053693864 0.028887536 -0.037902486
0.03644287 -0.02144286 -0.06371602 -0.04603348 -0.06021383 0.050027806 -0.037785947 -0.03119806
-0.00049337413 0.053552702 -0.018791594 0.032953817 0.028282318 0.04082095 0.04052486 0.046050224
0.0003558761 0.025079774 0.04353398 0.023500059 0.033816382 8.574721e-05 -0.0127353845 0.0048544467
0.011942686 -0.091648854 0.001195444 -0.00055722933 -0.011985107 -0.01710873 -0.05117661 0.038350772
0.014405155 -0.002019395 0.12738685 0.054627154 -0.05429709 -0.071964085 -8.443828e-05 -0.01454647
0.0101087 -0.02939709 -0.02359874 0.05123635 -0.061346393 0.03862634 0.0033429768 0.0063143796
-0.0007844891 0.05937716 0.009549845 0.0011437733 0.03338049 -0.017356185 -0.04469868 0.049861323
-0.02760879 0.03700078 -0.013512293 0.055577345 0.03822453 -0.017288044 0.03469891 0.04411679
-0.003994845 -0.0044241664 0.004026798 -0.04965898 0.0056168605 -0.00873516 -0.004883665 -0.026136188
0.038710203 -0.12203251 -0.025289737 -0.02609366 -0.068831146 0.032162596 -0.008932892 -0.029291013
0.040697068 0.0147748245 0.020762667 0.034811646 0.006145145 -0.03194338 -0.0371659 0.0016164148
0.04872928 0.04618569 0.002808713 -0.0015906915 0.028667264 -0.054568272 -0.015325783 -0.039438423
0.011735516 -0.05053728 -0.029920727 -0.06599891 0.04950603 0.017227594 0.04167928 0.04626699
0.03410625 0.041250166 -0.010781674 0.017353637 0.032608595 -0.06083431 0.036286928 0.049456105
0.024295572 -0.07954609 0.033034712 0.020319559 -0.04362515 0.009903801 -0.040563572 0.049491398
0.04938773 -0.034395933 -0.00983241 -0.027842527 0.014752597 -0.051062793 0.050364044 -0.0042203423
0.054267332 -0.011374827 0.009049969 -0.013023305 0.059994932 0.0481422 -0.008380487 -0.054874644
0.041534454 0.00014900371 0.0018351458 0.029119315 0.034315575 0.022805754 -0.06337235 -0.020729512
0.05330806 -0.023772785 -0.017365156 -0.045136914 0.04279658 -0.028269779 0.06499861 -0.029433673
-0.11616787 -0.026907025 -0.04714161 -0.006175492 -0.02052566 -0.043727726 -0.017124625 -0.03950876
0.050463572 -0.018629761 0.041845255 -0.09366725 0.03508768 0.031364277 0.059861876 -0.0017958842
-0.0559333 -0.013981515 -0.022830006 0.0203201 0.024244545 -0.039823495 0.01693573 -0.00446376
-0.009359873 0.0147224255 -0.09444089 0.017373756 -0.049103983 0.013810401 -0.024629623 0.0682911
-0.029864997 0.016370248 -0.10509072 0.0519188 0.036000155 0.031482223 -0.012953967 -0.008604997
-0.00953283 0.07188368 -0.04407509 0.026984356 0.00783425 0.014144297 0.026518742 -0.017060516
0.018900748 0.037602365 0.043798562 0.035247173 -0.048270874 0.056416366 0.085846424 -0.0034820226
0.011825418 -0.04003946 0.05082613 0.005312249 0.033430878 0.030818105 0.016476339 -0.065516874
-0.077315696 -0.019809099 -0.04742375 -0.02945407 0.03851852 0.05683672 -0.006097199 0.04595356
00000000: 6ea0 3bbd 98ee 53bd 9073 8c3a f9a9 58bd
00000010: 6ea8 553c 03d0 deba 5f70 a8bd 0c0a e1bc
00000020: f6f9 6f3d 60a9 5d3d 3ec2 bd3c 7463 273d
00000030: b914 ab3c 462e 43bb e35b 42bd e0d6 1f3d
00000040: 070f 14bd 1b06 56bd b19b 96bd b039 06bd
00000050: 201a 063d 2bc5 143d 52a9 233d 573d 4fbd
00000060: 6f20 50bd 7501 e3bc 4e6a 2839 0af3 61bc
00000070: 477d 56bd 19ee 5bbd 8ea5 ec3c a33f 1bbd
00000080: 1e45 153d f0a8 afbc 8b7d 82bd 9a8d 3cbd
00000090: c7a2 76bd f5e9 4c3d 70c5 1abd 1393 ffbc
000000a0: c755 01ba 145a 5b3d d4f0 99bc 95fa 063d
000000b0: 52b0 e73c de33 273d 65fd 253d 299f 3c3d
000000c0: e294 ba39 1974 cd3c b050 323d 3283 c03c
000000d0: 0c83 0a3d 2fd3 b338 13a8 50bc 0d12 9f3b
000000e0: 41ab 433c 65b2 bbbd 72b0 9c3a 0713 12ba
000000f0: 2f5d 44bc 9b27 8cbc 919e 51bd b315 1d3d
00000100: 9903 6c3c d357 04bb b371 023e b9c0 5f3d
00000110: a066 5ebd e861 93bd 7514 b1b8 5154 6ebc
00000120: f69e 253c 2bd2 f0bc 2552 c1bc 35dd 513d
00000130: 5b46 7bbd a736 1e3d d815 5b3b dbe8 ce3b
00000140: 2ca6 4dba 7735 733d f476 1c3c aaea 953a
00000150: fbb9 083d 8f2e 8ebc f715 37bd 633b 4c3d
00000160: d42b e2bc 218e 173d aa62 5dbc 12a5 633d
00000170: 5391 1c3d a89f 8dbc 7220 0e3d cfb3 343d
00000180: 30e7 82bb 99f8 90bb 3bf3 833b 3767 4bbd
00000190: a40d b83b eb1d 0fbc 2707 a0bb 8f1b d6bc
000001a0: 978e 1e3d 2eec f9bd 6c2c cfbc 5fc2 d5bc
000001b0: 58f7 8cbd edbc 033d 445b 12bc b5f3 efbc
000001c0: f8b1 263d 1b12 723c 7816 aa3c a896 0e3d
000001d0: 365d c93b 10d7 02bd 453b 18bd e1dd d33a
000001e0: 5a98 473d 352d 3d3d 6212 383b c07e d0ba
000001f0: 9cd7 ea3c fb82 5fbd fe18 7bbc 2f8a 21bd
00000200: 5246 403c 2e00 4fbd 501c f5bc 702a 87bd
00000210: d6c6 4a3d e220 8d3c e5b7 2a3d 7582 3d3d
00000220: ffb2 0b3d eff5 283d 9ea5 30bc 3729 8e3c
00000230: 9790 053d 662d 79bd 9aa1 143d 7c92 4a3d
00000240: 8207 c73c 0fe9 a2bd 684f 073d 3475 a63c
00000250: 49b0 32bd 8d43 223c fd25 26bd 7eb7 4a3d
00000260: ca4a 4a3d c0e2 0cbd 1e18 21bc 0316 e4bc
00000270: e0b4 713c 3827 51bd 874a 4e3d cc4a 8abb
00000280: 6c47 5e3d 7b5d 3abc 5246 143c b35f 55bc
00000290: 3fbd 753d c130 453d 4f4e 09bc 3cc4 60bd
000002a0: 0820 2a3d e13d 1c39 4689 f03a a18b ee3c
000002b0: 7d8e 0c3d 22d3 ba3c 5dc9 81bd f0d0 a9bc
000002c0: 8d59 5a3d 25bf c2bc 5f41 8ebc 7ce1 38bd
000002d0: 774b 2f3d 0696 e7bc fe1d 853d e31e f1bc
000002e0: 6ce9 edbd 1f6c dcbc 9017 41bd c85b cabb
000002f0: 6e25 a8bc d81b 33bd f148 8cbc f0d3 21bd
00000300: e4b2 4e3d 719d 98bc ee65 2b3d 9dd4 bfbd
00000310: 19b8 0f3d d477 003d ba31 753d e063 ebba
00000320: 511a 65bd b912 65bc fe05 bbbc 5776 a63c
00000330: 7f9c c63c f61d 23bd cdbc 8a3c bc44 92bb
00000340: 275a 19bc 5436 713c 3a6a c1bd 6853 8e3c
00000350: 4221 49bd 0545 623c 10c4 c9bc 34dc 8b3d
00000360: 70a7 f4bc e61a 863c ce39 d7bd cfa8 543d
00000370: e674 133d 81f3 003d e03c 54bc f9fb 0cbc
00000380: 962f 1cbc c037 933d 1588 34bd 4c0e dd3c
00000390: 3a5b 003c 7bbd 673c d53d d93c 7fc2 8bbc
000003a0: bed5 9a3c f004 1a3d 1f66 333d 575f 103d
000003b0: aeb7 45bd d914 673d 40d0 af3d a532 64bb
000003c0: 66bf 413c 6b00 24bd 0f2f 503d 6012 ae3b
000003d0: d1ee 083d 4076 fc3c 63f9 863c b62d 86bd
000003e0: b157 9ebd b146 a2bc 683f 42bd a949 f1bc
000003f0: 98c5 1d3d 9fcd 683d 03cb c7bb cd39 3c3d

fc2.bias f4 [10]
0.036280695 0.027453091 -0.0006155638 -0.038672727 -0.018541045 0.044893824 0.031613003 0.0012778754
-0.00036392096 0.010569015
00000000: 119b 143d 4ee5 e03c ca5d 21ba 4b67 1ebd
00000010: 64e3 97bc 96e2 373d a37c 013d 627e a73a
00000020: a5cc beb9 a929 2d3c
