baseline/checkpoints/LeNet/P2_USPStoMNIST_1/LeNet_classifier_75.pt (torch_old, 20591 bytes, 2 tensors)

fc2.weight f4 [10, 500]
000000 1f 3a 41 bd d8 35 55 bd d8 fe c5 3a eb a1 5d bd
       -0.04717457 -0.052053303 0.0015105857 -0.054109495
000010 f4 5a 53 3c 9f 4f e0 ba 77 54 b7 bd 0c 0a e1 bc
       0.012900103 -0.0017113573 -0.08951657 -0.027470611
000020 d6 77 78 3d b7 82 6a 3d 3e 08 c3 3c 09 6a 28 3d
       0.06066116 0.057253566 0.023807641 0.041116748
000030 7a 2b af 3c 3d 0e 46 bb 6f 37 44 bd d3 af 23 3d
       0.021383036 -0.003022089 -0.047904428 0.0399626
000040 27 c0 15 bd ca 9c 58 bd 7c 38 9b bd 81 45 07 bd
       -0.036560204 -0.0528839 -0.07579133 -0.03302527
000050 58 38 06 3d d0 5c 16 3d 4f ea 25 3d 19 e4 4e bd
       0.032768577 0.036709607 0.040506657 -0.0505105
000060 cc c4 52 bd b5 f4 e7 bc 4e 6a 28 39 0a f3 61 bc
       -0.05145721 -0.028314928 0.0001606133 -0.013790855
000070 8c c8 5a bd e2 ca 63 bd 11 f8 eb 3c a3 3f 1b bd
       -0.053413913 -0.055613406 0.02880481 -0.037902486
000080 1e 45 15 3d 61 68 b3 bc 2e 48 85 bd 46 d7 40 bd
       0.03644287 -0.021900358 -0.06507908 -0.0470803
000090 c7 9c 7b bd 0f 11 53 3d 5e 74 1c bd 49 27 02 bd
       -0.06142881 0.05152994 -0.038196914 -0.031775746
0000a0 c8 c0 c2 b9 fb b9 60 3d 49 79 99 bc 95 fa 06 3d
       -0.00037146197 0.054864865 -0.018734591 0.032953817
0000b0 df 29 e9 3c f8 eb 27 3d b7 78 2f 3d 9f ec 3f 3d
       0.028462349 0.04099652 0.042839732 0.04685652
0000c0 d8 7e 64 3b fa 6f ce 3c 30 f4 30 3d 91 ac ca 3c
       0.0034865644 0.025199879 0.043201625 0.02474049
0000d0 74 f4 11 3d 2f d3 b3 38 13 a8 50 bc 07 a0 8b 3b
       0.03563352 8.574721e-05 -0.0127353845 0.00426102
0000e0 4e 82 49 3c 68 76 c7 bd 72 b0 9c 3a 53 f1 7d ba
       0.012299133 -0.09739381 0.001195444 -0.0009687144
0000f0 2f 5d 44 bc 9b 27 8c bc a8 35 56 bd cd 99 24 3d
       -0.011985107 -0.01710873 -0.052297264 0.04018574
000100 18 11 76 3c a6 37 aa ba 6e 2f 0f 3e c2 99 65 3d
       0.015018724 -0.0012986555 0.13982937 0.056054838
000110 f0 5a 67 bd 10 48 9f bd 75 14 b1 b8 d1 f9 70 bc
       -0.05648321 -0.07777417 -8.443828e-05 -0.014707998
000120 1f c3 24 3c df 45 fb bc 38 7c ca bc 2a 0a 57 3d
       0.010056286 -0.030672966 -0.024717435 0.052499928
000130 48 49 86 bd 90 b6 1e 3d 98 a9 47 3b 09 d8 d3 3b
       -0.06556946 0.038748324 0.0030466076 0.0064649624
000140 ed c1 8c ba 65 48 78 3d 67 e6 22 3c 22 9e 85 3a
       -0.0010738947 0.060615916 0.0099426275 0.0010194222
000150 2b c6 0b 3d 7e 22 90 bc e1 c2 38 bd b5 82 4d 3d
       0.034124535 -0.017594572 -0.045107726 0.05017348
000160 7a a1 e5 bc aa 0c 18 3d d6 13 6e bc 42 cf 64 3d
       -0.0280311 0.037121452 -0.014531096 0.05586172
000170 a2 54 1f 3d a3 53 96 bc 99 39 10 3d 19 54 35 3d
       0.03889907 -0.018350428 0.03521118 0.044269655
000180 30 e7 82 bb ed 3c 94 bb 6f 29 7b 3b b3 df 4a bd
       -0.003994845 -0.0045238645 0.0038324257 -0.049529742
000190 17 c7 b6 3b c2 8c d0 bb b6 95 0a bc 8e b3 da bc
       0.0055779326 -0.006364436 -0.008458545 -0.026696946
0001a0 cd 36 24 3d 94 31 06 be 96 17 da bc 5f c2 d5 bc
       0.040091325 -0.1310485 -0.026622575 -0.02609366
0001b0 71 e4 8f bd 72 77 03 3d 11 5d 0d bc f6 c0 f6 bc
       -0.070259936 0.032096334 -0.008628146 -0.030121308
0001c0 92 cc 2d 3d 6a f7 70 3c 1d 53 ae 3c ee 69 0f 3d
       0.04243142 0.014707426 0.021279866 0.03501313
0001d0 98 7f cd 3b 10 d7 02 bd 45 3b 18 bd b6 b2 d7 3a
       0.006271314 -0.03194338 -0.0371659 0.0016456458
0001e0 f9 4c 48 3d b9 fb 3f 3d e0 94 45 3b 64 7e d2 ba
       0.04890153 0.04687092 0.003014855 -0.0016059396
0001f0 ce 14 ec 3c c8 53 67 bd fa b0 86 bc 88 87 23 bd
       0.028818514 -0.056476384 -0.01644181 -0.039924175
000200 ae 08 4f 3c f0 0d 55 bd 80 bc fe bc 7f a4 8a bd
       0.012636347 -0.052015245 -0.031095743 -0.067696564
000210 2d 2a 52 3d ad 03 9b 3c 0f f5 33 3d 8f 36 3f 3d
       0.051309753 0.018922651 0.043934878 0.04668289
000220 61 16 0e 3d 89 1f 2f 3d 27 6a 37 bc 6f 07 8f 3c
       0.03468931 0.042754684 -0.011194742 0.0174596
000230 65 41 06 3d 99 7a 7e bd 01 9e 18 3d d2 99 4f 3d
       0.03277721 -0.062128637 0.03726006 0.050683804
000240 46 96 c8 3c bb fa ac bd a5 13 0e 3d dd a2 aa 3c
       0.024485718 -0.084462605 0.034686703 0.020829612
000250 49 b0 32 bd 3f 35 26 3c 41 07 29 bd f9 18 53 3d
       -0.04362515 0.010144531 -0.041266683 0.051537488
000260 a4 d5 4d 3d f4 ff 0e bd 1e 18 21 bc 0a 0a f0 bc
       0.05025257 -0.034912065 -0.00983241 -0.029301662
000270 48 7e 8e 3c a3 1a 5e bd 3a d3 51 3d f9 77 7d bb
       0.0173942 -0.05422462 0.051226832 -0.0038676246
000280 bd 67 60 3d ab b7 40 bc c0 ec 13 3c dd 42 77 bc
       0.054786433 -0.01176254 0.009028614 -0.015091625
000290 49 85 7e 3d 53 a7 4d 3d 07 7a 12 bc 0d b0 70 bd
       0.06213883 0.0502084 -0.008940226 -0.058761645
0002a0 07 ef 2d 3d d1 4f be b9 80 08 1e 3b 5a 04 01 3d
       0.042464282 -0.00036299092 0.0024113953 0.03149829
0002b0 07 58 0e 3d e6 1b bf 3c a2 62 85 bd d1 f8 ab bc
       0.03475192 0.023328733 -0.06512953 -0.020992668
0002c0 af 37 5a 3d b2 7e b4 bc ab b6 84 bc d0 6f 44 bd
       0.05327576 -0.02203307 -0.016200384 -0.047958195
0002d0 dd a8 32 3d 06 96 e7 bc a9 57 88 3d fb 89 f2 bc
       0.04361807 -0.028269779 0.06657345 -0.02960681
0002e0 c1 89 03 be 0f 68 e0 bc b2 de 4b bd f8 1a d6 bb
       -0.12845518 -0.027393369 -0.049772926 -0.0065339766
0002f0 b2 a4 a8 bc d6 f5 39 bd 8a e3 94 bc 5d 5e 25 bd
       -0.020586345 -0.045400463 -0.018174905 -0.040373195
000300 27 f6 51 3d 71 9d 98 bc d4 2a 31 3d 96 7b d6 bd
       0.05126014 -0.018629761 0.043253735 -0.10472791
000310 b9 ec 12 3d 2c 21 06 3d 02 c6 79 3d 9a 6e ae ba
       0.035870288 0.03274648 0.06097985 -0.0013308108
000320 38 1d 70 bd 8c a8 6e bc aa 88 d2 bc 36 7a a3 3c
       -0.058621615 -0.014566552 -0.025699932 0.019955736
000330 82 65 c5 3c 45 49 29 bd 56 d9 96 3c f1 cf 8d bb
       0.024096254 -0.04132964 0.01841418 -0.004327767
000340 27 5a 19 bc 04 ac 7a 3c 6d 1b cf bd 0e a3 8e 3c
       -0.009359873 0.015299801 -0.10112653 0.017411735
000350 ef 19 51 bd 53 55 5e 3c 96 74 d0 bc 85 c2 8e 3d
       -0.051050123 0.013570148 -0.025446218 0.069706954
000360 6a 5c c3 bc 13 4b 98 3c c5 00 e1 bd f9 a1 59 3d
       -0.023847777 0.018590486 -0.10986475 0.053132985
000370 26 41 12 3d 6e 33 07 3d 1e e1 6e bc 43 5c 3c bc
       0.03570666 0.03300803 -0.014580039 -0.011496606
000380 96 2f 1c bc bd c0 95 3d b5 29 38 bd 69 41 f3 3c
       -0.00953283 0.073121525 -0.04496165 0.029694276
000390 64 97 00 3c ad 05 67 3c eb b7 de 3c d4 10 8e bc
       0.007848594 0.014100474 0.027187308 -0.017342009
0003a0 c3 46 9f 3c e5 28 1d 3d 12 66 38 3d 91 1c 12 3d
       0.019442922 0.03836908 0.045019217 0.035671774
0003b0 a6 3b 4d bd 27 cc 6a 3d b7 07 bc 3d a5 32 64 bb
       -0.050105713 0.0573236 0.09181159 -0.0034820226
0003c0 64 62 2b 3c 64 8c 20 bd 8b 2f 52 3d 15 9a d1 3b
       0.01046047 -0.039196387 0.05131487 0.006396542
0003d0 71 b9 09 3d 9c 55 04 3d 87 ec 84 3c 45 80 8d bd
       0.033624116 0.032308206 0.016226066 -0.06909231
0003e0 a7 9d a9 bd 76 06 a4 bc ae 3d 46 bd c1 98 fd bc
       -0.08282023 -0.020022612 -0.048398666 -0.030956628
0003f0 c4 5b 1e 3d 68 a2 6d 3d a5 03 c8 bb 5b cd 3d 3d
       0.038661733 0.05801621 -0.00610395 0.04633842

fc2.bias f4 [10]
000000 fe 28 14 3d cf 29 e0 3c d5 18 1e ba c5 0b 1d bd
       0.036171906 0.027363686 -0.0006030922 -0.038341302
000010 40 94 99 bc 00 e3 36 3d 95 d6 00 3d 3d 3b 81 3a
       -0.018747449 0.044650078 0.03145464 0.0009859573
000020 ff 9f 02 b9 98 d0 31 3c
       -0.0001245737 0.010852955
