baseline/checkpoints/LeNet/P2_USPStoMNIST_1/LeNet_classifier_110.pt (torch_old, 20591 bytes, 2 tensors)

fc2.weight f4 [10, 500]
000000 5a 8a 50 bd 69 a7 5a bd fe 81 74 3b 7a e2 68 bd
       -0.050913192 -0.05338231 0.0037308927 -0.05685661
000010 c9 8e 51 3c cd 5e 18 bb 5c f9 dd bd 0c 0a e1 bc
       0.01279039 -0.0023249865 -0.10838577 -0.027470611
000020 e0 85 89 3d 55 4b 83 3d 5f f0 c9 3c b3 fa 29 3d
       0.06714988 0.06410853 0.02465075 0.04149885
000030 35 a9 b5 3c 93 ab 4f bb 05 fa 4a bd cd 7e 2b 3d
       0.02217541 -0.003168796 -0.049554843 0.041868974
000040 4c 84 15 bd 7d 18 60 bd fd 4f a4 bd 1e 9e 0d bd
       -0.03650312 -0.054710854 -0.08023069 -0.03457462
000050 be b2 05 3d ed 8b 20 3d d9 65 29 3d 3a c0 4c bd
       0.032641165 0.039195944 0.041356895 -0.04998801
000060 1d 46 5a bd eb f8 f0 bc 4e 6a 28 39 0a f3 61 bc
       -0.05328952 -0.029415568 0.0001606133 -0.013790855
000070 c4 2a 64 bd a4 b6 7b bd d2 8c ea 3c a3 3f 1b bd
       -0.055704847 -0.061453477 0.028631601 -0.037902486
000080 1e 45 15 3d b6 9f bf bc 6a 81 8c bd ff 89 49 bd
       0.03644287 -0.023391586 -0.06860621 -0.04920387
000090 a5 fb 84 bd bf 09 67 3d 94 c7 21 bd 1b 32 08 bd
       -0.0649331 0.05640578 -0.039496973 -0.03325091
0000a0 b6 5d a2 3a 84 22 6d 3d 6e 38 9d bc 95 fa 06 3d
       0.0012387547 0.057894245 -0.019191947 0.032953817
0000b0 e5 b4 00 3d 33 d1 28 3d 65 29 46 3d 9e cb 46 3d
       0.031422514 0.041215133 0.04837932 0.04853403
0000c0 6e ce 64 3c 4c ab cd 3c 30 f4 30 3d 03 da dd 3c
       0.013965232 0.025106095 0.043201625 0.027081495
0000d0 90 d8 24 3d 2f d3 b3 38 13 a8 50 bc 60 32 32 3b
       0.040245593 8.574721e-05 -0.0127353845 0.002719067
0000e0 2e f2 53 3c 9a 80 ed bd 72 b0 9c 3a ff b7 1b bb
       0.012936158 -0.115967944 0.001195444 -0.0023760793
0000f0 2f 5d 44 bc 9b 27 8c bc 3c ed 63 bd 1b bc 37 3d
       -0.011985107 -0.01710873 -0.055646166 0.044857126
000100 8e 1d 8e 3c bc fd c5 3b a3 98 36 3e f3 33 6e 3d
       0.017348077 0.0060422104 0.17831664 0.05815501
000110 19 e4 7e bd 96 f8 c1 bd 4e a1 ab 39 77 ca 7e bc
       -0.06222925 -0.09471242 0.00032735843 -0.015551201
000120 29 59 30 3c 93 09 08 bd 81 ab e6 bc ec 60 62 3d
       0.010763445 -0.033212256 -0.028157951 0.055268213
000130 10 cf 9c bd c2 30 21 3d 25 e5 08 3b 12 af 07 3c
       -0.076566815 0.03935314 0.0020888534 0.008281486
000140 1e c5 0f bb fa 91 82 3d 89 38 32 3c 2a df f0 38
       -0.002193756 0.06375499 0.010877737 0.00011485659
000150 eb 79 10 3d 87 79 99 bc fe f8 3d bd 3f ea 52 3d
       0.03527252 -0.018734707 -0.046380036 0.051492926
000160 8c db f9 bc 89 17 19 3d 2e 7d 8a bc 2c c8 68 3d
       -0.030500196 0.03737596 -0.016905393 0.056831524
000170 7f 55 27 3d 20 29 aa bc c8 b5 17 3d 48 8d 36 3d
       0.04085302 -0.020771563 0.037038594 0.04456833
000180 30 e7 82 bb cc c7 95 bb 57 3a 5b 3b 19 d2 4d bd
       -0.003994845 -0.004570937 0.0033451521 -0.050249193
000190 3b 7f a6 3b 8b 4e a4 3a 4b 13 9b bc 45 41 e3 bc
       0.005081085 0.0012535615 -0.018930098 -0.027741084
0001a0 4a 36 2f 3d 1c f4 25 be e5 68 fe bc 22 bc d5 bc
       0.042776383 -0.16206402 -0.031055877 -0.026090685
0001b0 c5 87 94 bd e1 0c 03 3d 69 14 f1 bb 50 dd 04 bd
       -0.072524585 0.031994704 -0.0073571694 -0.032437623
0001c0 80 df 3b 3d c2 05 6e 3c 8f 88 ba 3c b6 5e 14 3d
       0.045867443 0.01452774 0.022770194 0.036223136
0001d0 ef cc e4 3b 10 d7 02 bd 45 3b 18 bd 3e bc e7 3a
       0.006982438 -0.03194338 -0.0371659 0.0017680002
0001e0 0f 15 4a 3d 07 0c 47 3d bd 39 88 3b fb fc 67 bb
       0.04933649 0.048595455 0.0041572736 -0.003539859
0001f0 58 a1 ee 3c 00 1f 7c bd 44 f4 b0 bc f2 35 2a bd
       0.02912967 -0.061553 -0.02160085 -0.041555353
000200 22 b0 6e 3c 6e 27 63 bd 85 a9 08 bd 10 43 91 bd
       0.0145683605 -0.055457525 -0.03336479 -0.07092869
000210 91 c9 7e 3d 6b ec b1 3c 73 a6 5a 3d 8e b5 42 3d
       0.062203947 0.021719178 0.053381395 0.047536425
000220 96 a8 15 3d e2 90 3e 3d de b4 4e bc 46 c1 8c 3c
       0.03653773 0.04652489 -0.012616364 0.017182004
000230 5a 12 08 3d fd 90 86 bd 28 ea 24 3d 3f 40 5b 3d
       0.033220626 -0.06570623 0.04026237 0.053528067
000240 26 69 db 3c 05 26 c8 bd 56 f5 2c 3d 4e 3a b6 3c
       0.026783537 -0.09772877 0.042226158 0.022244599
000250 99 8d 35 bd 9e e3 2a 3c 8e b2 31 bd a0 36 6d 3d
       -0.04432449 0.010430245 -0.043383174 0.057913423
000260 b6 a4 53 3d fe 85 07 bd 1e 18 21 bc d9 dd 02 bd
       0.051670752 -0.03308677 -0.00983241 -0.03194985
000270 26 04 de 3c 0f 72 7b bd e3 f0 60 3d 04 a2 30 bb
       0.027101588 -0.06138807 0.054917227 -0.0026952038
000280 38 85 6a 3d a4 8b 6f bc 42 86 27 3c cd 0b 96 bc
       0.057255954 -0.014620695 0.010224881 -0.018316174
000290 d7 96 87 3d 87 17 73 3d 90 fd 30 bc 53 0f 92 bd
       0.06620567 0.05934861 -0.0108026415 -0.07131829
0002a0 14 b8 33 3d f3 34 df ba 6d 18 79 3b fa a1 1c 3d
       0.043876722 -0.001702933 0.0038008944 0.03824041
0002b0 0d 78 15 3d 05 16 ca 3c 74 96 8e bd 91 eb af bc
       0.036491442 0.024668703 -0.069622904 -0.021474632
0002c0 e2 c2 5b 3d e4 0d 2e bc da 3f 47 bc dc 46 68 bd
       0.05365265 -0.010623429 -0.0121612195 -0.0567082
0002d0 27 28 3b 3d 06 96 e7 bc a2 c2 8e 3d 79 9b f5 bc
       0.04569259 -0.028269779 0.06970717 -0.029981362
0002e0 7b 88 28 be 1d 21 eb bc 91 44 67 bd c2 e6 fe bb
       -0.16458313 -0.028702313 -0.056461874 -0.0077789733
0002f0 ac b2 b1 bc 5c 5a 46 bd 68 a2 bd bc 9c 7c 2d bd
       -0.021691643 -0.048426017 -0.02314873 -0.042355165
000300 39 23 57 3d 71 9d 98 bc 3f 08 3f 3d 80 f4 0c be
       0.052523825 -0.018629761 0.046638723 -0.13765144
000310 12 2c 1d 3d e0 cb 13 3d ec 2d 83 3d d3 b0 d6 ba
       0.038372107 0.036083102 0.06405243 -0.0016379602
000320 64 58 85 bd 2f 50 86 bc d5 68 03 bd d1 ac 9b 3c
       -0.06511 -0.016395656 -0.032082397 0.019003304
000330 90 a9 c2 3c e9 0a 32 bd 68 71 bc 3c 31 47 61 bb
       0.023762494 -0.043467436 0.023003295 -0.0034374709
000340 27 5a 19 bc d1 90 9d 3c 88 c1 e5 bd 95 7f 93 3c
       -0.009359873 0.019234093 -0.11218554 0.018005172
000350 0b 85 5e bd a3 c7 52 3c 7e 2f de bc 34 b5 99 3d
       -0.0543261 0.01286498 -0.027122255 0.07505265
000360 a5 62 2a bc 28 5c c2 3c ce 18 f9 bd 1a ee 6b 3d
       -0.010399495 0.023725584 -0.12162934 0.05760012
000370 70 83 14 3d 16 54 13 3d 62 c7 95 bc eb cd 9f bc
       0.03625816 0.035968862 -0.01828355 -0.019507369
000380 96 2f 1c bc 65 52 9a 3d b4 24 42 bd 66 84 11 3d
       -0.00953283 0.07535247 -0.047398284 0.035526656
000390 74 25 fd 3b 10 45 6c 3c 2f 9b e7 3c 93 06 97 bc
       0.007725412 0.014420763 0.02827224 -0.018435752
0003a0 a0 f9 a0 3c f4 bc 39 3d be 3f 41 3d 20 4e 14 3d
       0.01965028 0.045346215 0.04717993 0.03620732
0003b0 27 25 5d bd 39 29 75 3d ab 49 e2 3d a5 32 64 bb
       -0.05399051 0.059853766 0.11049207 -0.0034820226
0003c0 fe b3 0e 3c 5d 7c 19 bd 21 5a 55 3d c0 00 0e 3c
       0.008709906 -0.037472118 0.052087907 0.008667171
0003d0 5c cf 0b 3d 66 e8 19 3d 10 55 8a 3c b3 23 9d bd
       0.0341333 0.037575148 0.016886264 -0.07672825
0003e0 f7 83 cc bd fa ad ac bc 49 e1 50 bd c2 de 13 bd
       -0.09986108 -0.021079052 -0.0509961 -0.03610111
0003f0 34 42 21 3d ee f5 75 3d b1 0c dd bb 0f 99 44 3d
       0.039369777 0.06004899 -0.0067458977 0.04799753

fc2.bias f4 [10]
000000 00 91 12 3d aa 06 e0 3c c3 06 e9 b9 30 4f 1c bd
       0.035782814 0.027346928 -0.0004444626 -0.038161457
000010 fc be 97 bc d9 ca 37 3d 7f 7a 01 3d 06 72 3d 3a
       -0.018523686 0.044871185 0.031610962 0.00072267686
000020 25 86 d9 3a 57 88 31 3c
       0.0016595764 0.010835729
