baseline/checkpoints/LeNet/P2_USPStoMNIST_1/LeNet_classifier_130.pt (torch_old, 20591 bytes, 2 tensors)

fc2.weight f4 [10, 500]
00000000: acbf 59bd 6acf 5fbd 7283 ad3b 9c78 6abd
00000010: 449a 513c 9676 32bb 6c6f edbd 0c0a e1bc
00000020: 9e36 913d 84ce 843d abb7 cd3c d237 2c3d
00000030: 8c20 bb3c 7a8c 84bb a405 4ebd 598b 2f3d
00000040: f12e 13bd 46f8 62bd 284e a6bd d65c 0ebd
00000050: c763 063d d7eb 263d ba9e 2c3d 33d0 48bd
00000060: 575a 5ebd 7eb6 f3bc 4e6a 2839 0af3 61bc
00000070: 8a13 67bd 50ae 82bd 1678 ee3c 2b3e 1bbd
00000080: 1e45 153d 9c57 c5bc b859 8fbd 2e82 4cbd
00000090: 4ae9 87bd 3ed3 703d 30ce 25bd fe8f 09bd
000000a0: f477 873b 60b1 733d 0a30 97bc 7efa 063d
000000b0: f66f 063d d65d 2a3d 154e 503d f689 493d
000000c0: 4fb3 973c 2789 d03c 30f4 303d 9852 e83c
000000d0: ee14 2f3d 1f3c b138 13a8 50bc cf62 ce3a
000000e0: 0eab 5a3c 025f 02be 72b0 9c3a d937 46bb
000000f0: 2f5d 44bc 9b27 8cbc 0ce0 69bd 6567 403d
00000100: 2700 9d3c 173a 483c 1e5b 493e 53bb 703d
00000110: 784e 84bd 7258 d1bd da37 e8ba adab 83bc
00000120: 73a3 3b3c e2af 0cbd 743c f2bc 7c8c 683d
00000130: 03da a4bd a7be 223d bc4a 0a3b 42cf 1e3c
00000140: 7a31 42bb 635e 863d bdc1 3a3c bfe1 36ba
00000150: a084 133d 3382 9ebc 32fe 3fbd edbd 553d
00000160: 2f5e 05bd a56e 1a3d 6052 93bc 40b5 6c3d
00000170: d0df 2d3d 17ef b0bc 003e 1b3d c7a5 373d
00000180: 30e7 82bb 58d1 8bbb 698c 5a3b adbd 4cbd
00000190: 60ca a43b aef3 853b c5a6 c8bc 59cb e4bc
000001a0: 4c28 353d 4902 37be 3751 06bd 22bc d5bc
000001b0: eec1 93bd ffa6 033d 50e3 e2bb 8484 08bd
000001c0: b02a 443d 306b 6d3c e8da c33c cdee 183d
000001d0: 56f6 f13b 10d7 02bd 453b 18bd cd28 0b3b
000001e0: 7db9 4b3d e146 4b3d 21b5 ad3b e628 7dbb
000001f0: 8562 f13c a3c4 82bd 3209 c7bc ac3c 2cbd
00000200: f3b3 7e3c 9564 68bd 25d8 09bd 1b73 93bd
00000210: 9346 8d3d 6246 bf3c 7b2b 713d 38c0 443d
00000220: a0fa 1a3d 46f5 473d f2de 59bc e9c9 8c3c
00000230: 7697 093d ed7b 89bd 1046 2d3d ccb3 613d
00000240: 3ea1 dc3c 9a39 d6bd b349 413d f0fc b93c
00000250: 931b 1fbd b3ee 2e3c 99a8 35bd 8b40 793d
00000260: 7728 563d ca35 f9bc 1e18 21bc 3ae3 04bd
00000270: 0c2f 053d 0cd3 82bd a929 6b3d 507a 04bb
00000280: 1e4b 6f3d 9dde 81bc f463 3d3c cbc4 a1bc
00000290: 9f9e 8b3d 1f25 853d 79ec 39bc 88cb 9bbd
000002a0: f24b 373d a2fe 07bb 1782 963b b8e4 293d
000002b0: 1a7f 163d d54a d33c 249b 92bd 2c94 b0bc
000002c0: b149 5e3d a9a8 14bb 71fe 20bc e0bf 7cbd
000002d0: 306e 3e3d 0696 e7bc 1cdf 913d db25 f5bc
000002e0: 92f8 3bbe 8c22 eebc 51b8 70bd 05fa 05bc
000002f0: e519 b5bc 9cfb 4abd ba7d d8bc 2da1 2fbd
00000300: f1c6 593d 719d 98bc 2236 463d 26a8 1cbe
00000310: d8e8 223d 92c9 1a3d 5a67 873d 0d6e 79ba
00000320: ef77 89bd e09d 8cbc 6fa6 0abd 8a04 953c
00000330: 9705 c33c c1f3 30bd 9fd0 cd3c b3d1 27bb
00000340: 275a 19bc be2d a93c 0605 f0bd 6696 973c
00000350: f0c3 62bd 9217 523c e485 eabc d59e 9c3d
00000360: dce3 7ebb 620c d93c 4eb7 01be 0990 793d
00000370: 2bb0 183d e296 183d 7267 a1bc 7d8c b9bc
00000380: 962f 1cbc 85aa 9c3d 5798 46bd 6c88 1d3d
00000390: a0b0 fe3b a17b 733c 294c e93c 77c5 98bc
000003a0: a4ae 9f3c 246a 4d3d 57c6 463d e39e 153d
000003b0: fa27 63bd 5c00 7c3d 03de f53d a532 64bb
000003c0: 56ce 003c 5fd6 14bd 3c98 573d 60ca 203c
000003d0: 2f98 0d3d 1763 253d 9c4e 933c 6503 a3bd
000003e0: c9df dabd 5413 afbc ef22 57bd d2be 20bd
000003f0: 690d 243d 26c1 7a3d 9f9c e2bb 89ef 413d
-0.05316131 -0.054641165 0.0052952105 -0.05724393 0.012793127 -0.0027231327 -0.11593518 -0.027470611
0.070904955 0.06484702 0.025111994 0.042045422 0.022842668 -0.0040450664 -0.050298348 0.0428575
-0.03593344 -0.055412553 -0.08120376 -0.034756504 0.03281 0.04075226 0.04214356 -0.04902668
-0.054285374 -0.029750105 0.0001606133 -0.013790855 -0.05641512 -0.06380904 0.029109996 -0.037901085
0.03644287 -0.024089627 -0.06999534 -0.049928837 -0.06636293 0.058795206 -0.04047984 -0.033584587
0.0041341726 0.05949533 -0.018455524 0.03295373 0.032821618 0.041593395 0.050855715 0.049203835
0.018518118 0.025456024 0.043201625 0.028359696 0.04274457 8.451216e-05 -0.0127353845 0.0015746
0.013346447 -0.12731555 0.001195444 -0.003024569 -0.011985107 -0.01710873 -0.057098433 0.046973605
0.019165112 0.012220881 0.19663665 0.058772396 -0.06460279 -0.10221948 -0.001771684 -0.016073072
0.011452544 -0.034347422 -0.029569842 0.0567746 -0.08049395 0.0397326 0.0021101674 0.009692969
-0.002963154 0.065609716 0.01139873 -0.0006976388 0.036015153 -0.019349193 -0.04687328 0.05218308
-0.032560524 0.037703175 -0.017983615 0.05779004 0.042449772 -0.021598382 0.037900925 0.044835832
-0.003994845 -0.004266899 0.003334785 -0.049985576 0.005029008 0.004087887 -0.024493584 -0.027928995
0.044227883 -0.17871965 -0.032792296 -0.026090685 -0.072147235 0.03214168 -0.0069240704 -0.0333295
0.047892272 0.0144908875 0.023908094 0.037337113 0.007384102 -0.03194338 -0.0371659 0.0021234036
0.049737442 0.049628142 0.0053011333 -0.0038629114 0.029465923 -0.06385162 -0.024296377 -0.04205005
0.015545833 -0.056736547 -0.033653397 -0.07199689 0.068982266 0.02334899 0.058879357 0.048034877
0.03783667 0.048817895 -0.013297783 0.017186122 0.03359171 -0.0671309 0.042303145 0.05510311
0.026932355 -0.104602054 0.047189426 0.022703618 -0.038844656 0.0106770275 -0.04435024 0.06085257
0.052284684 -0.030421156 -0.00983241 -0.032443263 0.03251557 -0.0638791 0.057412777 -0.0020214505
0.058421247 -0.01585322 0.011559475 -0.019747159 0.06817364 0.06501221 -0.011347883 -0.0760718
0.04475016 -0.0020751138 0.0045931446 0.04147789 0.036742307 0.025792519 -0.07158497 -0.021555029
0.054269496 -0.0022683537 -0.009826289 -0.061706424 0.0464918 -0.028269779 0.07122633 -0.029925277
-0.18356541 -0.029069208 -0.058769528 -0.008177285 -0.022107074 -0.04955636 -0.026427139 -0.04287832
0.05316824 -0.018629761 0.04839147 -0.15298519 0.03977284 0.03778989 0.066115096 -0.0009514995
-0.06712329 -0.017165124 -0.03385013 0.018190641 0.023806376 -0.04320121 0.025123892 -0.0025607168
-0.009359873 0.020651694 -0.11719708 0.018504333 -0.05536264 0.012823002 -0.028628297 0.07647482
-0.003889314 0.026495162 -0.12667581 0.06092838 0.037277382 0.037253268 -0.019702647 -0.022649998
-0.00953283 0.076497115 -0.048485126 0.03846018 0.00777252 0.014861018 0.028478699 -0.018648846
0.019492455 0.05015005 0.048528995 0.03652848 -0.055458046 0.06152378 0.12005236 -0.0034820226
0.007861694 -0.036337253 0.052635416 0.009813875 0.03456896 0.040377703 0.01798182 -0.07959632
-0.10687215 -0.021371521 -0.05252355 -0.03924448 0.04005185 0.061219357 -0.0069156433 0.04734758

fc2.bias f4 [10]
00000000: bc71 123d 3647 dd3c af30 84b9 bb92 1abd
00000010: 4a3c 98bc 7208 373d 0f16 023d 0f38 1f3a
00000020: d9e7 143b 2b46 333c
0.035752997 0.027011495 -0.00025213274 -0.03773759 -0.018583436 0.04468579 0.031759318 0.0006073722
0.00227212 0.010942022
