baseline/checkpoints/LeNet/P2_USPStoMNIST_1/LeNet_classifier_30.pt (torch_old, 20591 bytes, 2 tensors)

fc2.weight f4 [10, 500]
-0.043515913 -0.051518116 0.0025735109 -0.038854823 0.013330168 -0.0022020051 -0.057259444 -0.027470611
0.05335124 0.044669464 0.019822627 0.039315473 0.019283937 -0.005716844 -0.046711758 0.034579415
-0.039077483 -0.05080707 -0.05903347 -0.03126385 0.03211974 0.034573082 0.037498042 -0.046767835
-0.049482375 -0.025655406 0.0001606133 -0.013195625 -0.049718425 -0.04403432 0.030809313 -0.037902486
0.036745783 -0.020897651 -0.054169994 -0.04004503 -0.05600901 0.04398976 -0.038753696 -0.029419202
0.00038991324 0.04803271 -0.017623529 0.032953817 0.027575947 0.040892437 0.033423144 0.041968055
-0.008622737 0.024854926 0.04353398 0.015328272 0.027892094 8.574721e-05 -0.0127353845 0.0075598424
0.01071806 -0.06642617 0.001195444 -0.00051466504 -0.011985107 -0.01710873 -0.04760631 0.032166593
0.011880814 0.0011807369 0.0781715 0.047121778 -0.046605475 -0.046616368 -8.443828e-05 -0.014590626
0.010282019 -0.022868905 -0.020081803 0.044973172 -0.043606155 0.03725599 0.0024394128 0.0080704605
-0.0009322028 0.054576285 0.0083372 0.0009899227 0.029911667 -0.018099567 -0.044801563 0.04837721
-0.028044265 0.03573147 -0.010639807 0.054920502 0.0355464 -0.013751388 0.03279868 0.043170746
-0.003994845 -0.0034588985 0.004596164 -0.047728475 0.004810237 -0.020965405 5.323256e-05 -0.024327537
0.034756534 -0.08492614 -0.020672739 -0.02609366 -0.04821716 0.031275693 -0.012648961 -0.027432637
0.034250755 0.014028114 0.01898268 0.034412406 0.0040907725 -0.03194338 -0.0371659 0.0013063087
0.047410507 0.04351502 0.0029859012 0.00020758332 0.027119929 -0.05029996 -0.011922493 -0.03770234
0.007977478 -0.044210017 -0.021058194 -0.057461195 0.044021476 0.013108633 0.037340485 0.043824885
0.03318459 0.036249127 -0.0103749 0.01682893 0.031766392 -0.057101104 0.03235237 0.04467296
0.022482496 -0.05754464 0.027804926 0.018253215 -0.04362515 0.008877196 -0.03920934 0.040302757
0.045076113 -0.033079572 -0.00983241 -0.02002313 0.005531804 -0.039838098 0.047426075 -0.0065740026
0.05060111 -0.010372398 0.008125451 -0.0066243745 0.04799053 0.03996718 -0.0076760775 -0.045291934
0.03477162 0.0013121783 5.7170535e-05 0.021620555 0.029652562 0.019975783 -0.05802779 -0.01988217
0.054104906 -0.016473116 -0.0206192 -0.035628542 0.039647125 -0.028269779 0.056952782 -0.028919723
-0.062872544 -0.024321727 -0.03712743 -0.0052880617 -0.021158714 -0.038800623 -0.01964468 -0.03579263
0.046521027 -0.01861201 0.03560874 -0.058372054 0.032890033 0.02404005 0.053883515 -0.0034044185
-0.040582314 -0.012189623 -0.009763958 0.02128869 0.023782253 -0.035886668 0.011945791 -0.006810148
-0.009359873 0.0127692 -0.060669452 0.016941754 -0.04150167 0.014152928 -0.023789667 0.05743771
-0.030732712 0.008185424 -0.07873059 0.04629745 0.036102924 0.025944225 -0.011597333 0.0038522563
-0.00953283 0.06295756 -0.041381173 0.015946068 0.007447663 0.014104047 0.02389379 -0.017160432
0.017191594 0.035116643 0.036515824 0.033212483 -0.043028023 0.053625878 0.061523657 -0.0032244322
0.01764519 -0.03396538 0.04910046 0.0042610303 0.03230671 0.02956166 0.019123333 -0.050473083
-0.058924276 -0.015942233 -0.043771297 -0.016389923 0.037199013 0.049394533 -0.0062638875 0.03615144
00000000: be3d 32bd a904 53bd 59a8 283b 3c26 1fbd
00000010: c766 5a3c 844f 10bb e188 6abd 0c0a e1bc
00000020: d486 5a3d 54f7 363d 1063 a23c 4309 213d
00000030: 59f9 9d3c 5d54 bbbb d454 3fbd 25a3 0d3d
00000040: b60f 20bd 131b 50bd 14cd 71bd 860e 00bd
00000050: fd8f 033d 819c 0d3d 8c97 193d a18f 3fbd
00000060: 08ae 4abd 492b d2bc 4e6a 2839 7632 58bc
00000070: 8ca5 4bbd 555d 34bd d063 fc3c a33f 1bbd
00000080: bf82 163d 8d31 abbc 5be1 5dbd 4206 24bd
00000090: b469 65bd 9b2e 343d 32bc 1ebd 8a00 f1bc
000000a0: 456d cc39 f2bd 443d 385f 90bc 95fa 063d
000000b0: f4e6 e13c d47e 273d b5e6 083d b2e6 2b3d
000000c0: 6146 0dbc 8f9c cb3c b050 323d 6f23 7b3c
000000d0: f67d e43c 2fd3 b338 13a8 50bc 8eb8 f73b
000000e0: cd9a 2f3c 720a 88bd 72b0 9c3a 96ea 06ba
000000f0: 2f5d 44bc 9b27 8cbc d6fe 42bd 1ec1 033d
00000100: bfa7 423c f5c2 9a3a 6118 a03d c402 413d
00000110: 62e5 3ebd cef0 3ebd 7514 b1b8 850d 6fbc
00000120: ea75 283c 9257 bbbc 9882 a4bc ca35 383d
00000130: 5e9c 32bd bd99 183d 8ede 1f3b f739 043c
00000140: 125f 74ba 628b 5f3d c098 083c 4bc0 813a
00000150: 5009 f53c 8b45 94bc d881 37bd 2e27 463d
00000160: 16bd e5bc 295b 123d 9652 2ebc 52f4 603d
00000170: 1a99 113d 804d 61bc e957 063d cfd3 303d
00000180: 30e7 82bb b0ae 62bb 6b9b 963b ef7e 43bd
00000190: 319f 9d3b a4bf abbc 0746 5f38 8b4a c7bc
000001a0: de5c 0e3d c2ed adbd e059 a9bc 5fc2 d5bc
000001b0: 5b7f 45bd f11a 003d 963d 4fbc 69ba e0bc
000001c0: 854a 0c3d 2dd6 653c 9181 9b3c 06f4 0c3d
000001d0: e30b 863b 10d7 02bd 453b 18bd 7238 ab3a
000001e0: 8531 423d ce3c 323d 1caf 433b b9aa 5939
000001f0: 9d2a de3c 5507 4ebd 8f56 43bc c56d 1abd
00000200: f8b3 023c 9015 35bd 3c82 acbc 6e5c 6bbd
00000210: dd4f 343d 98c5 563c 56f2 183d b981 333d
00000220: 91ec 073d f779 143d 7cfb 29bc d3dc 893c
00000230: 7a1d 023d d9e2 69bd eb83 043d fefa 363d
00000240: 362d b83c eeb3 6bbd 28c7 e33c c487 953c
00000250: 49b0 32bd a971 113c f999 20bd 8114 253d
00000260: bba1 383d 727e 07bd 1e18 21bc 8c07 a4bc
00000270: 2344 b53b 462d 23bd d841 423d bb6a d7bb
00000280: 1c43 4f3d fef0 29bc 9d20 053c 4811 d9bb
00000290: b891 443d a0b4 233d 9b87 fbbb 0984 39bd
000002a0: b06c 0e3d 66fd ab3a 65ca 6f38 971d b13c
000002b0: eee9 f23c 41a4 a33c 8cae 6dbd efdf a2bc
000002c0: 1b9d 5d3d a1f2 86bc 99e9 a8bc 3cef 11bd
000002d0: 0665 223d 0696 e7bc 5247 693d 0ee9 ecbc
000002e0: 52c3 80bd 5c3e c7bc ef12 18bd 7a47 adbb
000002f0: 0a55 adbc 67ed 1ebd e1ed a0bc 4b9b 12bd
00000300: d58c 3e3d 3778 98bc 78da 113d 8917 6fbd
00000310: b3b7 063d a4ef c43c f6b4 5c3d aa1c 5fbb
00000320: a439 26bd fcb6 47bc 02f9 1fbc 9e65 ae3c
00000330: 00d3 c23c e6fd 12bd 47b8 433c a927 dfbb
00000340: 275a 19bc e835 513c 8880 78bd 6fc9 8a3c
00000350: a8fd 29bd afe1 673c 8ce2 c2bc ce43 6b3d
00000360: 2bc3 fbbc 281c 063c 813d a1bd 65a2 3d3d
00000370: a9e0 133d fc88 d43c bd02 3ebc 2376 7c3b
00000380: 962f 1cbc e5ef 803d 4e7f 29bd 54a1 823c
00000390: 870b f43b a914 673c e9bc c33c 0994 8cbc
000003a0: 63d5 8c3c 78d6 0f3d 9e91 153d d009 083d
000003b0: 273e 30bd cfa6 5b3d 3b00 7c3d ff50 53bb
000003c0: a58c 903c 481f 0bbd 901d 493d 1da0 8b3b
000003d0: 0a54 043d 4b2b f23c 89a8 9c3c ddbc 4ebd
000003e0: 955a 71bd 4999 82bc 8849 33bd 2944 86bc
000003f0: fe5d 183d ec51 4a3d 4c41 cdbb 8813 143d

fc2.bias f4 [10]
0.036020517 0.027854957 -0.0008966649 -0.038638122 -0.01788682 0.044982232 0.031031553 0.0015578788
-0.002080737 0.010125071
00000000: 408a 133d 1430 e43c 2a0e 6bba 0243 1ebd
00000010: 6187 92bc 4a3f 383d e235 fe3c bd31 cc3a
00000020: f95c 08bb a0e3 253c
